Project/Assets/ML-Agents/Examples/RollerBall/RollerBall-171559.onnx (onnx, 75401 bytes, 8 tensors)

action_model._continuous_distribution.log_sigma f4 [1, 2]
-0.39304817 -0.44817242
00000000: 9c3d c9be db76 e5be

action_model._continuous_distribution.mu.bias f4 [2]
0.004912996 0.018202137
00000000: 33fd a03b a61c 953c

action_model._continuous_distribution.mu.weight f4 [2, 128]
-0.09468025 -0.04575506 0.09377125 -0.051547978 0.098284386 -0.03724236 -0.014212247 -0.059991546
0.027233789 0.05239681 -0.012250463 -0.05399474 -0.121618986 -0.06897583 -0.066206865 0.06120271
0.05691619 0.009308366 0.07203165 0.019580297 0.060554057 -0.09415019 -0.048454158 -0.00085639115
0.07347567 -0.0063341847 0.10303728 -0.07924518 0.08797399 0.08844233 -0.018057438 -0.040448904
-0.014954434 -0.008441704 -0.0021198683 0.055356734 -0.010774317 -0.07296194 -0.092117354 0.0024022895
0.10105883 0.08925442 -0.023108352 0.02859829 -0.040149927 0.030332714 0.100042805 0.07801156
0.03370677 0.02052442 0.053720504 -0.033129234 0.08697077 0.045779336 -0.009192536 -0.04688835
0.07050897 0.023248794 -0.017552342 0.094489865 -0.048307158 -0.06534325 -0.019330936 -0.026814062
-0.07471747 -0.09205578 -0.017113253 0.01734322 -0.060780145 0.017975884 0.042108666 -0.023795247
-0.066707 0.03893816 -0.056059062 0.101435155 0.06307957 0.0075644124 -0.07359018 0.050990548
-0.019595506 0.047155824 0.0625114 0.05112624 0.04589842 0.067454845 0.10787565 0.027642535
-0.013497342 0.07867641 -0.1401256 -0.040619157 0.090906546 0.06947263 -0.08464892 -0.0037472583
-0.0609001 -0.09469324 0.049464613 0.0121972915 -0.004019651 -0.0047972463 0.02185935 0.020417785
-0.07491202 -0.05656773 -0.04061476 0.0018780949 -0.065600045 -0.072944045 0.04687899 0.054101225
-0.016796263 -0.10232854 -0.021126792 0.058473993 -0.083294295 0.015176607 -0.0065365406 -0.11382917
0.03951107 0.11225122 0.011645061 0.024389382 0.041974653 -0.010535474 0.036496654 -0.02916454
0.008827217 0.04728735 -0.0074906396 -0.06891577 0.078973934 -0.06372609 -0.04621632 0.046184227
0.0074455854 -0.046624023 0.082065545 -0.03310458 0.0026242007 0.011894852 0.059368223 -0.023382826
-0.0020787693 -0.00875645 0.008181232 -0.07573553 0.01770297 -0.097269945 0.009309351 0.07259941
-0.010020923 0.10043699 -0.024946177 0.023308948 -0.040762994 -0.059568148 0.023290427 -0.053657137
-0.0026320172 0.077617876 0.050935347 -0.020150123 0.11086091 -0.02653871 -0.014591403 0.022841504
-0.0030534382 -0.001376201 0.06599936 -0.04157949 0.017534912 0.017012877 0.00901073 -0.05858727
-0.03002893 0.08308025 0.041251186 -0.05508427 0.0032975585 -0.04268983 0.08819221 0.08934521
-0.13259535 0.10449461 -0.013259614 -0.081911154 0.05169177 -0.0778668 0.11226168 0.09640018
-0.008060487 0.018695146 0.091788195 -0.03597019 0.037446454 -0.07019363 -0.11740283 0.010612142
0.0360502 -0.08777986 0.026771134 -0.03740827 -0.07749995 0.048191704 -0.087830566 -0.013929017
0.06856778 0.052242924 -0.06670621 0.010273953 -0.07842848 -0.030799145 0.00078105147 0.03916859
0.070680626 -0.023957757 -0.041907635 0.06631816 0.02415666 -0.014698525 0.011529092 0.04985787
-0.014618634 -0.023948263 -0.06012151 0.053652044 0.09573484 0.05685591 0.04481363 -0.03896682
0.018217051 0.0021384775 -0.00816111 0.09318474 -0.017017726 0.025872985 -0.0023760148 0.021751193
0.006064362 0.023938337 -0.00036856014 -0.048377354 0.010183797 0.10897583 0.07153914 0.022821905
0.022256525 0.014810431 -0.06933946 -0.13864824 -0.03127509 0.080702536 0.0674986 0.017839162
00000000: b8e7 c1bd a869 3bbd 240b c03d f923 53bd
00000010: 5349 c93d 728b 18bd 7cda 68bc b2b9 75bd
00000020: 6519 df3c 0a9e 563d 2ab6 48bc 9729 5dbd
00000030: 6013 f9bd 3343 8dbd 7797 87bd b1af 7a3d
00000040: f320 693d 1e82 183c 5485 933d dc66 a03c
00000050: 8807 783d d1d1 c0bd de77 46bd 707f 60ba
00000060: 697a 963d fe8e cfbb 3605 d33d 4c4b a2bd
00000070: b52b b43d 4121 b53d 31ed 93bc c0ad 25bd
00000080: 7103 75bc 134f 0abc 7ded 0abb bebd 623d
00000090: c386 30bc 126d 95bd 06a8 bcbd bb6f 1d3b
000000a0: eff7 ce3d 05cb b63d ba4d bdbc f646 ea3c
000000b0: 4074 24bd 507c f83c 3ee3 cc3d 86c4 9f3d
000000c0: 1c10 0a3d d422 a83c 080a 5c3d 85b2 07bd
000000d0: bb1d b23d 1d83 3b3d 4a9c 16bc 000e 40bd
000000e0: 0267 903d 4174 be3c eec9 8fbc e783 c13d
000000f0: badd 45bd afd2 85bd e95b 9ebc 2aa9 dbbc
00000100: 7905 99bd be87 bcbd 1831 8cbc 5e13 8e3c
00000110: 9af4 78bd 2942 933c 237a 2c3d 40ee c2bc
00000120: ae9d 88bd 9f7d 1f3d 309e 65bd 3cbd cf3d
00000130: dd2f 813d e4de f73b 73b6 96bd 77db 503d
00000140: c186 a0bc 7726 413d fa05 803d c069 513d
00000150: fbff 3b3d c425 8a3d e9ed dc3d 9972 e23c
00000160: f523 5dbc 1921 a13d 167d 0fbe 4660 26bd
00000170: 362d ba3d ab47 8e3d 6a5c adbd 9094 75bb
00000180: 6272 79bd 88ee c1bd 689b 4a3d 26d7 473c
00000190: 47b7 83bb 3832 9dbb 6112 b33c 3343 a73c
000001a0: 796b 99bd 90b3 67bd aa5b 26bd 682a f63a
000001b0: 5159 86bd b063 95bd 2f04 403d 3f99 5d3d
000001c0: 5198 89bc a091 d1bd 1812 adbc 6d82 6f3d
000001d0: 3396 aabd 4ea7 783c 7a30 d6bb 451f e9bd
000001e0: 5cd6 213d f8e3 e53d edca 3e3c 3ecc c73c
000001f0: 9ded 2b3d fb9c 2cbc 847d 153d 79ea eebc
00000200: 08a0 103c 61b0 413d 0a74 f5bb b623 8dbd
00000210: 16bd a13d d382 82bd 534d 3dbd ac2b 3d3d
00000220: 19fa f33b d5f8 3ebd fb11 a83d ab98 07bd
00000230: c8fa 2b3b a0e2 423c 182c 733d 578d bfbc
00000240: f63b 08bb 3777 0fbc 930a 063c 3b1b 9bbd
00000250: d205 913c 7735 c7bd 4086 183c 00af 943d
00000260: cc2e 24bc e9b1 cd3d ed5b ccbc 68f2 be3c
00000270: 19f7 26bd bbfd 73bd 91cb be3c 96c7 5bbd
00000280: ec7d 2cbb 1ff6 9e3d 95a1 503d df11 a5bc
00000290: 0b0b e33d b567 d9bc c810 6fbc 1b1e bb3c
000002a0: 311c 48bb a561 b4ba ac2a 873d 414f 2abd
000002b0: 60a5 8f3c 975e 8b3c bea1 133c 35f9 6fbd
000002c0: 3bff f5bc fa25 aa3d 01f7 283d 0ba0 61bd
000002d0: da1b 583b 88db 2ebd 1e9e b43d 9ffa b63d
000002e0: 13c7 07be 4501 d63d da3e 59bc 09c1 a7bd
000002f0: c0ba 533d a178 9fbd 74e9 e53d 756d c53d
00000300: 2210 04bc 9026 993c 73fb bb3d 7a55 13bd
00000310: 7461 193d aec1 8fbd e570 f0bd 8dde 2d3c
00000320: 60a9 133d edc5 b3bd 234f db3c 6a39 19bd
00000330: 4bb8 9ebd aa64 453d 83e0 b3bd 8836 64bc
00000340: 446d 8c3d adfc 553d 449d 88bd 1554 283c
00000350: 1c9f a0bd 7d4e fcbc 7abf 4c3a 3e6f 203d
00000360: 01c1 903d 0f43 c4bc 57a7 2bbd d1d1 873d
00000370: 30e4 c53c 15d2 70bc 84e4 3c3c c437 4c3d
00000380: ff82 6fbc 262f c4bc f941 76bd 3fc2 5b3d
00000390: a110 c43d bee1 683d 7f8e 373d ac9b 1fbd
000003a0: ed3b 953c b325 0c3b 2db6 05bc a4d7 be3d
000003b0: c268 8bbc 95f3 d33c eab6 1bbb 8f2f b23c
000003c0: 8eb7 c63b 551a c43c 4e3b c1b9 5527 46bd
000003d0: f1d9 263c b82e df3d 1d83 923d 01f5 ba3c
000003e0: 5153 b63c 73a7 723c d901 8ebd cef9 0dbe
000003f0: 4f1a 00bd 5f47 a53d b53c 8a3d 6f23 923c

action_model._discrete_distribution.branches.0.weight f4 [1, 128]
-0.0026694895 -0.00143719 0.004641061 0.011639016 -0.0020181069 -0.0053122058 0.0017292703 0.0044432604
-0.00932304 -0.014271418 -0.007064853 0.012184243 -0.0009495946 -0.006236595 -0.0039246897 -0.02066523
-0.012617283 -0.0060483622 -0.011149683 0.009316164 0.006617741 -5.629552e-05 -0.0030272165 0.011004096
0.015645003 0.007862463 0.009382035 -0.01603939 -0.009424091 0.011416429 0.0036858735 -0.01369551
-0.020956088 0.012820879 0.012022112 -0.016320515 -0.0017129679 0.0027292108 -0.003237916 0.0065240473
-0.002504643 -0.014217398 -0.0067820894 -0.00013737663 0.0042270888 -0.0022815124 -0.00506103 -0.0072708293
-0.0047602416 0.011081596 0.009497415 -0.0065962807 0.0006450042 0.0043368204 -0.002528091 -0.0024553484
-0.018330386 0.011613368 -0.0056664483 0.012689917 0.013093208 0.0045215786 0.0064386292 0.0068500163
0.00096859364 0.003844579 0.0049088737 0.002816994 -0.0058206595 -0.0012778196 -0.0216298 -0.015665978
0.0011056153 -0.006590608 -0.002091933 -0.012095589 -0.0010875851 0.0070990673 -0.008161553 -0.011331981
0.001457064 -0.0052076327 -0.0013417819 -0.0026153252 -0.0077766688 0.0011553752 -0.0020421771 0.0035713576
-0.0020175772 -0.00920149 0.020482965 -0.0002638127 0.012722852 -0.0022090373 0.015763698 0.014462322
0.0042626737 -0.030052928 0.011380634 0.012751684 -0.008887182 0.012939108 -0.0032538704 -0.0085270675
-0.00063117075 0.016880281 0.0025970046 0.0031734598 -0.0027828985 -0.005747968 0.014665471 0.009678855
-0.0057290117 0.016440416 -0.009845602 -0.0060502547 -0.0103544695 -0.0055480935 -0.016121386 -0.0040221126
0.0011818599 -0.0024289866 0.0016412229 -0.009679187 0.014522472 0.0062081665 -0.007836575 0.0039953506
00000000: 9af2 2ebb 1860 bcba 0b14 983b 92b1 3e3c
00000010: 3742 04bb 0312 aebb afa8 e23a c598 913b
00000020: aabf 18bc aad2 69bc 4880 e7bb 6ba0 473c
00000030: 37ee 78ba 5a5c ccbb af9a 80bb 214a a9bc
00000040: b8b8 4ebc 5731 c6bb 29ad 36bc d3a2 183c
00000050: a3d9 d83b db1e 6cb8 4464 46bb 864a 343c
00000060: f329 803c 8fd1 003c 1bb7 193c 0a65 83bc
00000070: 8167 1abc f90b 3b3c b28e 713b 2263 60bc
00000080: 1aac abbc aa0e 523c 64f8 443c 9ab2 85bc
00000090: aa85 e0ba 8fdc 323b 3733 54bb adc7 d53b
000000a0: f024 24bb 17f0 68bc 4a3c debb c20c 10b9
000000b0: 6483 8a3b 6d85 15bb ffd6 a5bb 2340 eebb
000000c0: cdfb 9bbb 958f 353c 0c9b 1b3c 9d25 d8bb
000000d0: 8015 293a e31b 8e3b 54ae 25bb e9e9 20bb
000000e0: 9b29 96bc ff45 3e3c 9dad b9bb 5fe9 4f3c
000000f0: e584 563c c029 943b 23fb d23b 1a76 e03b
00000100: 38e9 7d3a 55f5 7b3b 9eda a03b 519d 383b
00000110: 3bbb bebb 837c a7ba fa30 b1bc f055 80bc
00000120: 4bea 903a 07f6 d7bb d018 09bb 942c 46bc
00000130: 4d8d 8eba 4b9f e83b 09b8 05bc c6a9 39bc
00000140: f4fa be3a caa4 aabb bbde afba e065 2bbb
00000150: 6dd3 febb f56f 973a 0cd6 05bb 700d 6a3b
00000160: 5439 04bb d9c1 16bc e4cb a73c 5750 8ab9
00000170: 8273 503c 7fc5 10bb df22 813c 60f3 6c3c
00000180: e6ad 8b3b 8f31 f6bc d775 3a3c 70ec 503c
00000190: 8b9b 11bc 8dfe 533c e33e 55bb 1db5 0bbc
000001a0: 2775 25ba 8448 8a3c 8232 2a3b d2f9 4f3b
000001b0: 4a61 36bb 7359 bcbb 7247 703c 0f94 1e3c
000001c0: 6fba bbbb 0dae 863c 734f 21bc 3741 c6bb
000001d0: cba5 29bc c8cc b5bb ff10 84bc edcb 83bb
000001e0: a3e8 9a3a a22f 1fbb 4d1e d73a 7495 1ebc
000001f0: aaef 6d3c e06d cb3b fa64 00bc 6eeb 823b

network_body._body_endoder.seq_layers.0.bias f4 [128]
0.034615625 0.00139128 0.051970955 -0.02235644 -0.034060553 0.047341287 0.020883285 0.107189804
-0.019862268 -0.053090096 0.08808099 -0.111151166 -0.03397946 0.010179978 -0.104308456 -0.054636594
0.10223372 -0.02523692 -0.09822518 -0.00648855 0.0147885 0.10473857 0.07905435 0.11840551
0.02657134 -0.090626806 0.008917379 0.07274798 0.030592056 0.04227211 -0.025302023 -0.07604334
0.16292685 0.08434512 0.05167747 0.03597486 -0.04292996 -0.0010577056 -0.09231629 -0.0035927992
0.11590377 0.04625991 -0.05710725 -0.01814053 -0.004978221 0.06174773 0.038396288 -0.033479407
0.0487137 0.029651767 -0.022378514 -0.048533686 0.016211674 0.0053107375 -0.07137653 0.061538517
0.024986954 -0.08947825 0.030005837 -0.00027907177 -0.0388689 0.11253082 -0.023599692 0.061401915
-0.0071306084 -0.009479397 -0.013908579 -0.0344443 0.0498088 -0.091028124 0.045190096 -0.045983184
0.06329515 -0.12784962 0.034122232 0.03510419 0.043594215 0.076880276 0.02627524 0.06843597
-0.063413635 -0.056749903 -0.051869743 -0.028827995 0.02307421 -0.01148102 0.03133727 -0.10669502
-0.032545317 -0.012391398 -0.0533032 -0.044961136 -0.011402952 -0.009422855 -0.015139458 -0.07552383
0.059505258 0.0038470894 -0.050498616 0.0050601996 0.11556427 0.07282731 -0.11060877 -0.024187747
0.112914704 -0.0671246 0.052511208 -0.0144329285 0.0023549532 0.008481985 0.067943074 -0.00025774742
-0.07205824 0.038229827 0.018464603 0.0857658 -0.036903627 -0.013604087 0.038734756 -0.014086132
0.10563867 0.0008590009 0.037243452 0.0042769327 0.07906955 -0.056135315 0.03578823 -0.006959365
00000000: 1dc9 0d3d 9c5b b63a 7fdf 543d da24 b7bc
00000010: 1483 0bbd f0e8 413d 6c13 ab3c 5486 db3d
00000020: 32b6 a2bc 0075 59bd ce63 b43d 39a3 e3bd
00000030: 0c2e 0bbd ecc9 263c ac9f d5bd 9fca 5fbd
00000040: ea5f d13d a8bd cebc 482a c9bd e79d d4bb
00000050: 774b 723c 2d81 d63d 3fe7 a13d 977e f23d
00000060: 24ac d93c 8c9a b9bd 331a 123c e5fc 943d
00000070: 319c fa3c 8525 2d3d 3046 cfbc 9cbc 9bbd
00000080: 4cd6 263e 22bd ac3d c1ab 533d 605a 133d
00000090: 53d7 2fbd b6a2 8aba 5310 bdbd 2b75 6bbb
000000a0: f55e ed3d 087b 3d3d 4be9 69bd 739b 94bc
000000b0: 5820 a3bb 30eb 7c3d 6d45 1d3d b421 09bd
000000c0: 0488 473d 43e8 f23c 2553 b7bc 42cb 46bd
000000d0: 58ce 843c b205 ae3b dc2d 92bd d00f 7c3d
000000e0: 71b1 cc3c 5f40 b7bd cdce f53c 6150 92b9
000000f0: ff34 1fbd 8f76 e63d 2454 c1bc 9380 7b3d
00000100: e1a7 e9bb 794f 1bbc cfe0 63bc 7715 0dbd
00000110: 5004 4c3d f46c babd 4019 393d dd58 3cbd
00000120: e3a0 813d 03eb 02be c1c3 0b3d 69c9 0f3d
00000130: d98f 323d 6873 9d3d 2c3f d73c 2828 8c3d
00000140: 02df 81bd 9672 68bd 5e75 54bd b028 ecbc
00000150: 2006 bd3c e31a 3cbc 825b 003d eb82 dabd
00000160: 3d4e 05bd 4a05 4bbc 7554 5abd 2b29 38bd
00000170: 72d3 3abc 5262 1abc 7d0b 78bc 3dac 9abd
00000180: c9bb 733d 731f 7c3b a3d7 4ebd 08d0 a53b
00000190: f6ac ec3d 7c26 953d da86 e2bd 6225 c6bc
000001a0: d33f e73d 9f78 89bd fe15 573d 1778 6cbc
000001b0: 8f55 1a3b 06f8 0a3c bd25 8b3d 4622 87b9
000001c0: 4593 93bd e196 1c3d 1443 973c fba5 af3d
000001d0: 4228 17bd ade3 5ebc 56a8 1e3d 85c9 66bc
000001e0: 1659 d83d 932e 613a 978c 183d 8325 8c3b
000001f0: 37ef a13d 25ee 65bd ae96 123d 630b e4bb

network_body._body_endoder.seq_layers.0.weight f4 [128, 8]
0.2542952 -0.22770813 -0.27425885 -0.5030383 -0.1945371 -0.42358246 -0.71531457 -0.18282296
-0.07609117 0.030941684 -0.62795925 0.10502065 -0.23072432 0.09859262 0.066564344 0.16096811
1.1089594 0.19071229 0.77947956 0.06684912 0.29219756 -0.020000089 -0.52220714 -0.61516887
-0.053105686 0.039719768 0.23194261 -0.30046472 -0.42169443 0.39232808 -0.23650496 0.398016
0.27425238 0.48732078 -0.0013029166 0.53843766 0.1538005 -0.016935715 -0.5945146 0.36454818
-0.6085357 -0.1905285 0.11581966 -0.13550647 0.6253233 0.23535793 0.6592966 0.22823578
0.2527936 0.015387766 -0.29178128 -0.5329031 0.07227435 0.3275725 0.09894995 -0.16138622
-0.5873988 -0.382156 -0.032804582 0.10378529 -0.541198 0.1594121 0.36830512 0.11375044
0.37083223 -0.0359786 -0.055163916 0.4530964 -0.42344558 0.51452243 -0.5171227 -0.086515635
0.0951001 -0.18965101 0.61558115 -0.5926902 -0.26888528 -0.07798341 0.03155327 0.042884767
0.14525066 0.12776807 -0.12622681 -0.49113202 0.8420202 -0.2774697 -0.22398064 -0.085280135
-0.13612251 -0.4548 -0.22136182 0.24025787 0.28332883 -0.09751123 -0.12542294 -0.54445046
0.21282235 -0.32079414 0.035798524 0.23988222 -0.3486797 0.72935027 0.07110331 0.52364606
-0.16076756 0.14291094 0.50575876 0.8373328 -0.108023055 0.33346015 0.13227887 -0.68560725
-0.12888321 -0.4857268 0.16412175 -0.17566796 -0.2356716 0.15948878 0.14293568 0.25344756
0.0022653549 -0.3834044 0.19068977 -0.8064376 0.03762823 -0.26609185 0.7939388 -0.27577507
-0.26727352 -0.28540018 0.6975019 0.7516474 0.23876676 -0.42918977 -0.009460801 0.14826337
0.124410614 -0.05024516 0.29438192 -0.14023998 -0.19749123 0.65980357 -0.31226212 -0.21998365
0.24482527 -0.11322167 0.009407901 0.16745958 0.40353006 0.09962729 -0.25970608 -0.038167104
-0.76601815 0.46511027 -0.1962297 -0.77531624 0.28081855 -0.40373716 0.0753534 -0.2893217
-0.29187292 -0.25720394 -0.50192165 0.5391297 0.034590393 0.081527404 -0.4457934 -0.3531368
0.5487263 0.08289744 0.6223353 -0.14698403 0.25159276 -0.29224333 -0.22336227 -0.20964314
-0.34123847 -0.2117441 -0.17739145 0.45967856 0.5325495 -0.10092682 0.21198438 0.21301803
-0.47950423 0.37340415 -0.38936344 0.19864716 0.82026696 0.5819453 0.46413785 0.57867
-0.013689416 0.0055561955 0.011472346 -0.14160262 -0.60818523 0.600445 0.27115676 -0.05403862
0.14550391 0.058358647 0.009686094 0.25919008 -0.48242602 0.4066461 0.049626168 -0.4642953
-0.24479398 0.46220884 -0.259556 -0.16716765 0.57940924 0.0726899 -0.39559233 -0.302012
-0.2085769 0.10533655 -0.30400196 -0.6450189 0.18339708 0.6476794 -0.5225265 -0.0021711697
0.38828194 -0.19510183 -0.014647918 -0.40072498 0.63877016 0.24041891 0.2908796 0.3658646
0.6315765 -0.32611707 0.16322549 -0.04789232 -0.051273506 -0.34171382 -0.45218298 -0.61837775
-0.32682928 0.36544266 -0.04295981 0.4857221 -0.181548 -0.44955894 -0.35807273 0.034043703
-0.07218462 0.5334591 0.4893248 0.15404138 0.090512305 0.041888483 0.48583022 0.1810897
00000000: fb32 823e 522c 69be a86b 8cbe 1ec7 00bf
00000010: bc34 47be cddf d8be db1e 37bf f135 3bbe
00000020: b0d5 9bbd 6a79 fd3c f0c1 20bf 1115 d73d
00000030: ff42 6cbe edea c93d e352 883d d3d4 243e
00000040: 62f2 8d3f 154a 433e f98b 473f 31e8 883d
00000050: eb9a 953e 3ad7 a3bc 5eaf 05bf b57b 1dbf
00000060: 5985 59bd 32b1 223d 5d82 6d3e 83d6 99be
00000070: 55e8 d7be 3adf c83e 5b2e 72be c1c8 cb3e
00000080: cf6a 8c3e 1c82 f93e a0c6 aaba 0dd7 093f
00000090: e17d 1d3e c5bc 8abc 1c32 18bf 0fa6 ba3e
000000a0: ffc8 1bbf e719 43be dc32 ed3d 35c2 0abe
000000b0: 3015 203f ab01 713e a9c7 283f a4b6 693e
000000c0: 2a6e 813e f81c 7c3c 5b64 95be 566c 08bf
000000d0: 9304 943d 95b7 a73e 45a6 ca3d 6e42 25be
000000e0: c55f 16bf f4a9 c3be 195e 06bd 628d d43d
000000f0: f48b 0abf ed3c 233e 7d92 bc3e fef5 e83d
00000100: b9dd bd3e 4c5e 13bd 8ff3 61bd 40fc e73e
00000110: dccd d8be beb7 033f 2762 04bf 1c2f b1bd
00000120: d7c3 c23d e033 42be ba96 1d3f 8cba 17bf
00000130: 55ab 89be c4b5 9fbd 003e 013d f0a7 2f3d
00000140: 97bc 143e a2d5 023e 9a41 01be a875 fbbe
00000150: a38e 573f 8210 8ebe 2e5b 65be 5aa7 aebd
00000160: b363 0bbe 8cdb e8be acac 62be 2906 763e
00000170: 7a10 913e f8b3 c7bd df6e 00be 1b61 0bbf
00000180: 1aee 593e 213f a4be 79a1 123d afa3 753e
00000190: 2586 b2be b3b6 3a3f 9d9e 913d ab0d 063f
000001a0: 40a0 24be 3f57 123e 6879 013f 715b 563f
000001b0: 313b ddbd 4abb aa3e 1d74 073e f583 2fbf
000001c0: f6f9 03be 2fb1 f8be 880f 283e 4de2 33be
000001d0: e553 71be 0751 233e bb5d 123e e1c3 813e
000001e0: 5976 143b 954d c4be 2e44 433e b272 4ebf
000001f0: 0f20 1a3d 313d 88be 933f 4b3f 6432 8dbe
00000200: 13d8 88be f91f 92be 7c8f 323f f76b 403f
00000210: 467f 743e c3be dbbe 7a01 1bbc 5ad2 173e
00000220: feca fe3d decd 4dbd 3ab9 963e 129b 0fbe
00000230: 243b 4abe e3e8 283f d2e0 9fbe 6543 61be
00000240: 7ab3 7a3e c3e0 e7bd 9923 1a3c 867a 2b3e
00000250: 7e9b ce3e 6509 cc3d 32f8 84be 1c55 1cbd
00000260: c419 44bf ef22 ee3e 70f0 48be 207b 46bf
00000270: 73c7 8f3e a3b6 cebe e252 9a3d f921 94be
00000280: 5e70 95be 3cb0 83be f07d 00bf 6704 0a3f
00000290: a8ae 0d3d d7f7 a63d 083f e4be 59ce b4be
000002a0: 5479 0c3f 22c6 a93d 5e51 1f3f fb82 16be
000002b0: c4d0 803e eba0 95be 14b9 64be b1ac 56be
000002c0: cfb6 aebe 72d3 58be 1ba6 35be fd5a eb3e
000002d0: 2a55 083f b8b2 cebd 6f12 593e 6621 5a3e
000002e0: 9481 f5be d42e bf3e a55a c7be 296a 4b3e
000002f0: 04fd 513f 5efa 143f 7aa3 ed3e b823 143f
00000300: 9349 60bc bf10 b63b 82f6 3b3c 4700 11be
00000310: 07b2 1bbf c3b6 193f 0fd5 8a3e 9a57 5dbd
00000320: fafe 143e 7a09 6f3d 6cb2 1e3c 90b4 843e
00000330: 8b00 f7be eb33 d03e cf44 4b3d 1db8 edbe
00000340: 46ab 7abe a3a6 ec3e 86e4 84be ff2d 2bbe
00000350: 2a54 143f 71de 943d 148b cabe 51a1 9abe
00000360: 2f95 55be b0ba d73d 25a6 9bbe f51f 25bf
00000370: 72cc 3b3e 51ce 253f 4cc4 05bf 2f4a 0ebb
00000380: e4cc c63e c6c8 47be d2fd 6fbc d32b cdbe
00000390: 7186 233f 6030 763e 2cee 943e 9b52 bb3e
000003a0: ffae 213f d1f8 a6be 9524 273e bd2a 44bd
000003b0: 2b04 52bd 1df5 aebe 8784 e7be 014e 1ebf
000003c0: 2b56 a7be 4d1b bb3e a0f6 2fbd 91b0 f83e
000003d0: b8e7 39be 972c e6be 4f55 b7be 6971 0b3d
000003e0: 88d5 93bd c790 083f c888 fa3e 06bd 1d3e
000003f0: 845e b93d 4293 2b3d bdbe f83e 946f 393e

network_body._body_endoder.seq_layers.2.bias f4 [128]
-0.0049579227 0.021559782 0.01795163 0.037702266 0.108446635 -0.0015576457 -0.009011798 0.03162416
-0.04570645 -0.0018498154 0.025472552 -0.0110041 0.019599114 0.017273797 0.06921712 0.037433133
-0.08328062 -0.086975284 0.041172605 -0.015675664 -0.02181489 0.044592045 -0.047197085 0.047650106
-0.0062588486 0.03167415 0.05725045 0.043508355 0.0534277 0.024366012 -0.00028791322 -0.003838275
-0.021862531 0.020022618 0.009130596 -0.025726462 0.06941727 -0.0014698913 0.003690615 -0.012430112
-0.016165681 0.036975756 -0.007431895 -0.03238799 0.03934094 0.037954893 0.08916314 0.04738851
-0.031447776 0.053297557 0.03903071 0.02794335 0.05314247 -0.0021334013 0.021530196 0.042231984
-0.003238682 0.04082446 -0.038657855 0.042604078 0.023300223 0.019794248 0.059451118 0.02147998
-0.0065230415 0.0019729307 0.04779507 -0.042935237 -0.02786131 -0.05326105 -0.003307895 -0.008316616
-0.032053366 0.07956798 0.029195935 0.035902146 0.05626055 -0.0051990417 0.022785684 0.024635518
0.026018087 0.016960757 0.009850099 -0.052897587 0.052151505 0.030216623 0.08504126 0.066005655
-0.018050682 0.034444667 0.031975526 0.0077125384 0.059967503 0.054122034 0.010274488 -0.039074983
-0.021426497 -0.015708042 0.038504228 0.017275903 0.03392439 -0.013191168 0.018701041 -0.045954976
-0.0072720605 0.007018171 0.019697992 0.039201334 -0.031436983 -0.007621951 -0.001874432 -0.04833976
-0.021548223 0.016218062 -0.00031809087 0.06668853 0.030498324 0.0867045 0.014979201 0.06148619
-0.022815323 0.03926593 0.02329604 0.004145524 0.07410341 0.026269471 0.048292525 -0.021352986
00000000: 1276 a2bb 249e b03c 4c0f 933c b16d 1a3d
00000010: 4519 de3d eb29 ccba 38a6 13bc 5688 013d
00000020: b036 3bbd 8175 f2ba d0ab d03c 8a4a 34bc
00000030: 528e a03c c781 8d3c b5c1 8d3d 7c53 193d
00000040: 088f aabd 1920 b2bd 9ba4 283d 406a 80bc
00000050: 24b5 b2bc 26a6 363d bb51 41bd c22c 433d
00000060: 0717 cdbb c1bc 013d 737f 6a3d d135 323d
00000070: 01d7 5a3d 3b9b c73c 0ff3 96b9 928b 7bbb
00000080: 0d19 b3bc 7906 a43c 7f98 153c 4dc0 d2bc
00000090: a42a 8e3d 5ea9 c0ba 3fde 713b aba7 4bbc
000000a0: e46d 84bc e473 173d 4187 f3bb 45a9 04bd
000000b0: f723 213d 9776 1b3d 2a9b b63d 741a 423d
000000c0: 62cf 00bd 8a4e 5a3d aade 1f3d 74e9 e43c
000000d0: ebab 593d 89d0 0bbb 1860 b03c 72fb 2c3d
000000e0: 1140 54bb 8d37 273d b357 1ebd 9d81 2e3d
000000f0: 1ce0 be3c 8c27 a23c 0483 733d c8f6 af3c
00000100: 3dbf d5bb 494c 013b c3c4 433d dcdc 2fbd
00000110: 673d e4bc 4228 5abd 45c9 58bb 6a42 08bc
00000120: 644a 03bd 89f4 a23d 502c ef3c 210e 133d
00000130: 7671 663d b95c aabb 0ba9 ba3c 6dd0 c93c
00000140: e223 d53c 49f1 8a3c 4f62 213c 24ab 58bd
00000150: d19c 553d da88 f73c 1d2a ae3d f92d 873d
00000160: 06df 93bc da15 0d3d c5f8 023d 76b9 fc3b
00000170: 7ca0 753d 11af 5d3d 5356 283c 170d 20bd
00000180: 9f86 afbc 27ae 80bc 9cb6 1d3d 3286 8d3c
00000190: 4df4 0a3d c51f 58bc ed32 993c 493b 3cbd
000001a0: 774a eebb aff8 e53b af5d a13c 9491 203d
000001b0: 11c4 00bd 8fc1 f9bb 80af f5ba eaff 45bd
000001c0: e685 b0bc bedb 843c 6fc5 a6b9 ff93 883d
000001d0: 9fd7 f93c 2192 b13d 536b 753c f1d8 7b3d
000001e0: 33e7 babc 50d5 203d 56d7 be3c 2dd7 873b
000001f0: 87c3 973d 1333 d73c 62ce 453d 75ec aebc

network_body._body_endoder.seq_layers.2.weight f4 [128, 128]
-0.22380605 0.026159577 0.038777374 -0.07982512 0.120395675 0.06221314 -0.009667158 0.1522245
0.14901693 0.119752385 -0.008965858 0.0121617755 0.008664936 0.030016309 0.06460805 -0.014043421
0.04735877 -0.050106708 -0.0046306574 0.18199483 0.042064782 -0.16060255 0.055582367 0.2268011
-0.1163044 0.1547369 0.14074223 -0.036012117 -0.0757557 -0.1200133 0.08319592 0.01354199
-0.122448675 -0.03794029 -0.13639617 0.009393667 -0.118248194 0.066390485 0.16357388 0.0063760816
0.12312617 -0.00047502335 0.050081 0.051934544 -0.09008971 -0.15619849 -0.043471303 0.053811017
0.036036726 0.0070803957 0.03243677 -0.067116074 -0.062462978 0.069006264 -0.054597035 -0.008784582
-0.03497959 -0.09423324 -0.054300632 0.002614915 -0.122737624 -0.17177169 0.01669651 -0.06111957
0.0025611336 0.119050734 -0.090668745 0.18356204 0.007415921 -0.029456604 -0.18497308 -0.020524194
0.11894126 0.048354145 0.06969691 -0.09094078 0.0009730576 0.06194945 0.23578395 -0.17135715
0.064858854 0.13337469 0.11290561 0.020534014 0.043176968 -0.011945201 0.08859226 0.10209236
-0.09956424 0.07638996 0.043971766 -0.03574084 -0.015490504 -0.029396847 0.001948299 -0.007915448
-0.06430162 0.13681912 0.0053090444 -0.057423983 -0.04233445 0.1851263 -0.0031253686 0.085037045
0.062291544 -0.02655702 -0.031593308 0.13309966 0.13512011 -0.091951385 -0.07558009 0.012907712
0.04517312 0.013555144 -0.021644931 -0.044904683 -0.09455932 0.07286694 -0.08723309 -0.16855337
-0.11811 0.065432794 0.01665924 0.103972435 -0.15860075 -0.11422906 -0.101625554 0.010100755
-0.08014929 0.044643875 0.036199827 -0.20557792 -0.067960694 -0.036366627 -0.071531266 0.093809776
0.017340695 0.03641354 0.09724614 0.0058900034 -0.052929565 0.03365657 -0.11328613 0.06283221
0.21323334 -0.13086362 -0.029435067 -0.040340874 0.09270416 0.010572639 0.105608225 -0.11092876
-0.010708088 0.04531957 0.091946684 -0.18691447 -0.060908627 0.017264783 0.06966974 -0.010099461
0.07721928 -0.04974373 -0.115471974 -0.15522009 0.073033154 0.038887266 -0.017364973 -0.010934065
0.16088009 0.030725623 -0.14247683 0.20739745 -0.042661764 -0.009378999 -0.1392434 0.08511986
-0.1751383 0.054488584 0.13119847 0.046888437 -0.22047812 0.09111293 -0.1516247 0.34857526
-0.084584564 -0.12199845 0.02271207 0.1894188 0.09589501 -0.17566423 0.073362686 0.1737663
0.059199344 0.01785658 -0.0019193345 -0.069129154 0.0705321 0.018249273 -0.118318506 0.03748989
-0.05087394 -0.10639841 0.06665652 -0.06348487 -0.08319596 -0.049413785 0.077351354 0.07409814
0.13187318 -0.010006153 0.0553477 0.009198977 0.11341331 0.07184647 -0.002868791 0.02431183
0.097585045 -0.15440553 -0.15078767 -0.2715747 -0.029801704 -0.1566828 0.16280684 -0.07665621
-0.052088574 0.18522303 0.065808296 0.07995877 -0.07357855 0.07469583 0.010924431 0.0819295
0.009020216 0.013584255 -0.1529443 0.1348556 0.08289104 0.043445196 -0.047758576 0.10939567
-0.052536983 0.04698792 0.035076033 0.028951412 0.16575347 0.0040774415 0.11824801 0.0008437163
0.12541644 -0.09202319 0.040540304 0.05081979 -0.08801741 0.16543911 -0.096459396 -0.023966193
00000000: 6a2d 65be 9c4c d63c 06d5 1e3d 5a7b a3bd
00000010: 0292 f63d 35d3 7e3d 0063 1ebc bde0 1b3e
00000020: e597 183e bd40 f53d 89e5 12bc 2f42 473c
00000030: 60f7 0d3c c3e4 f53c 3a51 843d 6016 66bc
00000040: 45fb 413d b13c 4dbd c5bc 97bb da5c 3a3e
00000050: 1f4c 2c3d ff74 24be 56aa 633d 8c3e 683e
00000060: 0031 eebd 5a73 1e3e bb1e 103e 7181 13bd
00000070: ce25 9bbd 88c9 f5bd 9f62 aa3d 39df 5d3c
00000080: 5fc6 fabd 4767 1bbd 70ab 0bbe e5e7 193c
00000090: 1c2c f2bd bcf7 873d e97f 273e 73ee d03b
000000a0: 9329 fc3d 8e0c f9b9 bc21 4d3d 51b9 543d
000000b0: f480 b8bd 7ff2 1fbe f70e 32bd f168 5c3d
000000c0: 3f9b 133d aa02 e83b 6bdc 043d 2774 89bd
000000d0: 2ed9 7fbd 2853 8d3d 24a1 5fbd 35ed 0fbc
000000e0: c246 0fbd 5bfd c0bd 576a 5ebd fe5e 2b3b
000000f0: dd5d fbbd ebe4 2fbe 1fc7 883c 8458 7abd
00000100: b1d8 273b dfd0 f33d 89b0 b9bd b0f7 3b3e
00000110: 4101 f33b fa4e f1bc 9569 3dbe 5b22 a8bc
00000120: 7a97 f33d ff0e 463d 41bd 8e3d 293f babd
00000130: ca14 7f3a b5be 7d3d 5971 713e 4078 2fbe
00000140: b8d4 843d 6093 083e 0e3b e73d f336 a83c
00000150: 55da 303d ceb5 43bc dc6f b53d cd15 d13d
00000160: 56e8 cbbd 5772 9c3d bd1b 343d fd64 12bd
00000170: e2cb 7dbc a8d1 f0bc 115e ff3a ccaf 01bc
00000180: 91b0 83bd 501a 0c3e 7ef7 ad3b 6935 6bbd
00000190: e366 2dbd c091 3d3e fcd2 4cbb e727 ae3d
000001a0: 6b25 7f3d 1c8e d9bc fc67 01bd 474b 083e
000001b0: ed5c 0a3e 0251 bcbd bcc9 9abd de7a 533c
000001c0: 7307 393d 6516 5e3c b650 b1bc f9ed 37bd
000001d0: 51a8 c1bd 433b 953d 43a7 b2bd 4199 2cbe
000001e0: a8e3 f1bd a101 863d f578 883c 80ef d43d
000001f0: 3c68 22be edf0 e9bd 0f21 d0bd a37d 253c
00000200: 5025 a4bd 7fdc 363d 4546 143d 0583 52be
00000210: fa2e 8bbd 2cf5 14bd fc7e 92bd 571f c03d
00000220: 130e 8e3c 5d26 153d fc28 c73d ee00 c13b
00000230: accc 58bd 79db 093d 8f02 e8bd 2cae 803d
00000240: d759 5a3e 1d01 06be cf21 f1bc 793c 25bd
00000250: aedb bd3d dd38 2d3c 2049 d83d 9e2e e3bd
00000260: fa70 2fbc 03a1 393d 8b4e bc3d 8266 3fbe
00000270: 537b 79bd e06e 8d3c 02af 8e3d 3678 25bc
00000280: 2425 9e3d 15c0 4bbd 927c ecbd 04f2 1ebe
00000290: 6892 953d 4148 1f3d fd40 8ebc cb24 33bc
000002a0: c0bd 243e 4db4 fb3c 72e5 11be ff5f 543e
000002b0: 1abe 2ebd 5faa 19bc d295 0ebe 5253 ae3d
000002c0: 7457 33be 6c2f 5f3d e458 063e 170e 403d
000002d0: 04c5 61be 6a99 ba3d 8143 1bbe 7578 b23e
000002e0: ac3a adbd 53da f9bd aa0e ba3c 00f7 413e
000002f0: 9a64 c43d 53e1 33be 2d3f 963d cbef 313e
00000300: 037b 723d f647 923c 2e92 fbba 9693 8dbd
00000310: 2273 903d 807f 953c f950 f2bd 008f 193d
00000320: 3161 50bd 69e7 d9bd 3783 883d 5b04 82bd
00000330: a562 aabd 1c66 4abd 636a 9e3d c4c0 973d
00000340: c309 073e d9f0 23bc 45b4 623d 4eb7 163c
00000350: 3d45 e83d 3e24 933d 5402 3cbb 9a29 c73c
00000360: abda c73d 7c1c 1ebe 1568 1abe d70b 8bbe
00000370: b422 f4bc 7571 20be d6b6 263e eefd 9cbd
00000380: d45a 55bd 1bab 3d3e 80c6 863d 6cc1 a33d
00000390: 5ab0 96bd 21fa 983d 62fc 323c a7ca a73d
000003a0: 87c9 133c 7f90 5e3c 6e9d 1cbe 9617 0a3e
000003b0: c7c2 a93d 97f3 313d 7f9e 43bd d60a e03d
000003c0: 0531 57bd 6876 403d e3ab 0f3d 832b ed3c
000003d0: 47bb 293e 0f9c 853b 032c f23d d82c 5d3a
000003e0: 2b6d 003e a776 bcbd 970d 263d 6a28 503d
000003f0: 7942 b4bd df68 293e 818c c5bd c054 c4bc
