Project/Assets/ML-Agents/Examples/3DBall/TFModels/3DBall-499364.onnx (onnx, 73994 bytes, 9 tensors)

50 f4 [8]
0	0x3d48e435	0.04904576
1	0x3d33f0c3	0.04393078
2	0x3f06d5a2	0.5266973
3	0x3e2c4b78	0.16825664
4	0x3f0f2573	0.5591652
5	0x3eea6f5e	0.4578809
6	0x3f104ee9	0.5637041
7	0x3ed81bce	0.42208713

action_model._continuous_distribution.log_sigma f4 [1, 2]
0	0xbe2e9539	-0.17049111
1	0xbe185a2e	-0.14878151

action_model._continuous_distribution.mu.bias f4 [2]
0	0xbb0c1e28	-0.002138028
1	0x3c6bbcb1	0.014388249

action_model._continuous_distribution.mu.weight f4 [2, 128]
0	0xbda76b86	-0.08174805
1	0xbc41f8bc	-0.011839088
2	0xbdcf1c5c	-0.10112831
3	0xbce5fcf3	-0.028074717
4	0x3c288a92	0.010286944
5	0x3b974001	0.004615784
6	0xbbfe61df	-0.007763132
7	0x3b57634d	0.0032865584
8	0x3c93962d	0.018015945
9	0xba6029b4	-0.0008551136
10	0x3d13d6df	0.03609359
11	0x3d0fac79	0.035076592
12	0xbc263659	-0.010144793
13	0xb99c6737	-0.0002983154
14	0xbc028113	-0.007965344
15	0x3c24e93c	0.010065373
16	0xbca614ab	-0.020273527
17	0xbc50609b	-0.012718345
18	0x3ce773a1	0.028253378
19	0xbc81852b	-0.01581057
20	0x3cb1a201	0.021683695
21	0x3d4b2122	0.049592145
22	0xbbbb025a	-0.0057070674
23	0xbc504881	-0.012712599
24	0xbcd1148d	-0.025522495
25	0x3c4a8db0	0.0123628825
26	0x3d5531ec	0.052049562
27	0x3cc94f0f	0.02457383
28	0xbd4c4285	-0.049868125
29	0x3bf7c4e3	0.0075613125
30	0xb9ce4bbd	-0.0003934781
31	0x3d69ea22	0.057108052
32	0xbbb980fc	-0.005661128
33	0x3dd517bc	0.104049176
34	0x3babff32	0.0052489275
35	0xbbe31a07	-0.006930593
36	0x3d62a6ae	0.05533474
37	0x38cd954b	9.80297e-05
38	0xbc537380	-0.012905955
39	0x3d0f6eea	0.035017885
40	0x3d050262	0.032472976
41	0xbd0a6841	-0.03379083
42	0xbbf2bd06	-0.0074077873
43	0x3c04f227	0.008114374
44	0xb92aad90	-0.0001627712
45	0xbd864c51	-0.06557525
46	0xb9e5fb1a	-0.0004386537
47	0x3d042016	0.032257162
48	0x3c6cf2de	0.014462201
49	0xbc98c018	-0.018646285
50	0xbb7ea77e	-0.0038857157
51	0x3c8b88fb	0.01703309
52	0xbc2cbb00	-0.010542631
53	0x3b855ff4	0.0040702764
54	0xbb959bbe	-0.004565685
55	0x3d45b0ec	0.04826443
56	0x3b30093c	0.0026860973
57	0x39f81d8e	0.00047324266
58	0xbcf8bd35	-0.030363658
59	0xbb760cca	-0.0037544244
60	0xbaa2dd8e	-0.0012425648
61	0x3c7fdd6d	0.015616757
62	0x3becec22	0.0072302977
63	0x3b9d3993	0.004798123
64	0xbd89ae71	-0.06722725
65	0x3ce1dd56	0.027571362
66	0x3d914c8a	0.07094677
67	0xbc3c5f27	-0.011497295
68	0x3b853f33	0.004066372
69	0xbb8a43a2	-0.0042194882
70	0x3d0fe796	0.035132967
71	0x3b5b8fba	0.0033502416
72	0x3ca85f11	0.020553144
73	0xbcef9e97	-0.029250426
74	0x3d0550c0	0.032547712
75	0xbd19b089	-0.037521873
76	0x3c755b55	0.014975389
77	0x3da2ab11	0.079427846
78	0x3df170c6	0.11789088
79	0x3dd4c56d	0.103892185
80	0x3c8c762b	0.01714619
81	0x3d8cdf72	0.06878556
82	0x3d893bb7	0.06700843
83	0xbc30db83	-0.010794523
84	0xbc2def57	-0.010616145
85	0xbc8c38de	-0.01711696
86	0x3cc4b2c7	0.024011029
87	0xbb31052a	-0.0027011135
88	0x3d79030b	0.060793918
89	0x3d256aa8	0.04038492
90	0x3c97f49a	0.018549252
91	0xbd0c04f7	-0.034184422
92	0x3c40dfe1	0.011772127
93	0xbb0c7360	-0.0021431074
94	0xbc3f9ba9	-0.011694827
95	0x3c8d2837	0.01723109
96	0x3bdc616e	0.0067254817
97	0xbc5154a0	-0.012776524
98	0x3c60d424	0.013722453
99	0xbd15e6d5	-0.03659709
100	0xbd3fe2c9	-0.04684714
101	0x3b5e7e6e	0.003394987
102	0x3d9b5167	0.07583886
103	0xb7d818da	-2.5760779e-05
104	0xbdabe3c9	-0.08393056
105	0xbc5c4fd8	-0.013446771
106	0xbccbeace	-0.024892237
107	0xbcfb952b	-0.030710777
108	0x3d89bd4d	0.067255594
109	0x3cfec955	0.031101862
110	0xbc8218b3	-0.015880918
111	0xbc47ac78	-0.012187116
112	0x3d1d79a6	0.03844609
113	0x3d8b3c80	0.06798649
114	0xbcf41a42	-0.029797677
115	0xbd5d2cb2	-0.053997703
116	0x3ce89745	0.028392443
117	0xbab43e91	-0.0013751556
118	0xbad9fbe8	-0.001663086
119	0xbb4d3a93	-0.003131543
120	0x3c9ec564	0.019381233
121	0x3bedd19d	0.007257654
122	0x3c93a3c3	0.018022424
123	0xbcef9ce7	-0.029249622
124	0x3ce8384e	0.02834716
125	0xbd58af6c	-0.05290167
126	0x3d27a3ea	0.040927805
127	0x3c8f226c	0.017472468
128	0xbd1d70b6	-0.038437568
129	0x3ac76701	0.0015213193
130	0xbd8a33b7	-0.06748145
131	0xba2273f6	-0.0006197089
132	0x3cb0edc3	0.021597749
133	0xbb052c4b	-0.002032059
134	0x3c6e2bfb	0.014536853
135	0xbb2d6c00	-0.0026462078
136	0xbbd032f0	-0.0063537285
137	0xbb24239d	-0.0025045641
138	0x3cd55b4b	0.026044508
139	0xbd7b9ff9	-0.06143186
140	0xbcc145e4	-0.023592897
141	0x3c7adc8c	0.015311372
142	0x3b00a942	0.0019632136
143	0x3c21f2ac	0.009884518
144	0xbd032bba	-0.032024123
145	0xbd1d973f	-0.038474318
146	0xbc7882ea	-0.015167931
147	0x3c3cb948	0.011518784
148	0xbda1ab9d	-0.07894061
149	0xbbacf7cf	-0.0052785645
150	0xbc9a8943	-0.01886428
151	0xbc0a90f3	-0.00845741
152	0x3d386396	0.045016848
153	0x3c8a6f04	0.01689864
154	0x3d8d871f	0.06910538
155	0xbcc2fc2e	-0.02380189
156	0xbcc8c161	-0.024506273
157	0xbc383f45	-0.011245553
158	0x3cef401f	0.02920538
159	0xbcc6a64a	-0.024249215
160	0xbb9dbf2d	-0.0048140497
161	0x3d207893	0.03917749
162	0x3d8184cf	0.06324159
163	0x3ae31edf	0.0017327926
164	0xbd0c6e2b	-0.03428475
165	0xbd02a6d9	-0.0318974
166	0xba9f79f9	-0.0012167088
167	0x3dc007bd	0.09376476
168	0x3d827eac	0.06371817
169	0xbcdcbc6e	-0.026945319
170	0x3cd611ca	0.02613153
171	0x3bc47fcd	0.0059966804
172	0x3da63e30	0.0811733
173	0xbc798177	-0.015228621
174	0x3bbb4a68	0.005715657
175	0x3d241ed2	0.040068455
176	0x3c855770	0.016277045
177	0xbbf084dc	-0.007340057
178	0xbd144b6d	-0.036204744
179	0xbb3bebdc	-0.0028674519
180	0x3cab4121	0.02090508
181	0x3beae233	0.0071680783
182	0x39969449	0.0002872071
183	0xbd50430e	-0.0508452
184	0xba2dd1a7	-0.0006630667
185	0x3d23e343	0.040011656
186	0xbd26af35	-0.040694434
187	0xba2f4167	-0.0006685466
188	0x3a288b01	0.00064294046
189	0xbc907bd6	-0.017637175
190	0xbc4343c4	-0.011918012
191	0xbbb8b2ef	-0.005636565
192	0xb93f8020	-0.0001826291
193	0x3c6bc847	0.014391012
194	0xbd4a043b	-0.04932044
195	0xbbf4aa6e	-0.007466606
196	0xbcbdad2c	-0.023153864
197	0x3afc627a	0.0019255423
198	0x3cf3e573	0.029772496
199	0x3c27c166	0.010238981
200	0x3cc855f7	0.024455054
201	0xbcfa04eb	-0.030519923
202	0xbdc40068	-0.0957039
203	0x3d2df1b8	0.04246685
204	0xbcf8dcfb	-0.03037881
205	0xbd73a387	-0.059482124
206	0xbbdc73ea	-0.006727685
207	0xbcfcef08	-0.030875698
208	0xbd566b79	-0.052348588
209	0xbd027544	-0.031850114
210	0x3d5a5c24	0.05331053
211	0xbd9d8cfe	-0.07692908
212	0x3d85e78e	0.06538306
213	0x3cba6e1b	0.02275758
214	0x3c1e23c4	0.009652082
215	0xbb9014a0	-0.00439699
216	0xbd78be2c	-0.060728237
217	0x3d188b41	0.037242178
218	0xbd0c12f4	-0.034197763
219	0xbce8026c	-0.028321467
220	0xbc9ff04f	-0.019523768
221	0xbc008f1c	-0.00784662
222	0x3bb653dd	0.0055641965
223	0x3d189ed9	0.037260864
224	0xb9cb66b4	-0.00038795697
225	0xbbec05db	-0.0072028465
226	0xbbd21927	-0.00641169
227	0xbe0ee784	-0.13955504
228	0xbd344c5a	-0.044018127
229	0xbafa9b03	-0.0019119683
230	0x3b80c329	0.003929515
231	0xbd949984	-0.07255843
232	0xbb81e1c3	-0.0039636805
233	0x3d325e29	0.04354683
234	0x3cb442fc	0.022004597
235	0xbd3e188c	-0.04641013
236	0xbcac5def	-0.021040885
237	0x3be53b3d	0.006995587
238	0xba39e963	-0.0007091967
239	0xbd1e3e63	-0.038633715
240	0x3b4396ef	0.0029844602
241	0x3abd6e42	0.0014452415
242	0x3d842764	0.06452826
243	0x3e06183e	0.13095185
244	0xbd9d5bc3	-0.07683518
245	0x3bdc4dfe	0.0067231646
246	0xbb4db723	-0.0031389676
247	0x3bec11a7	0.0072042528
248	0xbc3435b5	-0.010999133
249	0x3c20e476	0.009820094
250	0xbd5f5b2a	-0.0545303
251	0x3c1b4255	0.009476264
252	0xba779476	-0.00094444246
253	0x3be7d0f7	0.007074471
254	0x3d99862c	0.074962944
255	0x3c0733e6	0.00825212

network_body._body_endoder.seq_layers.0.bias f4 [128]
0	0x3cbc897a	0.023014773
1	0xbd8dc982	-0.069232
2	0xbce30ff9	-0.027717577
3	0xbd0ab175	-0.033860642
4	0xbc52ae7f	-0.012858986
5	0xbcb0c41f	-0.021577893
6	0xbd3415c6	-0.043966077
7	0xbd5d7e05	-0.05407526
8	0xbcbdaa3a	-0.02315246
9	0xbd145346	-0.03621223
10	0xbcdfb823	-0.027309483
11	0xbda4c262	-0.08044888
12	0xbc643a20	-0.013929874
13	0xbbdcea0b	-0.0067417673
14	0x3c123af8	0.008925192
15	0x3b8e21a3	0.004337506
16	0x3cbe5a61	0.023236455
17	0xbd3a5dd4	-0.045499638
18	0xbda7faa0	-0.082021
19	0xbd711d4d	-0.058865834
20	0xbce04090	-0.027374536
21	0xbcc53f23	-0.024077957
22	0xbca88398	-0.020570561
23	0xbcc2dd8c	-0.023787282
24	0x3d1c21c9	0.038118158
25	0xbd3c34de	-0.045948856
26	0xbdbd255b	-0.092356406
27	0xbe018682	-0.12648967
28	0xbdb76f8a	-0.08956821
29	0xbd4aebe5	-0.049541373
30	0xbc55fd3a	-0.013060862
31	0xbd91261a	-0.070873454
32	0xbbd84bcb	-0.006600832
33	0xbcd75199	-0.026284026
34	0x3c7cc402	0.015427591
35	0xbd14a065	-0.036285777
36	0xbd414c8e	-0.04719215
37	0xbde1d679	-0.110272355
38	0xbd1928f6	-0.03739258
39	0xbdaba77d	-0.08381555
40	0xbbc9b124	-0.00615515
41	0xbd152ad7	-0.03641781
42	0xbd075316	-0.03303822
43	0xba36d429	-0.00069743634
44	0x3c9197cf	0.017772583
45	0x3c5b475c	0.013383713
46	0xbc6d88f0	-0.0144979805
47	0x3c0d5531	0.008626268
48	0x38ac4387	8.214177e-05
49	0xbc8f630a	-0.01750328
50	0xbc747a4f	-0.014921739
51	0xbdb125a9	-0.08649761
52	0xbc71c8fe	-0.014757393
53	0xbb0f9061	-0.0021906125
54	0x3d1407e4	0.036140338
55	0xbd1a3541	-0.037648443
56	0x3c3a0029	0.011352577
57	0xbd254bf5	-0.04035564
58	0xba5d1184	-0.0008433091
59	0x3c1d0044	0.009582583
60	0xbd97411e	-0.07385467
61	0x3d435954	0.04769261
62	0xbb9d1b75	-0.004794533
63	0x3cc5b15a	0.02413242
64	0xbd9d468e	-0.07679473
65	0x3c3e4559	0.011613213
66	0xbda96bd8	-0.08272523
67	0xbcecc9e2	-0.028904859
68	0xbc997e0c	-0.018736862
69	0x3c76d38c	0.015065085
70	0x3c17f00e	0.009273542
71	0xbcca04d1	-0.0246605
72	0xbdfac0e3	-0.122438215
73	0xbd81a3bf	-0.0633006
74	0xbb48a3bc	-0.0030615171
75	0xbbf838af	-0.0075751166
76	0xbd1cb4d3	-0.038258385
77	0xbc23fe96	-0.0100094285
78	0xbdad9f80	-0.08477688
79	0x3c75b775	0.014997353
80	0xbd913f54	-0.07092157
81	0xbdbad098	-0.09121817
82	0xba0b365a	-0.0005310528
83	0xbd172f51	-0.03691036
84	0x3c977bde	0.018491682
85	0xbc6ad880	-0.014333844
86	0xbc86eb01	-0.01646948
87	0xbdab5c93	-0.083672665
88	0xbda36430	-0.079780936
89	0x3ba2c375	0.004967148
90	0xbd2a7f76	-0.041625462
91	0xbd3b8fb9	-0.04579136
92	0xbc632db0	-0.013865873
93	0xbd3da941	-0.04630399
94	0xbd846ad2	-0.06465687
95	0xbc5858b1	-0.013204739
96	0xbd1c26cb	-0.038122933
97	0x3caf2a36	0.021382432
98	0xbdd5a850	-0.10432494
99	0xbc93e045	-0.018051276
100	0x3c76872c	0.015046876
101	0xbc0f0237	-0.008728555
102	0xbd717028	-0.05894485
103	0xbd0177f9	-0.031608555
104	0x3bca2ae2	0.006169663
105	0xbd366e41	-0.04453874
106	0xbdbeee4c	-0.09322795
107	0xbc00369d	-0.007825521
108	0xbd70e8c3	-0.05881573
109	0xbc1cb2a9	-0.00956408
110	0x3cfa5dcb	0.030562302
111	0xbdc2c8ca	-0.09510954
112	0xbd10405f	-0.03521764
113	0xbc0ad47f	-0.008473515
114	0x3cdc28a3	0.026874846
115	0xbd4d37f5	-0.050102193
116	0xbd142753	-0.036170315
117	0xbcaf2f9c	-0.021385007
118	0x3c5a6cf2	0.013331639
119	0xbd10d804	-0.03536226
120	0xbd8b3bc1	-0.067985065
121	0x3bb019ac	0.005374154
122	0x3cb470e9	0.022026496
123	0xbd2fcc19	-0.042919252
124	0xbd5727b9	-0.052528117
125	0xbc74a7ab	-0.014932553
126	0xbb6c45a3	-0.003605225
127	0xbe0457a1	-0.12924053

network_body._body_endoder.seq_layers.0.weight f4 [128, 8]
0	0xbed7daf9	-0.4215925
1	0x3e5f168f	0.21785949
2	0x3e844171	0.25831178
3	0x3ca2ccbf	0.019873021
4	0xbec6cdd4	-0.3882891
5	0x3e49c480	0.19703865
6	0x3f2cd58f	0.67513365
7	0x3e5a5840	0.21322727
8	0xbdd4012d	-0.10351787
9	0x3e9b1879	0.3029211
10	0xbecd9e42	-0.40159804
11	0x3e88956c	0.266765
12	0xbefc494d	-0.49274674
13	0xbe6fdf30	-0.23424983
14	0x3dde207a	0.10846038
15	0xbd999af8	-0.07500261
16	0x3de4bc1f	0.11168694
17	0x3ebe9cfc	0.37229145
18	0xbeb455f0	-0.35221815
19	0xbf05196f	-0.51991934
20	0xbb049d7e	-0.0020235474
21	0x3d21db6f	0.03951591
22	0x3e1deb7c	0.15421861
23	0x3f494728	0.786242
24	0x3e4320cf	0.19055484
25	0x3e336ceb	0.17522018
26	0xbd8cc09f	-0.06872677
27	0xbf55e898	-0.83558035
28	0xbf057c8a	-0.52143157
29	0x3dba735f	0.091040365
30	0xbee4ecd7	-0.44711944
31	0x3da05b94	0.07829967
32	0xbdf8dc7d	-0.1215143
33	0xbe426a6b	-0.18985908
34	0x3dcde17a	0.10052772
35	0xbe87c2e7	-0.26515886
36	0xbe7fc4f4	-0.24977475
37	0xbebb38d6	-0.365668
38	0x3e665bf5	0.22496016
39	0x3ee057c2	0.43816954
40	0xbe1881f8	-0.14893329
41	0x3ea69a3f	0.32539555
42	0x3e507bf0	0.20359778
43	0xbd920030	-0.07128942
44	0x3dd440dd	0.10363934
45	0xbd98a875	-0.07454006
46	0xbcf59aed	-0.029981101
47	0xbdc60f70	-0.09670913
48	0x3ef0363b	0.46916375
49	0x3f08ec00	0.5348511
50	0x3e487d84	0.1957913
51	0x3f13f171	0.57790285
52	0x3e01f9e2	0.12692979
53	0xbdecfe81	-0.1157198
54	0xbe1073e7	-0.14106713
55	0xbf32f89b	-0.6991059
56	0x3eae585e	0.34051794
57	0xbef9e046	-0.4880392
58	0xbf1c6a35	-0.6109956
59	0xbee02279	-0.437763
60	0x3c78db8f	0.015189066
61	0xbf3372c8	-0.7009702
62	0xbd99ca82	-0.075093284
63	0xbce0f0fa	-0.027458657
64	0x3f25ab12	0.6471416
65	0x3e8ae73a	0.27129537
66	0xbe2e4f08	-0.17022336
67	0xbe3cf676	-0.18453392
68	0x3e10a974	0.14127141
69	0xbf1d24d7	-0.6138434
70	0x3e9c97d9	0.305846
71	0x3ec589f8	0.38581824
72	0x3d5bae48	0.053633004
73	0xbd96532c	-0.073400825
74	0x3e7875b1	0.24263646
75	0x3cc5b0d6	0.024132174
76	0x3eceab99	0.40365294
77	0x3bb425a1	0.00549765
78	0x3f018345	0.50590926
79	0x3eed2eee	0.46324867
80	0xbea9f5c1	-0.33195308
81	0x3e97ed99	0.2967346
82	0x3e20ed1e	0.15715453
83	0x3f5433b7	0.8289141
84	0x3f2fd85a	0.686895
85	0xbe354226	-0.17701015
86	0x3f6d6a92	0.9274074
87	0x3dd9df82	0.10638334
88	0xbeb71d2e	-0.3576445
89	0x3f00ce33	0.50314635
90	0xbf1d17da	-0.6136452
91	0xbecd70d9	-0.40125158
92	0x3f4ca0fb	0.79933137
93	0x3ef01d80	0.46897507
94	0xbddd296e	-0.10798918
95	0x3eab81c7	0.3349745
96	0xbf045306	-0.51689184
97	0x3f38f2b2	0.72245324
98	0xbe9b0fee	-0.3028559
99	0x3f661da5	0.89888984
100	0xbe228af8	-0.15873325
101	0xbe8e6b98	-0.27816463
102	0xbe7b59e0	-0.24546003
103	0xbeacfb0f	-0.33785293
104	0xbe47b449	-0.19502367
105	0xbefcca31	-0.4937301
106	0xbe9401dc	-0.2890767
107	0xbe9a431e	-0.3012933
108	0xbf418ba8	-0.75603724
109	0xbd3da686	-0.046301387
110	0x3eed1124	0.4630214
111	0x3e2be1fd	0.16785426
112	0x3fa25926	1.2683456
113	0x3ebb97fd	0.36639395
114	0x3f077c05	0.52923614
115	0x3f51ce2a	0.81955206
116	0x3f112ef4	0.5671227
117	0xbcbac126	-0.022797178
118	0xbea533f1	-0.3226619
119	0x3e7dbbae	0.24778625
120	0xbec22c5e	-0.37924474
121	0x3e3e57ac	0.18588132
122	0xbf4347bd	-0.7628134
123	0x3e899144	0.2686864
124	0x3f082314	0.53178525
125	0x3eb4797b	0.35248932
126	0xbf2d768f	-0.6775903
127	0x3f43f00f	0.76538175
128	0xbf175240	-0.5910988
129	0x3e84991b	0.2589806
130	0xbf120bcd	-0.57049257
131	0x3eb5b3a6	0.35488623
132	0x3e5f5d25	0.21812876
133	0x3e954bd3	0.29159412
134	0x3e85e28a	0.26149398
135	0xbe7cfe9e	-0.24706504
136	0xbe2ab766	-0.16671523
137	0xbe863b12	-0.26216942
138	0xbec42207	-0.3830721
139	0x3e863896	0.26215047
140	0xbe73ea44	-0.23819834
141	0x3e7d0880	0.24710274
142	0x3e586891	0.21133639
143	0xbce7ba4b	-0.028287074
144	0xbe74f95e	-0.23923251
145	0x3ec6bce0	0.38815975
146	0xbd80220a	-0.062564924
147	0xbec546ea	-0.38530666
148	0x3d40b71c	0.047049627
149	0xbc06f3d4	-0.008236844
150	0x3e866bfb	0.26254258
151	0xbf1d7a69	-0.6151491
152	0xbed5ccb3	-0.41757736
153	0x3dee8bff	0.11647796
154	0x3da93112	0.082613125
155	0xbdcd4578	-0.10023016
156	0x3e0a8594	0.13527519
157	0xbe9d5927	-0.3073208
158	0xbf027bd4	-0.50970197
159	0xbdb7223d	-0.08942077
160	0xbf44b00f	-0.76831144
161	0x3d83e688	0.06440455
162	0x3dcf4627	0.101208024
163	0x3d50ba4e	0.050958924
164	0xbd6a5660	-0.05721128
165	0x3f3e0605	0.74227935
166	0xbd2b59ab	-0.04183356
167	0xbf3cdcd6	-0.7377447
168	0xbe2d8cb4	-0.16948205
169	0x3f2afd8a	0.6679312
170	0x3f0f8bb2	0.56072533
171	0xbe8af609	-0.27140835
172	0x3e3fe9dd	0.18741556
173	0xbe989494	-0.29800856
174	0x3d69851a	0.0570117
175	0x3eebec97	0.4607894
176	0x3df73853	0.1207129
177	0xbe942091	-0.28931096
178	0xbe2ed63b	-0.1707391
179	0x3ea3f04c	0.3201927
180	0xbdead76a	-0.11466868
181	0xbe9f09fe	-0.3106231
182	0x3e7c4dbc	0.24639028
183	0xbf550b87	-0.83220714
184	0x3c4c21d1	0.012459234
185	0xbf0c7858	-0.5487113
186	0xbebf0bed	-0.37313786
187	0x3dba17a1	0.09086538
188	0xbf438625	-0.76376563
189	0x3e9af9fd	0.3026885
190	0xbd9a7f49	-0.07543809
191	0x3e5d8925	0.21634348
192	0x3d94dbc5	0.0726848
193	0xbe0d03ce	-0.13770983
194	0xbebe2bf6	-0.37142915
195	0x3e952a8f	0.29134032
196	0x3dd719fb	0.10503002
197	0xbdb3afec	-0.08773789
198	0xbf4e7e19	-0.8066116
199	0x3b96d23b	0.004602698
200	0x3eed4aab	0.4634603
201	0xbf019a59	-0.5062614
202	0xbef96f78	-0.48717856
203	0xbe43e520	-0.19130373
204	0xbe07be19	-0.1325611
205	0xbe530a3a	-0.2060937
206	0xbe7282b4	-0.23682672
207	0xbe9635a5	-0.29337803
208	0xbf085654	-0.53256726
209	0x3e518169	0.20459522
210	0xbe5422c1	-0.20716383
211	0xbf3466d4	-0.70469403
212	0x3ce77688	0.028254762
213	0xbe3bfe69	-0.18358769
214	0x3dd840df	0.10559248
215	0x3e818a8f	0.25301024
216	0xbf25f466	-0.6482605
217	0xbe6f0000	-0.23339844
218	0xbd8d6dba	-0.06905694
219	0xbee5a402	-0.4485169
220	0x3e6cd915	0.23129685
221	0x3f0895cc	0.5335357
222	0xbe4368f2	-0.19083002
223	0x3e82c9ca	0.25544578
224	0xbec5fdf2	-0.38670307
225	0x3e17943e	0.14802644
226	0xbb3b938f	-0.0028621887
227	0xbe2ac99a	-0.16678467
228	0x3e84a927	0.25910303
229	0x3e28d818	0.16488683
230	0xbd7d5231	-0.061845962
231	0x3ef629bb	0.48078713
232	0x3a6a60b9	0.00089408044
233	0xbe8c05b1	-0.27348092
234	0x3ee61d10	0.44944048
235	0xbe2d3e19	-0.1691822
236	0x3efa3931	0.4887176
237	0xbdc83e78	-0.0977754
238	0xbeeeb015	-0.46618715
239	0xbece4602	-0.40287787
240	0xbda128af	-0.07869088
241	0xbebdc211	-0.37062123
242	0xbf3e42db	-0.74320763
243	0x3e261eed	0.16222735
244	0x3e28f1aa	0.16498438
245	0x3e0d913d	0.13824935
246	0x3ea8275a	0.32842523
247	0xbe4baa80	-0.1988926
248	0xbeea0617	-0.4570777
249	0x3eb03563	0.3441573
250	0x3e8fed54	0.28110754
251	0xbec661e8	-0.38746572
252	0x3ecd13fc	0.4005431
253	0xbf636d73	-0.8883888
254	0xbec6d326	-0.38832968
255	0x3d2fd57f	0.042928215

network_body._body_endoder.seq_layers.2.bias f4 [128]
0	0x3d1272ae	0.0357539
1	0xbd9fabaa	-0.07796414
2	0x3d64151a	0.055684187
3	0xbd1d089c	-0.03833829
4	0xbaa6c09c	-0.0012722197
5	0xbd4eae5e	-0.05045926
6	0xbca66ecf	-0.02031651
7	0xbd3ac641	-0.045599226
8	0xbd0d8fc3	-0.03456093
9	0xbd1b3372	-0.03789086
10	0xb9e2f30e	-0.0004328717
11	0x3cda54ef	0.026651828
12	0xb9b08efc	-0.00033675868
13	0x3ae6064b	0.0017549483
14	0x3b44ba82	0.0030018394
15	0xbc81a6ff	-0.0158267
16	0xba302e6e	-0.0006720786
17	0x3b4098d1	0.002938796
18	0xbcee0ad2	-0.029057894
19	0x3c274afa	0.010210747
20	0x3d0e307b	0.034714203
21	0x3cc2ca9e	0.023778256
22	0xbc651bdb	-0.013983692
23	0xbd048044	-0.032348886
24	0x3cc8797e	0.024471994
25	0xbb6b74a8	-0.0035927687
26	0x3d3b16ff	0.045676228
27	0xbc42dc9b	-0.011893417
28	0x3bfdd4d3	0.007746318
29	0xbd669301	-0.056292538
30	0x3be809e3	0.0070812567
31	0x3bf4fe92	0.007476636
32	0xbcfaf404	-0.030633934
33	0x3d3341ac	0.0437638
34	0x3ccc0d33	0.024908638
35	0xbd7dbec6	-0.061949514
36	0x3c8df392	0.017328057
37	0xbb322b87	-0.002718659
38	0xbd64d9b5	-0.055871684
39	0x3d83dc98	0.06438559
40	0x3caf38f0	0.021389455
41	0x3cb96a6c	0.022633754
42	0x3b31e939	0.0027147068
43	0xbd4f0cb3	-0.05054922
44	0x3d1e0c9b	0.03858624
45	0x3c33863b	0.010957296
46	0xbd24b15a	-0.040208198
47	0x3c1df37a	0.009640569
48	0xbcdf3a26	-0.027249407
49	0xbc2f758c	-0.010709178
50	0x3a8bddb3	0.001067093
51	0xbceddf1c	-0.02903705
52	0x3c550efc	0.013004061
53	0xbd558f47	-0.052138593
54	0xbc97a84e	-0.018512871
55	0x3cda3ce5	0.026640365
56	0xbd6723d7	-0.056430664
57	0x3b0894a5	0.0020840552
58	0x3c85e397	0.016343875
59	0xbcaf5cac	-0.021406494
60	0xbd4b8398	-0.049686044
61	0xbd16f6d5	-0.03685649
62	0xbc8cdd21	-0.017195286
63	0xbbe17a19	-0.0068810103
64	0x3d012a35	0.031534392
65	0x399ecb47	0.00030287562
66	0x3cf5aa53	0.029988443
67	0xbac3830c	-0.0014916374
68	0xbd31d91f	-0.043419953
69	0xbc8e136d	-0.017343247
70	0x3bec7fbf	0.007217377
71	0xbb881c91	-0.004153796
72	0x3b7bd541	0.003842667
73	0x3ca019a4	0.019543476
74	0x3d03cf20	0.03217995
75	0x3c69c68e	0.0142685305
76	0xbd1e8634	-0.038702205
77	0x3d481030	0.048843563
78	0x3d1d0c61	0.038341884
79	0x3d220d0e	0.03956323
80	0xbbe3a092	-0.0069466317
81	0x3aa5bf92	0.0012645593
82	0x3d7e398f	0.06206661
83	0x3cccf451	0.025018843
84	0x3d23e0b3	0.04000921
85	0x3af39dbf	0.0018586441
86	0xbd254f90	-0.04035908
87	0xbd0cb10b	-0.03434853
88	0x3cdcef45	0.026969561
89	0x3b27f868	0.002563024
90	0xbc9b4158	-0.018952057
91	0xbbef5060	-0.0073032826
92	0xbbdc9aaf	-0.006732307
93	0xbd522309	-0.051302943
94	0xbcfe7ec4	-0.031066306
95	0x3b3c30fc	0.002871572
96	0xbd107c84	-0.035274997
97	0xbc30a4ec	-0.010781508
98	0xbd1bc387	-0.038028266
99	0x3d7b768b	0.06139235
100	0x3caae91c	0.020863108
101	0xbc2ac374	-0.010422576
102	0x3d2b521d	0.041826356
103	0x3cfa78e2	0.03057522
104	0x3d3ac7c8	0.045600682
105	0x3b8860ef	0.004161946
106	0x3bac5494	0.005259106
107	0x39394ec8	0.00017672323
108	0x3c9034a2	0.017603222
109	0xbc3b3bf5	-0.011427869
110	0xbb07e47c	-0.0020735553
111	0xbc2489af	-0.010042592
112	0xbc5601dd	-0.013061968
113	0x3d10c2dd	0.035342086
114	0x3d06ee56	0.03294214
115	0x3d7f9722	0.06239999
116	0x3d214f0f	0.039382037
117	0xbcba2c8f	-0.022726325
118	0x3c0354ea	0.008015851
119	0xbd9b47be	-0.07582043
120	0xbbf3edad	-0.0074441046
121	0xbd510b61	-0.051036242
122	0xbbbf4075	-0.0058365413
123	0x3bd20151	0.0064088483
124	0xb86ab825	-5.5961445e-05
125	0x3d3cab59	0.046061847
126	0x3d74dde0	0.05978191
127	0xbd4e83ab	-0.050418537

network_body._body_endoder.seq_layers.2.weight f4 [128, 128]
0	0xbe4ceddc	-0.20012611
1	0x3d3576cc	0.044302747
2	0xbc7d8e07	-0.0154757565
3	0xbe018e62	-0.12651971
4	0x3d150d2c	0.036389515
5	0x3d3e1288	0.04640439
6	0x3c4aede7	0.012385822
7	0xbb178ac9	-0.0023123494
8	0x3d374a9f	0.0447489
9	0x3d89ea1c	0.06734106
10	0xbda5ed50	-0.081019044
11	0xbe01abd6	-0.12663206
12	0xbdee2036	-0.116272375
13	0x3e707ce2	0.23485139
14	0xbd8e5119	-0.06949062
15	0x3dabcd02	0.083887115
16	0xbd172f7c	-0.03691052
17	0xbd2db492	-0.042408533
18	0xbd43fcac	-0.04784839
19	0x3e0f20a6	0.13977298
20	0xbe8875a3	-0.2665225
21	0xbd9bcc29	-0.076073
22	0xbdf01cca	-0.11724241
23	0xbc54116e	-0.012943609
24	0x3db661ca	0.089053705
25	0x3e002912	0.12515667
26	0xbb83fb51	-0.004027762
27	0xbcbb60e4	-0.02287335
28	0xbd450f09	-0.04811004
29	0x3dea07ce	0.1142727
30	0xbe07f1ab	-0.13275783
31	0xbdd19328	-0.10233146
32	0xbdb482b3	-0.088139914
33	0xbde226f3	-0.11042585
34	0xbd02b377	-0.031909432
35	0xbc44c491	-0.012009756
36	0x3d11e08c	0.035614535
37	0x3cf89e54	0.030348934
38	0xbd825927	-0.06364661
39	0x3defd5f4	0.1171073
40	0x3c5ea365	0.013588761
41	0x3ca44c9b	0.02005606
42	0x3d031bc8	0.032008916
43	0x3c5475de	0.012967555
44	0x3d8361b9	0.064151235
45	0x3d2fc5c7	0.042913225
46	0x3df3eef1	0.11910809
47	0xbd6a9421	-0.057270173
48	0xbe0c83a2	-0.13722089
49	0xbbccb409	-0.006247048
50	0xbde0f745	-0.10984663
51	0x3d07e766	0.033179663
52	0xbe0207b7	-0.12698255
53	0xbdf016f5	-0.11723129
54	0x3e5d0ed4	0.21587688
55	0xbe4c373f	-0.1994295
56	0xbdcd0fdc	-0.100127906
57	0xbdb0e345	-0.08637098
58	0x3d43c6d1	0.047797028
59	0xbdd8ef6a	-0.105925396
60	0xbc48d05a	-0.012256706
61	0xbd01ec5d	-0.031719554
62	0xbe0a6941	-0.13516714
63	0xbe0b26cd	-0.1358902
64	0xbd9e076b	-0.077162586
65	0xbd18aa14	-0.037271574
66	0x3dc13fb7	0.09435981
67	0xbd182f6e	-0.037154607
68	0xbdbca7a8	-0.092116654
69	0x3e19333c	0.1496095
70	0x3c38509d	0.011249688
71	0xbcf6f728	-0.03014715
72	0xbe548532	-0.20753935
73	0xbe2742ed	-0.16334124
74	0x3d971e5c	0.073788375
75	0xbcd1d3ca	-0.025613684
76	0x3d7a250b	0.061070483
77	0xbd8773b0	-0.066138625
78	0x3ccaeb38	0.024770364
79	0x3d368579	0.044560883
80	0x3cb20ed4	0.021735586
81	0x3dad7d79	0.08471198
82	0x3c12126f	0.008915528
83	0xbd306dd1	-0.04307348
84	0x3dea1b90	0.114310384
85	0xbcf59745	-0.029979357
86	0xbd566da2	-0.052350648
87	0xbdd3420f	-0.10315334
88	0xbcb48599	-0.02203636
89	0xbd90690d	-0.07051287
90	0x3c60be53	0.013717252
91	0x3d113175	0.035447557
92	0x3cb3aadc	0.021932058
93	0xbeb032e8	-0.34413838
94	0xbe239d14	-0.1597789
95	0xbd32519e	-0.043534867
96	0xbca98d7a	-0.020697344
97	0x3d984c70	0.07436454
98	0xbd570952	-0.052499123
99	0x3b13037e	0.0022432501
100	0xbd9a84dd	-0.07544873
101	0xbe144a0c	-0.14481372
102	0xbe97c25a	-0.29640466
103	0xbe39a817	-0.18130527
104	0xbda32fd2	-0.079681054
105	0x3dc8926d	0.097935535
106	0xbd327d71	-0.04357666
107	0x3e62f719	0.22164573
108	0xbd7c9119	-0.061661813
109	0xbbb026eb	-0.005375733
110	0xbec04f46	-0.3756048
111	0xbbd26147	-0.006420288
112	0xbdc68fec	-0.0969542
113	0x3da186e1	0.07887054
114	0x3dba2ac7	0.090901904
115	0x3e1a3566	0.15059432
116	0x3d5c3fd0	0.053771794
117	0xbd001a7f	-0.03127527
118	0xbc8a59ab	-0.01688846
119	0xbe4796e7	-0.19491158
120	0x3df93449	0.12168176
121	0x3d679253	0.05653603
122	0x3d2390df	0.03993308
123	0xbc0e251c	-0.00867584
124	0xbddeee3a	-0.10885282
125	0x3d1f1113	0.038834643
126	0xbe200bc3	-0.15629487
127	0xbd4b5f42	-0.04965139
128	0x3d306105	0.043061275
129	0xbdc7178a	-0.097212866
130	0xbd4d4af4	-0.05012031
131	0x3d635cce	0.055508427
132	0xbde53619	-0.11191959
133	0xbd7f7dc0	-0.062375784
134	0xbe20a288	-0.15687001
135	0xbc7ab177	-0.0153011
136	0xba1d4ec0	-0.00060008094
137	0xbd8b7399	-0.06809158
138	0xbe2e48ea	-0.17020002
139	0x3db46983	0.08809187
140	0xbc90891c	-0.017643504
141	0xbd0f5d5d	-0.035001148
142	0x3d1c780b	0.03820042
143	0xbce51efa	-0.027968872
144	0x3e071da2	0.13194898
145	0xbcfb7a00	-0.030697823
146	0x3d7d3d3b	0.061825972
147	0x3d342210	0.043977797
148	0x3e729b6b	0.236921
149	0xbcf44d55	-0.029822031
150	0xbcc12f07	-0.023581995
151	0x3d66faff	0.056391712
152	0xbca43e5b	-0.020049265
153	0xbaf0c9e0	-0.001837071
154	0x3d94b96e	0.072619304
155	0x3e028d9f	0.12749337
156	0x3e3b2900	0.18277359
157	0xbd7792c3	-0.060442697
158	0xbd7e5b18	-0.062098593
159	0xbe41e17c	-0.18933672
160	0xbcf940ac	-0.030426346
161	0x3df161ef	0.117862575
162	0x3e04867b	0.12941925
163	0x3dbf80ed	0.093507625
164	0x3ddb0116	0.106935665
165	0xbc90063f	-0.017581103
166	0xbd1fb21e	-0.038988225
167	0xbe114eca	-0.14190212
168	0xbe149efb	-0.14513771
169	0x3de5cf86	0.112212226
170	0xbe471aba	-0.19443789
171	0x3d6568ef	0.056008276
172	0xbbe9ced6	-0.0071352525
173	0x3d107f0b	0.035277408
174	0xbcd6ade1	-0.026205959
175	0x3c8c93e4	0.017160363
176	0xbdbc17ab	-0.09184202
177	0x3ca26f96	0.019828599
178	0xbd0ce9fa	-0.034402825
179	0xbcfca3fd	-0.030839914
180	0x3d2518ed	0.040306974
181	0xbd7812ca	-0.060564794
182	0xbdd19ca7	-0.10234957
183	0x3cd8cdae	0.026465263
184	0x3da5baae	0.08092247
185	0x396c9f26	0.00022566001
186	0x3d8a9aea	0.06767829
187	0xbdce3fdd	-0.10070775
188	0x3cf0d2f9	0.029397475
189	0xbe2cf0c8	-0.16888726
190	0x3b9b4e22	0.0047395388
191	0xbd44ff73	-0.048095178
192	0xbc9b5266	-0.01896019
193	0x3d779428	0.060444027
194	0x3b773f01	0.0037726762
195	0x3cfe5c02	0.031049732
196	0x3da2811c	0.07934782
197	0x3c3eb0b5	0.01163881
198	0x3e4987ca	0.19680706
199	0xbd318259	-0.0433372
200	0x3d223224	0.0395986
201	0x3db60ca0	0.08889127
202	0xbe46933b	-0.19392101
203	0xbd69188b	-0.05690817
204	0x3e196929	0.14981522
205	0xbdb74629	-0.08948929
206	0x3df58f13	0.1199018
207	0xb9e070b0	-0.00042808568
208	0x3e39209f	0.1807885
209	0x3b072c56	0.0020625792
210	0x3d6f98d3	0.058495354
211	0x3e3cefff	0.18450926
212	0xbda92306	-0.08258633
213	0xbe06fe26	-0.13182887
214	0xbdacf96b	-0.0844601
215	0xbd15d8d1	-0.036583725
216	0x3c9fdf93	0.019515788
217	0x3dcba12a	0.09942849
218	0xbdf8889f	-0.121354334
219	0x3ccdace3	0.025106853
220	0x3c9f24d9	0.01942675
221	0xbde607e6	-0.11231975
222	0x3d8ce090	0.068787694
223	0xbc65d39c	-0.014027502
224	0x3d80384b	0.06260737
225	0xbab2decf	-0.0013646724
226	0xbdad0a2a	-0.08449204
227	0xbc6e6a9b	-0.014551784
228	0xbdfef885	-0.12449745
229	0xbde50e06	-0.111843154
230	0xbd804dc5	-0.06264833
231	0xbbd813b1	-0.0065941443
232	0x3e17e836	0.14834675
233	0xbd4a032d	-0.049319435
234	0x3c8cf0fd	0.017204756
235	0xba0e9b3e	-0.0005440003
236	0x3d1fdd1e	0.039029233
237	0xbd01fbf6	-0.03173443
238	0xbd73804c	-0.059448525
239	0x3e13e42a	0.14442506
240	0xbdb6173f	-0.088911526
241	0x3e1edf55	0.15514882
242	0x3dc380bd	0.09546039
243	0x3d8c34ef	0.06846034
244	0xbcd2e8ec	-0.025745831
245	0x3c55b2fd	0.013043162
246	0x3e3df462	0.18550256
247	0x3d8e47cc	0.06947288
248	0x3c8c4a6f	0.017125336
249	0xbda8bab1	-0.082387336
250	0x3ba21738	0.0049466155
251	0xbdbb83fb	-0.09156033
252	0xbd6d4a0c	-0.057931945
253	0xbd14800a	-0.03625492
254	0xbd538e00	-0.051649094
255	0x3c5ae51c	0.013360288

network_body.observation_encoder.processors.0.normalizer.running_mean f4 [8]
0	0x3853cf16	5.0499184e-05
1	0xba320a4e	-0.00067916967
2	0xbcca8b87	-0.024724735
3	0x40432cb9	3.0496047
4	0x3dbc20ac	0.09185919
5	0xbbca1c72	-0.0061679417
6	0xbe6a228e	-0.22864744
7	0xbb817733	-0.003950977
