Project/Assets/ML-Agents/Examples/SlideMan/SlideMan.onnx (onnx, 75711 bytes, 7 tensors)

action_model._continuous_distribution.log_sigma f4 [1, 2]
0	0x3dddebf3	0.10836019
1	0xbe03dbb3	-0.12876777

action_model._continuous_distribution.mu.bias f4 [2]
0	0x3c074f93	0.008258718
1	0xbdbf39c5	-0.093371905

action_model._continuous_distribution.mu.weight f4 [2, 128]
0	0xbc1fdf2e	-0.0097578
1	0xbd36839a	-0.0445591
2	0x3d2bea97	0.04197177
3	0xbb3d7ccf	-0.0028913503
4	0x3dcd2bee	0.100181445
5	0xbd1860b2	-0.03720159
6	0x3a9aecd6	0.001181985
7	0x3bad87ec	0.005295744
8	0xbb9ff7f2	-0.0048818523
9	0x3c991f6b	0.018691739
10	0xb89e8680	-7.55908e-05
11	0xbc033835	-0.008009006
12	0x3d7048df	0.058663245
13	0x3c893ec2	0.016753558
14	0x3c324a90	0.010882035
15	0xbdbe3def	-0.09289157
16	0xbb9bbfb4	-0.0047530774
17	0x3b9d7ea5	0.004806357
18	0xbc07e045	-0.008293216
19	0x3c69c64b	0.014268468
20	0x3d87b34d	0.06625996
21	0x3cde1d82	0.02711368
22	0xbb5ab1fd	-0.003337025
23	0x3c220723	0.009889397
24	0x3a31620c	0.0006766624
25	0xbb887011	-0.00416375
26	0x3cb4db4a	0.022077221
27	0x3afe76f0	0.0019414108
28	0x3cd73126	0.026268553
29	0xbc8b27b0	-0.016986698
30	0xbcb53137	-0.022118194
31	0x3d8f6c1d	0.07003043
32	0xbbae95a8	-0.005327899
33	0xbbccaeba	-0.006246415
34	0xbd78665e	-0.0606445
35	0xbb9c89cd	-0.0047771693
36	0xbb50c8fe	-0.0031858082
37	0x38f8af51	0.00011858217
38	0xbc4297f3	-0.011877048
39	0xbc9a6916	-0.018848937
40	0xbaf64ae6	-0.0018790632
41	0xbb730957	-0.0037084424
42	0xbc29633a	-0.010338599
43	0x3bdf845f	0.0068212
44	0xbcd37911	-0.025814565
45	0xbb5f33ed	-0.003405805
46	0xbaae87a4	-0.001331557
47	0x3be587cb	0.007004713
48	0xbb82f861	-0.003996894
49	0xbd83e600	-0.064403534
50	0x3d54302d	0.051803757
51	0x3b8099e8	0.003924597
52	0x3d1ab5df	0.037771102
53	0xbd163608	-0.036672622
54	0x3c904fd9	0.0176162
55	0xbc44a61e	-0.012002496
56	0xbce331f6	-0.027733784
57	0x3d4ff767	0.05077305
58	0xbc2de424	-0.010613475
59	0xbd58c969	-0.052926455
60	0xbd2a827a	-0.04162834
61	0x3b6f81b5	0.0036545817
62	0x3d1c8ae9	0.038218413
63	0xbbdbad3e	-0.0067040017
64	0xbd4c9b72	-0.04995293
65	0x3c5c16e4	0.013433192
66	0x3c966bdb	0.018361976
67	0xbcfe67ad	-0.031055296
68	0xbc04dcf5	-0.008109321
69	0x3c0c53f7	0.008564941
70	0xba0535b0	-0.00050815474
71	0x3c260b4b	0.010134528
72	0x3c4709d9	0.012148344
73	0xbcacf628	-0.02111347
74	0xbca63c04	-0.02029229
75	0x3beac5f0	0.0071647093
76	0xbc1230d7	-0.008922777
77	0xbda2403f	-0.0792241
78	0xbdc13be3	-0.094352506
79	0xbc944064	-0.01809711
80	0xbcf2421d	-0.02957254
81	0xbc003260	-0.00782451
82	0x3c227398	0.009915255
83	0xbc535cd3	-0.012900549
84	0x3be4ebb6	0.0069861067
85	0xbd8a5326	-0.067541406
86	0xbc1bc472	-0.009507285
87	0x3da3ab38	0.07991642
88	0x3c6d44c0	0.014481723
89	0xbc680df6	-0.014163485
90	0xbd2ea480	-0.04263735
91	0x3be8e5ce	0.007107473
92	0x3d1fd0f7	0.039017644
93	0xbbff074b	-0.007782852
94	0xbc32ba8b	-0.010908733
95	0x3c96a132	0.01838741
96	0xbd12689a	-0.035744287
97	0x3da7eca3	0.08199432
98	0xbcb0bdda	-0.021574903
99	0x3ccc6282	0.024949316
100	0xbdb319cc	-0.08745155
101	0xbbafba5f	-0.0053627933
102	0xbb15d4c7	-0.002286242
103	0xbd14c1d2	-0.036317654
104	0x3d02d416	0.031940542
105	0x3cb0efcb	0.021598717
106	0xbc4c3350	-0.012463406
107	0xbbe7faf7	-0.007079478
108	0xbc29a631	-0.0103545645
109	0xbc39c4f4	-0.011338461
110	0xbc55d7b7	-0.013051919
111	0xbc2dd8fa	-0.010610813
112	0xbc8a1b2b	-0.016858658
113	0x3b34d4a3	0.0027592562
114	0xbca62bdd	-0.020284588
115	0x3d3af670	0.045645177
116	0x3ced7db1	0.028990598
117	0x3d185680	0.037191868
118	0xbd5e7d0f	-0.054318484
119	0x3d33f76f	0.043937143
120	0x3d1c0f4b	0.038100522
121	0x3bb5ea36	0.0055516018
122	0xbc287ad7	-0.010283194
123	0xbce98842	-0.028507356
124	0x3d27a703	0.04093076
125	0x3bbc69f2	0.0057499344
126	0xbc075077	-0.00825893
127	0x3c1b3f0d	0.009475482
128	0x3c7dbc36	0.0154867675
129	0xbd212c47	-0.039348867
130	0x3d826406	0.06366734
131	0xbd42e553	-0.047581982
132	0x3d05d900	0.03267765
133	0xbc53dc24	-0.012930904
134	0xbbd8c660	-0.006615445
135	0xbca808e8	-0.02051206
136	0xb91564e0	-0.00014247326
137	0x3d72dad7	0.059290733
138	0xbc5df46d	-0.013547045
139	0x3cb2a9a4	0.021809407
140	0x3c6cc0f7	0.014450303
141	0xbc8207cf	-0.015872864
142	0xbbbf1867	-0.0058317664
143	0xbb149423	-0.0022671304
144	0xbb9d4805	-0.004799845
145	0xbd74bd54	-0.05975087
146	0x3c275cb2	0.010214971
147	0xbca50ec2	-0.020148639
148	0x3c054fb2	0.008136677
149	0x3bc7c727	0.006096739
150	0x3c3677c6	0.011136955
151	0xbbda897c	-0.0066692214
152	0xbbeeab28	-0.007283587
153	0xbc479db2	-0.012183594
154	0x3c0b56c8	0.008504577
155	0x3bf3e15e	0.0074426373
156	0xbb9538ab	-0.0045538745
157	0xbcbd3944	-0.023098595
158	0xbd23df2a	-0.040007748
159	0xbc576975	-0.0131477015
160	0x3b5707e6	0.0032811104
161	0x3c38a568	0.011269905
162	0x3c261852	0.010137634
163	0x3b8bc4b7	0.0042653936
164	0x3bf0f50a	0.0073534297
165	0xbc6ac8a8	-0.014330067
166	0x3c885d5d	0.016646082
167	0x3cc7e3fe	0.024400707
168	0xbac24ce7	-0.0014823944
169	0x3c185c45	0.0092993425
170	0x3b7ae223	0.003828176
171	0xbcb3902c	-0.021919332
172	0xbd98c07c	-0.074585885
173	0x3ce3fc9a	0.02783041
174	0x3d0bbf84	0.03411819
175	0x3c0f147f	0.008732914
176	0xbb16ffb3	-0.0023040592
177	0xbc066c95	-0.008204599
178	0x3d126cbd	0.035748232
179	0xbd81e458	-0.06342381
180	0xbd5829fe	-0.052774422
181	0x3cc85811	0.024456056
182	0xbca9b43e	-0.020715829
183	0xbba72cb1	-0.005101763
184	0x3c8846df	0.016635356
185	0x3a25c76e	0.0006323968
186	0xbd9e00fe	-0.07715033
187	0x3cf1160d	0.02942946
188	0x3c780e12	0.015140073
189	0x3a2c4526	0.0006571583
190	0x3c5dcfb4	0.01353829
191	0x3abf95e9	0.001461682
192	0x3b9f3b4b	0.004859363
193	0xbc55b542	-0.0130437035
194	0x3c395642	0.011312069
195	0xbd1d46bb	-0.038397532
196	0x3d25460a	0.040349998
197	0x3c0020cd	0.00782032
198	0xbb9872c5	-0.0046523535
199	0xbc08d6be	-0.00835198
200	0xbc38a10b	-0.011268864
201	0x3b7bdc0c	0.0038430719
202	0x3949da87	0.00019250262
203	0xbd8a2a2c	-0.06746325
204	0xb9b1163a	-0.0003377663
205	0x3a0abf83	0.00052928197
206	0xbd1a193e	-0.03762173
207	0x3c266461	0.010155768
208	0xbca52907	-0.020161165
209	0xba7ca22e	-0.0009637204
210	0x3bd41276	0.0064719273
211	0x3d4fdb3a	0.05074618
212	0x3bb8317a	0.0056211324
213	0xbd129ff5	-0.03579708
214	0x3b06e98c	0.0020585982
215	0x3c187fc9	0.00930781
216	0x3c1fe9fc	0.009760376
217	0xbbe44839	-0.0069666174
218	0x399d8288	0.00030042627
219	0x3c2bbc03	0.010481837
220	0x3d446fad	0.047958065
221	0x3b1e57ce	0.0024161222
222	0xbd3af692	-0.045645304
223	0x3cd4ce24	0.025977202
224	0xbbccd6e8	-0.0062512048
225	0x3c0b5d34	0.008506108
226	0xbbf80180	-0.007568538
227	0xbcd2b087	-0.02571894
228	0x3d647335	0.055773932
229	0xbc3449c8	-0.011003919
230	0xbcfb9a23	-0.030713147
231	0x3d2fad11	0.04288966
232	0xbc4dc3ee	-0.01255892
233	0x3d24aea4	0.040205613
234	0xbd13401f	-0.035949823
235	0xbd14fb19	-0.036372278
236	0x3b9cca91	0.00478489
237	0x3c802aeb	0.015645465
238	0x3c95cda8	0.018286541
239	0xbd380caa	-0.044933952
240	0x3c528195	0.012848278
241	0xbb03f27c	-0.0020133546
242	0x3c584915	0.013201018
243	0xbca70045	-0.02038587
244	0x3cbe3fcd	0.023223782
245	0xbd6de973	-0.058083963
246	0xbd1140fd	-0.03546237
247	0xbd24ca82	-0.04023219
248	0xbd4d9ab4	-0.050196365
249	0xbccfeb67	-0.025380803
250	0x3d097988	0.033563167
251	0xbcb79614	-0.02241043
252	0xbac6a970	-0.0015156697
253	0xbc59666f	-0.013269051
254	0x3c5a5ddf	0.013328045
255	0xbc2bc07d	-0.0104829045

network_body._body_endoder.seq_layers.0.bias f4 [128]
0	0x3cd245f2	0.025668118
1	0x3caa53a3	0.020791834
2	0xbdca1882	-0.09867956
3	0x3d916f2a	0.07101281
4	0xbc99cac0	-0.018773437
5	0x3c1591ad	0.00912897
6	0xbdac748d	-0.08420668
7	0xbd112073	-0.035431337
8	0xbd4417de	-0.047874324
9	0xbccce77a	-0.02501272
10	0xbc6d79cb	-0.01449437
11	0x3cf6301c	0.030052237
12	0x3d0c4cd2	0.03425295
13	0xbd350404	-0.044193283
14	0x3c0a4923	0.008440289
15	0xbd33fdf4	-0.04394336
16	0xbdb1fe8b	-0.08691128
17	0xbb83d932	-0.0040236944
18	0x3cd9bd45	0.026579509
19	0x3c08a448	0.008339949
20	0xbd8e4408	-0.0694657
21	0xbcf82bcc	-0.030294321
22	0xbe121c17	-0.14268528
23	0x3c8358f8	0.016033635
24	0x3d970c61	0.07375408
25	0xbbf7f759	-0.007567328
26	0xbcd9b558	-0.02657573
27	0xbe082b42	-0.13297752
28	0x3ccd1c88	0.025038019
29	0xbca37a24	-0.019955702
30	0xbd78383b	-0.0606005
31	0xbbd0611e	-0.0063592335
32	0x3c993545	0.018702159
33	0x3cf50cfd	0.02991342
34	0xbba43488	-0.005011145
35	0xbe088c21	-0.13334705
36	0xbd0027dc	-0.031288013
37	0xbd816d3e	-0.063196644
38	0x3d0a00e2	0.03369225
39	0xbd6c50cb	-0.057694238
40	0xbd901af6	-0.070363924
41	0x39eb7b3b	0.00044914507
42	0xbe07367c	-0.13204378
43	0xbd880053	-0.06640687
44	0xbd712b36	-0.0588791
45	0xbd53c433	-0.051700782
46	0xbcf7c3a8	-0.030244663
47	0xbca05922	-0.019573752
48	0x3d815613	0.063152455
49	0xbd00b3b3	-0.031421375
50	0xbdabd9be	-0.083911404
51	0xbd9b42e0	-0.07581115
52	0xbd5bde86	-0.05367901
53	0xbd9858b5	-0.074387945
54	0xbd9e18ea	-0.07719596
55	0xbcc1afd7	-0.023643417
56	0xbdc61e41	-0.09673739
57	0x3ce54c76	0.027990561
58	0xbb50137b	-0.0031749893
59	0x3d52d8c2	0.051476248
60	0xbdb467a3	-0.0880883
61	0x3cbc8f31	0.023017498
62	0xbc47ef65	-0.012203072
63	0xbdecc062	-0.115601316
64	0xbc7eb0d0	-0.015545085
65	0xbc2790e6	-0.010227418
66	0xbc303372	-0.010754453
67	0xbc9ff88e	-0.0195277
68	0x3da87d79	0.08227057
69	0xbb689f27	-0.0035495253
70	0x3d5b80d3	0.053589653
71	0x3cb197a1	0.021678748
72	0xbd924d6c	-0.07143673
73	0xbdf78c4e	-0.12087308
74	0xbe01d0f5	-0.12677367
75	0xbd2daacf	-0.042399224
76	0xbc9c8c7d	-0.019109959
77	0xbde60f80	-0.11233425
78	0xbc99acdc	-0.018759184
79	0x3ba9185f	0.005160376
80	0x3d0871ff	0.03331184
81	0xbd5457fb	-0.051841717
82	0xbcacd0ea	-0.021095712
83	0xbdf1eb58	-0.118124664
84	0xbdd000dc	-0.10156414
85	0xbcc539e5	-0.024075458
86	0xbd312cf7	-0.043255772
87	0x3d867573	0.065653704
88	0xbd12a2e8	-0.03579989
89	0xbd1344ef	-0.035954412
90	0xbd3834a4	-0.044972077
91	0xbd612af9	-0.054972623
92	0xbd33396c	-0.043755934
93	0xbc8c9c78	-0.017164454
94	0x3d34c2cd	0.04413109
95	0xbcbc77f0	-0.02300641
96	0xbe360939	-0.17776956
97	0xbc5087de	-0.012727706
98	0x3ca2b253	0.019860422
99	0x3d7b3779	0.0613322
100	0xbcb923bc	-0.022600047
101	0x3d092a60	0.033487678
102	0xbd6b7ccb	-0.05749206
103	0xbc8ac432	-0.016939256
104	0x3c219804	0.0098629035
105	0xbbf119f2	-0.0073578293
106	0x3a6b2d87	0.00089713227
107	0xbd813bd3	-0.06310239
108	0xbc6dd618	-0.014516376
109	0x3da4e598	0.08051604
110	0xbd5c7bbe	-0.053828947
111	0xbbcdc81e	-0.0062799593
112	0x3cf92c41	0.03041661
113	0x3d0d7dbc	0.034543738
114	0xbd2aede6	-0.041730784
115	0xbd96adba	-0.073573545
116	0x3badfc5b	0.005309624
117	0xbdc02f22	-0.0938399
118	0xbcafe5cc	-0.02147188
119	0x3ba4bfae	0.005027733
120	0x3d0880a2	0.0333258
121	0x3d2d5fd2	0.04232771
122	0xbd384671	-0.044989053
123	0x3cc0a164	0.023514457
124	0xbd0be179	-0.034150574
125	0xbd83c3e5	-0.06433848
126	0xbcfb0885	-0.03064371
127	0xbb0adf28	-0.002119014

network_body._body_endoder.seq_layers.0.weight f4 [128, 12]
0	0x3d9af69a	0.07566567
1	0x3ed066b9	0.4070337
2	0x3e8432ad	0.25819913
3	0x3e90ff98	0.28320003
4	0xbe2a1d75	-0.166128
5	0xbe577897	-0.21042095
6	0x3d223b99	0.039607618
7	0x3eaca40c	0.33718908
8	0xbf31eef5	-0.69505244
9	0x3cd4c751	0.025973948
10	0x3f4ce6c0	0.80039597
11	0xbef1ebda	-0.47250253
12	0x3e2f1b63	0.17100291
13	0xbe6349d0	-0.22196126
14	0x3ed48f1a	0.41515428
15	0xbe7127a2	-0.23550275
16	0x3e4a2898	0.19742048
17	0x3de5cad0	0.11220324
18	0xbeb9b508	-0.36270928
19	0x3d5015c8	0.050802022
20	0x3c01945c	0.007908907
21	0x3eb43028	0.3519299
22	0xbdb400a3	-0.08789184
23	0x3ce83c19	0.02834897
24	0x3ea3119e	0.31849378
25	0xbed0af79	-0.40758875
26	0xbf0a487f	-0.5401687
27	0xbe5796ff	-0.21053694
28	0x3db78cee	0.08962427
29	0xbdb73f32	-0.089476004
30	0x3d45715a	0.048203804
31	0x3e475410	0.19465661
32	0x3e2764d2	0.16347054
33	0xbe15ee9c	-0.14641804
34	0x3e99d8a1	0.30048087
35	0xbf1b7587	-0.6072621
36	0x3e8b6517	0.27225563
37	0x3cb2b8ec	0.021816693
38	0x3ddcbefe	0.10778616
39	0x3f35cf9d	0.7101992
40	0xbdbfc7d8	-0.09364289
41	0x3b4db4e4	0.0031388337
42	0x3d982484	0.0742884
43	0xbe2c5bf7	-0.16831957
44	0xbf0d69b2	-0.55239403
45	0xbeaad6b6	-0.33366936
46	0x3e151428	0.1455847
47	0x3d8c021e	0.06836341
48	0xbda38c98	-0.079858005
49	0xbd280db4	-0.041028693
50	0x3e64a247	0.22327529
51	0x3daf17cd	0.085494615
52	0xbda3b8e7	-0.07994252
53	0xbd6537e5	-0.05596151
54	0x3ec31c2d	0.38107434
55	0x3e874b80	0.2642479
56	0x3e8d03cf	0.27541968
57	0xbebad782	-0.36492544
58	0xbe57f93b	-0.21091168
59	0x3cdc5b93	0.026899135
60	0xbe78fbb3	-0.24314766
61	0x3dacc99c	0.084368914
62	0xbd0ae947	-0.033913877
63	0xbde90211	-0.11377347
64	0x3e1a1813	0.15048246
65	0xbdba8a3f	-0.091083996
66	0x3e2f7a48	0.1713649
67	0x3e10474b	0.14089696
68	0xbee5edf7	-0.44908115
69	0xbd96bc6c	-0.07360157
70	0x3d7aa4ec	0.061192438
71	0xbe95b4bd	-0.29239455
72	0x3e017323	0.12641577
73	0xbd81ab7b	-0.063315354
74	0x3d8e974a	0.0696245
75	0x3f09e7a9	0.5386911
76	0x3e96bb7a	0.29439908
77	0xbd2b8eec	-0.041884348
78	0x3e0b2302	0.13587573
79	0x3f4d4b77	0.80193275
80	0x3f0069b4	0.5016129
81	0x3d7ceccc	0.061749265
82	0xbe325467	-0.1741501
83	0x3f1ce3f8	0.6128535
84	0xbedceedf	-0.43150994
85	0x3ed3bcd4	0.41355002
86	0x3deb73c9	0.11496694
87	0x3d03c3c5	0.032169122
88	0x3debbeb0	0.1151098
89	0x3e0b4398	0.13600004
90	0xbdd76cd2	-0.10518803
91	0x3e9d859b	0.30765995
92	0x3ea203bc	0.31643474
93	0xbedb0994	-0.42780745
94	0x3e92efef	0.2869868
95	0xbe647db7	-0.22313581
96	0x3d545595	0.05183943
97	0x3e561939	0.20908059
98	0x3e5675ab	0.20943324
99	0x3daf25ef	0.08552157
100	0xbd904363	-0.07044103
101	0x3e04602d	0.12927313
102	0xbf23901f	-0.63891786
103	0x3ea0ca5c	0.31404388
104	0x3efa9383	0.48940668
105	0xbe01beb8	-0.1267041
106	0xbe175386	-0.14777955
107	0x3e8d1415	0.27554384
108	0x3e97ec94	0.29672682
109	0xbf10a694	-0.5650418
110	0xbe1558ba	-0.14584628
111	0xbe405828	-0.18783629
112	0xbe377a6c	-0.17917794
113	0x3e861183	0.26185235
114	0x3e0bef57	0.1366552
115	0x3f2e1756	0.6800436
116	0xbeddb754	-0.4330393
117	0xbe01e9a2	-0.1268678
118	0x3e20c70f	0.15700935
119	0x3cf4c77a	0.029880274
120	0x3d956e76	0.072964594
121	0x3cb406e2	0.021975938
122	0xbe3e0145	-0.18555172
123	0xbd687409	-0.056751285
124	0x3e8e4b67	0.27791902
125	0x3d8eaba6	0.06966333
126	0xbeb99414	-0.36245787
127	0xbf0cf47f	-0.5506057
128	0xbe818906	-0.25299853
129	0x3e2ce6d2	0.16884926
130	0x3e4f85c7	0.20265876
131	0xbed1833a	-0.4092043
132	0x3de66c30	0.11251104
133	0x3ebe3bd3	0.37155017
134	0xbef70d0d	-0.48252144
135	0x3e35b418	0.17744482
136	0xbd7f73d5	-0.062366325
137	0x3ec44bd3	0.383391
138	0x3ed97cc9	0.42478016
139	0xbdc84271	-0.09778298
140	0xbed7ca42	-0.42146498
141	0x3da4eed9	0.08053369
142	0x3db5b170	0.08871734
143	0xbde7dd9a	-0.11321564
144	0xbd6750fe	-0.056473725
145	0xbf0f1007	-0.5588383
146	0x3e86070a	0.26177245
147	0xbcab634f	-0.020921377
148	0x3dac85a7	0.0842393
149	0xbecb470a	-0.39702636
150	0xbe820bb0	-0.25399542
151	0xbcd0dc48	-0.025495663
152	0xbcd01c60	-0.025404155
153	0x3e7ebad9	0.24875964
154	0x3eb4240b	0.3518375
155	0xbe9e282c	-0.30890024
156	0xbe092585	-0.13393219
157	0xbecdb762	-0.40178972
158	0x3be37735	0.006941701
159	0xbe87a36e	-0.26491874
160	0x3ebf7dcf	0.37400672
161	0xbdbeec9b	-0.09322473
162	0xbe1ca720	-0.15298128
163	0xbe58d4a1	-0.21174861
164	0xbedf84a2	-0.43655878
165	0x3f897c8e	1.0741136
166	0xbe25ac58	-0.16179025
167	0xbe8038ff	-0.25043485
168	0xbf112abe	-0.56705844
169	0xbe18b62c	-0.14913243
170	0xbe023493	-0.12715368
171	0xbebea5e3	-0.37235937
172	0x3d95cf44	0.073149234
173	0xbe050b7e	-0.12992665
174	0x3f12cefa	0.5734707
175	0xbe836f25	-0.25670734
176	0xbdb25f2f	-0.08709561
177	0x3ef1cc5f	0.47226235
178	0xbf1bcb23	-0.6085684
179	0x3e0e01b3	0.13867836
180	0xbe03d1ca	-0.12872997
181	0xbeb43794	-0.35198653
182	0xbea98e62	-0.33116442
183	0xbe036e30	-0.12835002
184	0xbee4e164	-0.4470321
185	0x3dbd2696	0.09235875
186	0xbe7f8e0e	-0.24956533
187	0xbc1528d8	-0.009103976
188	0x3ea66b81	0.32503894
189	0xbe0f5565	-0.13997419
190	0xbe8b2ef8	-0.27184272
191	0xbf5c4b03	-0.8605196
192	0xbe908358	-0.28225207
193	0xbdeee16b	-0.11664089
194	0xbe6ed4d5	-0.23323376
195	0xbd35e1af	-0.04440468
196	0xbeff7a2b	-0.49897894
197	0x3f121d75	0.570762
198	0x3e1e4ad0	0.15458226
199	0x3dcaeb27	0.09908133
200	0x3e83fe2e	0.2577986
201	0x3e39f542	0.18159965
202	0x3e0159d1	0.12631918
203	0xbe31b08c	-0.17352504
204	0x3e59b279	0.21259488
205	0x3f003352	0.5007831
206	0xbef0479b	-0.4692963
207	0x3dace1bc	0.08441493
208	0x3dad8d75	0.084742464
209	0x3e98be75	0.29832807
210	0xbe042284	-0.12903792
211	0x3e8a80ef	0.27051494
212	0xbedaefb9	-0.4276102
213	0x3e8be61d	0.27324
214	0x3deae87c	0.11470124
215	0xbe798737	-0.24367987
216	0xbe21db5e	-0.15806338
217	0xbe6f0a15	-0.2334369
218	0x3f317bd3	0.69329566
219	0xbe34a7b8	-0.17642105
220	0xbe9706dd	-0.29497424
221	0x3e98d361	0.2984877
222	0xbe6ce627	-0.23134671
223	0xbe11cba3	-0.14237837
224	0x3f2974ad	0.6619366
225	0x3e2822eb	0.1641957
226	0xbe813f14	-0.25243437
227	0x3d5e83e1	0.05432499
228	0xbf74b012	-0.9558116
229	0xbe1282e0	-0.14307737
230	0x3ec80029	0.39062622
231	0x3e8cdc58	0.2751186
232	0xbe848dc3	-0.25889406
233	0x3e098640	0.13430119
234	0xbe6de9fd	-0.2323379
235	0x3e902c6e	0.28158897
236	0x3f50921b	0.8147294
237	0x3d5e04f4	0.054203942
238	0xbe317b3c	-0.17332166
239	0xbe9459a0	-0.28974628
240	0x3c826af8	0.015920147
241	0x3e603244	0.21894175
242	0x3e6db77e	0.23214528
243	0xbdeb9653	-0.115032814
244	0xbe93a6d4	-0.28838217
245	0xbd98cec7	-0.07461315
246	0xbdf64c8e	-0.120263204
247	0x3e8592f8	0.2608869
248	0xbdccf058	-0.100067794
249	0xbecccf29	-0.400018
250	0xbd0c241e	-0.03421413
251	0x3d448c05	0.047985096
252	0x3dc1fb09	0.09471709
253	0xbcb0bdee	-0.02157494
254	0xbd33318a	-0.043748416
255	0xbe9edd40	-0.31028175

network_body._body_endoder.seq_layers.2.bias f4 [128]
0	0xbd9b4cf6	-0.075830385
1	0xbd4cf673	-0.05003972
2	0xbd0bd20a	-0.034135856
3	0xbd7496ba	-0.059714057
4	0x3d44dc2e	0.048061542
5	0xbd30c029	-0.04315201
6	0xbcc9bb86	-0.024625551
7	0xbd82ad0b	-0.063806616
8	0xbd26c48b	-0.04071478
9	0x3c1ee714	0.009698648
10	0xbd5edd69	-0.054410372
11	0xbd81d47e	-0.06339358
12	0xbc0e7f2f	-0.008697315
13	0xbb2a3b32	-0.0025975225
14	0xbd6cc3b2	-0.057803817
15	0xbcd75924	-0.026287623
16	0xbdc193b6	-0.09452002
17	0xbc4e2567	-0.01258216
18	0xbd54efa4	-0.05198635
19	0xbd2e78e2	-0.04259575
20	0xbd26cc05	-0.040721912
21	0xbd5a7d76	-0.053342305
22	0xbd413fae	-0.04717987
23	0xbda65e40	-0.081234455
24	0xbd8f09b2	-0.06984271
25	0xbd7223a1	-0.05911601
26	0x3cb07819	0.021541642
27	0xbda39ced	-0.079889156
28	0xbdbe34fe	-0.09287451
29	0xbd2412ee	-0.040057115
30	0xbcf9ab0d	-0.030477071
31	0x3d583324	0.052783147
32	0xbd9d88e9	-0.07692129
33	0xbd021219	-0.03175554
34	0x3cb0e270	0.021592349
35	0xbdcd0c15	-0.1001207
36	0xbd7ae889	-0.06125692
37	0xbd7dd6df	-0.061972495
38	0xbd4afa15	-0.049554903
39	0xbd081d17	-0.033230867
40	0xbd6ef803	-0.05834199
41	0xbd29b327	-0.04143062
42	0xbdafc911	-0.08583272
43	0xbd61c762	-0.055121787
44	0xbbad7239	-0.0052931574
45	0xbc40df8c	-0.011772048
46	0xbd44a316	-0.048007093
47	0xbd6b301b	-0.057418924
48	0xbd4cf361	-0.05003679
49	0xbcbfefcd	-0.023429776
50	0x3d316cb4	0.043316558
51	0xbd182bef	-0.037151273
52	0xbd53c979	-0.05170581
53	0xbd41807d	-0.047241677
54	0x3ad9df85	0.00166224
55	0xbd51351a	-0.051076032
56	0xbcf45e46	-0.02983011
57	0x3cdb195a	0.026745487
58	0xbd561f35	-0.052275855
59	0xbcb490f6	-0.022041779
60	0xbd8302e0	-0.06397033
61	0xbd50abe9	-0.050945196
62	0x3d14c1dc	0.03631769
63	0xbd640398	-0.05566749
64	0xbd95552f	-0.07291638
65	0xbda1a312	-0.07892431
66	0xbd2382bf	-0.03991961
67	0xbcd55a55	-0.02604405
68	0xbc1781a1	-0.0092472145
69	0xbd1fd062	-0.03901709
70	0xbd40f8bb	-0.047112208
71	0xbcef292f	-0.029194443
72	0xbd41d8b7	-0.047325816
73	0xbd5a0dc7	-0.053235795
74	0xbd31ac40	-0.04337716
75	0xbd1d7dad	-0.038449932
76	0xbcd7f1cc	-0.026360415
77	0xbcdd1a79	-0.026990162
78	0xbc6225c3	-0.013802948
79	0xbd33a23d	-0.043855894
80	0xbd777e10	-0.060422957
81	0xbd02c1a2	-0.031922944
82	0xbd91b329	-0.0711425
83	0xbb5da5dc	-0.0033820784
84	0xbd3baa43	-0.04581667
85	0xbb683924	-0.003543445
86	0xbd20e88b	-0.03928427
87	0x3b24e394	0.0025160061
88	0xbd625c5c	-0.055263862
89	0xbda161bf	-0.07879972
90	0xbc841d5a	-0.016127277
91	0xbd937413	-0.07199874
92	0x3ce3c186	0.02780224
93	0xbd82d14d	-0.06387577
94	0xbcc1f0a7	-0.023674322
95	0xbcfca6c2	-0.030841235
96	0xbd31d7f3	-0.043418836
97	0xbc0132bd	-0.007885632
98	0xbd7717b2	-0.060325332
99	0xbd477183	-0.048692238
100	0xbc65d3dd	-0.014027563
101	0xbd8141e5	-0.063113965
102	0xbd1e8e42	-0.038709886
103	0xbd9dad38	-0.076990545
104	0xbd206a1e	-0.0391637
105	0x3b8ecd7b	0.0043579913
106	0xbd21196d	-0.03933089
107	0xbd70c3d3	-0.058780503
108	0xbd294455	-0.041324932
109	0xbdb1bece	-0.08678971
110	0xbd94d063	-0.07266309
111	0xbd012320	-0.03152764
112	0xbce2384b	-0.027614733
113	0xbd9406a0	-0.07227826
114	0xbd7d1db9	-0.061795924
115	0xbcbe4524	-0.023226328
116	0xbcb67fd8	-0.022277758
117	0x3cb50f79	0.022102104
118	0xbcee2564	-0.029070564
119	0xbc07a6b6	-0.008279493
120	0x3c1c5e98	0.009544037
121	0xbd8922b5	-0.06696073
122	0xbdc28d3b	-0.09499594
123	0xbcc24888	-0.023716226
124	0xbc3a2338	-0.011360936
125	0xbdeeeecf	-0.11666643
126	0xbd959b97	-0.07305067
127	0xbd8a7ba8	-0.06761867

network_body._body_endoder.seq_layers.2.weight f4 [128, 128]
0	0xbd18789a	-0.03722439
1	0x3dd9513f	0.106111996
2	0x3dd0d496	0.101967975
3	0x3dfdf504	0.12400249
4	0x3d800fb5	0.06252996
5	0xbdcda40e	-0.100410566
6	0x3db37a0d	0.08763514
7	0xbd66a3a8	-0.05630842
8	0x3cd03d44	0.025419839
9	0xbdd03add	-0.10167477
10	0xbe1680a6	-0.14697513
11	0x3d33fa08	0.04393962
12	0xbd8344e6	-0.06409626
13	0x3d7269ff	0.059183117
14	0xbe039fea	-0.12853971
15	0x3dd2445a	0.10266943
16	0xbd730612	-0.05933196
17	0x3d9b07a0	0.07569814
18	0x3db9c17f	0.090701096
19	0x3c77afc4	0.015117589
20	0x3dc844bd	0.09778736
21	0xbc9a9ee9	-0.018874602
22	0xbe0aa71f	-0.13540314
23	0xbd9fd42e	-0.07804142
24	0xbccbae59	-0.024863409
25	0x3937f4a7	0.0001754338
26	0xbe0f7ba6	-0.14012012
27	0x3de25fb1	0.11053408
28	0xbd0aa044	-0.033844247
29	0x3e1059a2	0.14096692
30	0xbd7ffb1e	-0.062495343
31	0xbdc12acf	-0.09431993
32	0xbd19248a	-0.037388362
33	0x3bbbaeeb	0.005727639
34	0x3d8b0ff8	0.06790155
35	0xbe166275	-0.14685996
36	0xbe4b8e26	-0.19878444
37	0x3cde33cf	0.027124314
38	0x3d646f23	0.05577005
39	0xbd5b37e9	-0.053520117
40	0xbda8b586	-0.08237748
41	0x3dcfe31a	0.10150738
42	0x3e4eec7f	0.20207404
43	0xbe36450c	-0.17799777
44	0xbe10a291	-0.14124514
45	0xbe365447	-0.17805587
46	0xbe195398	-0.14973295
47	0x3bbd873f	0.005783945
48	0xbb7315ed	-0.0037091926
49	0xbdd7ce22	-0.105373636
50	0xbd5cf380	-0.053943157
51	0x3d680b60	0.056651473
52	0xbd94eea3	-0.07272079
53	0xbdce1196	-0.10061948
54	0xbea92cd5	-0.33042017
55	0xbe10af7b	-0.1412944
56	0xbd539d15	-0.051663477
57	0xbd304e0b	-0.043043178
58	0xbd086bd5	-0.03330596
59	0x3c8b2c95	0.016989032
60	0xbde351bf	-0.11099576
61	0x3d2b2681	0.041784767
62	0xbe1e44f8	-0.15455997
63	0xbdb084e6	-0.08619098
64	0x3d77b669	0.060476694
65	0x3df6a9d5	0.12044112
66	0x3c74eaed	0.014948589
67	0xbd36c80d	-0.044624377
68	0xbddca113	-0.1077291
69	0x39763eec	0.00023483828
70	0x3cd6759c	0.026179127
71	0xba705a0b	-0.0009168691
72	0xbccfbf91	-0.0253599
73	0xbc9889e2	-0.018620435
74	0xbd731c8a	-0.05935339
75	0x3df60346	0.12012343
76	0xbdd279a4	-0.10277107
77	0xbdfd4391	-0.12366403
78	0xbd59594c	-0.053063676
79	0x3d7f0045	0.062256116
80	0xbe801f24	-0.25023758
81	0xbcd88f15	-0.026435414
82	0xbd3ddfcf	-0.04635602
83	0x3d082a58	0.033243507
84	0xbd1cb170	-0.038255155
85	0x3c6aa9cb	0.014322708
86	0xbd913cbe	-0.07091664
87	0x3c8f38b8	0.0174831
88	0xbc85b2a1	-0.016320528
89	0x3db38c00	0.08766937
90	0xbd7d90f1	-0.061905805
91	0xbe1b7231	-0.1518028
92	0xbe135c97	-0.14390789
93	0xbd59da09	-0.05318645
94	0xbe07500e	-0.13214132
95	0x3df5ef9d	0.12008593
96	0x3da41bf5	0.08013145
97	0xbdd005af	-0.10157334
98	0xbb8cfff2	-0.004302972
99	0x3e223199	0.15839233
100	0xbe074521	-0.13209964
101	0x3e65fca6	0.22459659
102	0xbcb14e94	-0.021643914
103	0x3c3bc70e	0.011461033
104	0xbdae4352	-0.08508934
105	0xba33e78b	-0.00068628107
106	0x3d9c35e6	0.07627468
107	0xbe23815e	-0.15967318
108	0x3dc5f22c	0.09665331
109	0xbe25a4ca	-0.16176143
110	0x3d8e9dac	0.06963667
111	0x3d44d55c	0.048055038
112	0xbdd60f69	-0.10452158
113	0x3cc9c65d	0.02463072
114	0xbe2bc499	-0.16774215
115	0x3d98ef42	0.0746751
116	0xbd5e79de	-0.05431544
117	0xbdd89005	-0.105743445
118	0xbdf425de	-0.11921285
119	0xbe009efd	-0.12560649
120	0x3cac4bcf	0.021032242
121	0x3d0e2058	0.034698814
122	0x3d37d483	0.0448804
123	0xbe3deb50	-0.18546796
124	0xbd5d00d0	-0.053955853
125	0xbde01982	-0.10942365
126	0x3d8bd0d5	0.06826941
127	0xbd9a44db	-0.075326644
128	0x3dabdb3f	0.08391427
129	0xbd5010b9	-0.050797198
130	0x3d6d8cae	0.05799549
131	0x3b5df49b	0.003386772
132	0xbcc11f9e	-0.023574647
133	0x3e0d413b	0.13794415
134	0xbd773479	-0.060352776
135	0xbc47fd2e	-0.012206359
136	0x3d127359	0.035754535
137	0xbe506593	-0.20351247
138	0x3cd9c291	0.026582034
139	0xbdeeb9f7	-0.11656564
140	0xbc08b53b	-0.00834399
141	0x3dbf2d08	0.09334761
142	0xbc69c3fb	-0.014267917
143	0x3cef712f	0.029228775
144	0xbc8302f1	-0.015992614
145	0x3df9fa90	0.12205994
146	0xbd99c3d9	-0.07508058
147	0x3d0ef78a	0.03490404
148	0xbe5c28e6	-0.21499977
149	0xbdf9de39	-0.12200589
150	0xbdb4d9df	-0.08830618
151	0xbd1d539d	-0.038409818
152	0xbd9603a9	-0.07324917
153	0xbd77466d	-0.060369898
154	0x3d773f6b	0.060363214
155	0x3e35c07c	0.17749208
156	0xbdf0e877	-0.11763089
157	0xbd0b0741	-0.033942465
158	0xbe42753d	-0.18990035
159	0x3c91ff82	0.017822031
160	0x3d93b97f	0.07213115
161	0x3e3a172d	0.18172903
162	0xbdf758ec	-0.120775074
163	0xb82a11b6	-4.0547653e-05
164	0x3d6cbf8c	0.05779986
165	0xbd508faf	-0.050918277
166	0xbd421598	-0.047383875
167	0x3db57372	0.0885991
168	0xbe135cc6	-0.14390859
169	0xbd8b21de	-0.06793569
170	0x3ccf6a7e	0.025319334
171	0xbe01da63	-0.12680964
172	0xbe0d9585	-0.13826568
173	0xbdb17770	-0.08665359
174	0xb9980303	-0.00028993943
175	0xbda1a7f6	-0.07893364
176	0xbdb01170	-0.08597076
177	0xbdbffad5	-0.09374014
178	0x3b1f26db	0.0024284634
179	0xbbbafa67	-0.00570612
180	0xbda706bb	-0.081555806
181	0xbe5fdc1c	-0.21861309
182	0xbd902003	-0.07037356
183	0x3cd864ad	0.026415193
184	0xbca07bb1	-0.01959023
185	0x3e4fecd9	0.20305194
186	0x3dd82e67	0.105557255
187	0xbdf4a736	-0.119459555
188	0xbe124a71	-0.1428621
189	0x3e0bf45f	0.13667439
190	0xbc4abf92	-0.0123747755
191	0xbd89b542	-0.06724025
192	0xbd3b7cd5	-0.045773346
193	0x3e200d74	0.15630132
194	0x3de59e9e	0.112118945
195	0xbd95e497	-0.07318991
196	0xbbb4f7b0	-0.0055226907
197	0xbe6cb235	-0.23114856
198	0x3cedef64	0.029044814
199	0xbcaa9b41	-0.020825984
200	0xbe8fea7c	-0.28108585
201	0x3d80bc34	0.06285897
202	0xbd79f568	-0.061025053
203	0xbdb11f00	-0.08648491
204	0x3d8f247c	0.06989381
205	0xbe3170a3	-0.17328124
206	0x3d487af9	0.0489454
207	0x3d50e446	0.05099895
208	0xbc570942	-0.013124766
209	0x3c8a006e	0.016845908
210	0xbd6642e0	-0.05621612
211	0xbd0969dc	-0.03354822
212	0xbde534ab	-0.11191686
213	0x3d18a679	0.037268136
214	0xbe16a4a8	-0.14711249
215	0x3dbcf016	0.0922548
216	0xbd980624	-0.07423046
217	0xbe131654	-0.14363986
218	0xbe5547a7	-0.20828114
219	0x3c06eaee	0.008234723
220	0xbd26e463	-0.04074515
221	0x3d1d0b7e	0.038341038
222	0xbd77c2c8	-0.060488492
223	0xbd314d42	-0.04328657
224	0xbdad33a0	-0.08457112
225	0x3d8f6f4f	0.07003652
226	0xbde76d63	-0.11300161
227	0xbd786a6f	-0.060648378
228	0x3b8ea5a0	0.00435324
229	0xbd21d33a	-0.039508082
230	0x3c7fdf8d	0.0156172635
231	0xbd3d2d14	-0.046185568
232	0xbaff9bc9	-0.0019501384
233	0xbd824894	-0.063614994
234	0x3dba81c6	0.091067836
235	0xbd0b9616	-0.03407868
236	0x3bf35741	0.007426173
237	0x3dc86db4	0.09786549
238	0xbe198476	-0.14991936
239	0x3ddf4f06	0.109037444
240	0xbd3ed65d	-0.04659115
241	0xbd967a25	-0.07347516
242	0xbcf8839e	-0.030336197
243	0xbe016966	-0.12637863
244	0xbd40c4e1	-0.04706276
245	0x3e809352	0.25112396
246	0x3d8f5e35	0.070003904
247	0xbdf03e91	-0.117306836
248	0x3e1127c9	0.14175333
249	0xbdfdcd17	-0.123926334
250	0xbd8a7313	-0.0676023
251	0x3df9f66e	0.12205206
252	0xbc5f7f5f	-0.0136412075
253	0x3daf45f6	0.08558266
254	0xbc867927	-0.016415192
255	0xbd005637	-0.03133222
