Project/Assets/ML-Agents/Examples/SlideMan/SlideMan.onnx (onnx, 75711 bytes, 7 tensors)

action_model._continuous_distribution.log_sigma f4 [1, 2]
000000 2e da 05 be 9d 2d ee be
       -0.1307151 -0.46519175

action_model._continuous_distribution.mu.bias f4 [2]
000000 84 4e 01 3f 35 c3 6e 3e
       0.5051043 0.23316653

action_model._continuous_distribution.mu.weight f4 [2, 128]
000000 6c 8c 96 bd ca d1 1f be c8 75 4a be 14 8b e7 3c
       -0.07351002 -0.15607372 -0.19771492 0.02826456
000010 54 1a cd 3d 39 09 9b bc a6 06 22 be 1f d2 97 bd
       0.10014787 -0.018925296 -0.15822849 -0.07413124
000020 8d 40 c0 bd e7 e4 9c bd a6 43 e6 bd cf 74 30 3c
       -0.09387312 -0.07660847 -0.11243372 0.010770037
000030 ae cf d3 bd 31 20 8a 3d bd 16 21 bd a9 44 9b bd
       -0.10342346 0.06744421 -0.039328326 -0.07581455
000040 d8 5a e1 3d 8c 2d 48 3d 0b 1e d4 bc 65 c3 81 bd
       0.11003655 0.048871562 -0.025893232 -0.06336097
000050 59 f5 91 3d 08 52 6f be c1 98 94 3d f3 92 64 be
       0.071268745 -0.23371136 0.07255698 -0.22321682
000060 a1 6f 00 bd 51 8c 7a 3d e2 41 3f bd 74 60 b3 3b
       -0.031356458 0.061168972 -0.04669369 0.0054741446
000070 5a 1e 86 be 37 c6 e8 bd f5 42 1d bd 3e ed fe bd
       -0.2619503 -0.113659315 -0.038393933 -0.12447594
000080 f8 28 2d bd d4 9f 03 bd 6a 88 9a 3d 5f de 4b 3c
       -0.0422754 -0.032134846 0.0754555 0.012443154
000090 41 b2 8c be fb b0 9f 3c 63 8c a0 be 41 2c bb 3d
       -0.27479747 0.01949357 -0.31357107 0.091393
0000a0 cc 16 0a 3e ce ac 97 3d fb de 2d bd 9a aa c1 bd
       0.13485259 0.07406007 -0.04244898 -0.09456368
0000b0 1d 79 b6 3c d2 ea d7 3b fc 59 98 bd 5b fe 5d be
       0.022274548 0.006589272 -0.07439038 -0.2167906
0000c0 a1 66 32 be 3d 6c 34 3d f7 40 90 3d c9 e0 60 bd
       -0.17421962 0.044048537 0.07043641 -0.05490187
0000d0 c9 3b 1a bd 0d 1e c4 3d ad 50 29 3e 25 a2 14 be
       -0.03765467 0.09576044 0.16534682 -0.14514978
0000e0 64 dd 42 bd 1c 27 ea 3d e7 f4 03 be 99 92 63 bd
       -0.047574416 0.11433241 -0.12886392 -0.05555973
0000f0 e5 2e 36 be 82 72 5c 3c bc d2 ac 3d 27 6c 92 3b
       -0.17791326 0.013455035 0.08438632 0.004468459
000100 4a 6f 46 3d 9e 4e c9 3d 22 05 0a be db 81 ee bd
       0.048445977 0.09829448 -0.1347852 -0.11645862
000110 d3 99 59 be 5e b3 0a bb 16 37 4e bd e6 3f 4f be
       -0.21250086 -0.002116404 -0.050345503 -0.20239219
000120 0c 01 0b 3d 3a 10 0a be 14 31 9d ba f0 b7 38 be
       0.033936545 -0.13482752 -0.0011992776 -0.18038917
000130 3f f4 ab bd 3e d2 ba bd f0 40 63 bd 70 ab 87 bd
       -0.083961956 -0.09122132 -0.05548185 -0.06624496
000140 2e bc 09 3c 26 93 ca 3c 0a 1e c2 bd bb 8b dc bd
       0.008406682 0.024728369 -0.09478386 -0.10768839
000150 be 07 29 be 4f 2e b0 bd e8 36 16 3d 3b 39 b5 bc
       -0.1650686 -0.08602583 0.036673456 -0.022122016
000160 c8 32 30 3c 47 53 2e bc 1c 50 26 bc 86 95 ae bd
       0.010754295 -0.010639972 -0.0101509355 -0.08524613
000170 68 13 5b bc 85 43 c1 bd 23 b5 da bd dd f5 63 bd
       -0.013371326 -0.094367065 -0.1067908 -0.055654395
000180 a0 b0 fc 3d f3 05 42 be 9f cb ae be c1 f8 70 bc
       0.12338376 -0.18947582 -0.34139726 -0.014707745
000190 64 9e 2b 3d d4 c0 db bc 93 a4 60 be e2 fc 1d bd
       0.0418991 -0.026825346 -0.2193778 -0.038571246
0001a0 60 22 12 bd ae a0 0f 3c 62 b9 dc bd 49 0b 6f bd
       -0.035677314 0.008766336 -0.107775465 -0.05836037
0001b0 ac a7 11 bc 5c 23 02 be 58 ff a2 bc a0 d5 26 3d
       -0.008890074 -0.12708801 -0.019897148 0.040731072
0001c0 ac 8c 81 3b f7 60 89 bc ad 6c 63 be 39 89 a2 be
       0.003953537 -0.01676987 -0.22209425 -0.31745318
0001d0 8f 2e 3b be 67 b8 82 be a5 74 79 bd fd c5 3f bd
       -0.1827948 -0.25531313 -0.060902257 -0.046819676
0001e0 da 03 a5 be 68 0d 9b 3d 14 17 21 3b 93 48 fd bc
       -0.322295 0.075709164 0.0024580406 -0.030918395
0001f0 cd 1e 79 bc bc 27 9a 3d 52 17 91 3c 0c b8 8a bd
       -0.015205097 0.0752711 0.017711315 -0.067733854
000200 41 b5 6e 3d 42 12 33 3e f0 93 12 be 24 2e 22 3e
       0.058278326 0.17487434 -0.14314246 0.15837914
000210 d4 b0 a1 bd 78 c9 df 3d 91 63 6c 3d 6e a7 a7 3d
       -0.078950554 0.10927099 0.05771214 0.081862316
000220 eb ac 83 bd f3 d4 30 be 47 36 1b 3d 22 7e 82 bc
       -0.06429466 -0.17268734 0.03789356 -0.015929285
000230 0c d8 00 3e c2 74 b6 3c 21 19 2e bd 99 1a 9e bd
       0.12582415 0.022272471 -0.042504434 -0.07719917
000240 92 e0 00 3e d1 5f 34 3d 2b f7 25 3e b0 0a b9 bc
       0.12585667 0.04403669 0.16207568 -0.022588104
000250 54 39 93 3d a3 e0 82 bc 43 ff 4d bc 65 55 ba bd
       0.07188669 -0.015976256 -0.012573066 -0.09098319
000260 6d 7a 5f 3d 2b ac 47 3e 6b 27 69 bd 05 a2 d9 3d
       0.054560114 0.1949927 -0.056922358 0.10626606
000270 9e 74 ca bc 96 e2 57 3e dd 71 42 3e 93 cb 8d 3d
       -0.02471381 0.2108253 0.18988748 0.06923594
000280 66 22 73 bc 9a 97 52 3e 86 e9 29 3c c1 23 50 be
       -0.014839744 0.20565644 0.010370618 -0.20326139
000290 92 20 06 bd 71 19 da 3d 2a dc 26 be f8 76 bd 3d
       -0.032745905 0.10649384 -0.16294923 0.09251207
0002a0 ee 50 42 bd cc ba b3 3c e3 42 a4 bc 72 07 c5 3d
       -0.04744046 0.021939658 -0.020051425 0.09620561
0002b0 9d df 00 3c 5e 48 f3 3d da c5 f5 3b 54 14 e4 bc
       0.007865814 0.11879037 0.0075003924 -0.027841724
0002c0 57 dc a6 bd 49 4a a3 bc 28 6c 26 be ea 65 ff 3d
       -0.08147495 -0.019932883 -0.16252196 0.124706104
0002d0 52 0e 04 3e 12 b9 f0 bc bf 06 ac 3d 4b 6f cc bd
       0.12896088 -0.029385123 0.08399724 -0.09982165
0002e0 90 50 c0 3c 0d e8 4a 3c 24 91 fc 3c 89 a1 dc 3d
       0.023475915 0.012384427 0.030830927 0.10772998
0002f0 8b 4c a1 bd 49 d9 3b 3e f7 30 df 3d 99 d9 03 3e
       -0.078759275 0.18344606 0.10898011 0.12875976
000300 59 17 4a bb 2f b3 0b bd d3 d2 82 3e 33 ed 09 3e
       -0.003083667 -0.03410643 0.2555147 0.1346939
000310 db 64 61 bc e1 91 49 3e 4e 1b 00 3e 2d 3b 52 3d
       -0.013756956 0.19684555 0.12510416 0.051325966
000320 42 13 87 3d ca 93 12 3d ee e8 1b 3e dc c4 49 3d
       0.0659547 0.035785474 0.15225574 0.049260005
000330 e0 c2 d0 bc ab 47 c4 bd 97 28 63 3c 66 29 a1 bd
       -0.025483549 -0.09583982 0.013864658 -0.07869224
000340 25 56 88 bd 3e 3b d7 bb 06 4a ad bd 9b ef 97 bb
       -0.06657056 -0.0065683415 -0.084613845 -0.0046367175
000350 10 f1 06 bd 03 7f 88 bd 63 99 5c 3a ce 4d 10 3e
       -0.03294474 -0.066648506 0.00084151904 0.1409218
000360 2e 3d 09 3c e5 ca 81 3d db 31 c9 3b 2c 1d 35 3e
       0.008376403 0.06337527 0.0061399764 0.1768691
000370 e9 76 ef bc 97 e3 6d be 93 ca a3 3d 28 5a 3d 3e
       -0.029231505 -0.2323135 0.07997622 0.18491423
000380 b1 ba 41 b9 b6 01 7c bd 8d af a6 bd 92 e6 94 3b
       -0.00018475462 -0.06152507 -0.081389524 0.0045440877
000390 59 0b 1f 3e fb dd c3 3d 65 79 ac 3d 3d c7 ff bd
       0.15531673 0.09563824 0.08421592 -0.124891736
0003a0 03 0f 3e 3e 18 8c 2b be d5 b4 ae 3d 65 c5 ee bc
       0.18560414 -0.1675266 0.08530585 -0.02914686
0003b0 35 44 47 bc 00 f2 b7 bd e9 23 ee bd af 25 a2 3d
       -0.012162258 -0.08981705 -0.11627943 0.07917344
0003c0 64 89 2d bc 84 3f 25 3e 24 41 ff 3d 88 fb 96 bd
       -0.0105918385 0.1613751 0.124635965 -0.073721945
0003d0 fd a3 9e 3c b0 6c a2 3d 81 4f 52 be 77 e8 03 3c
       0.019365305 0.07930887 -0.20538141 0.008051029
0003e0 67 79 0d 3a 06 22 b0 3d 54 bc d5 bc b3 08 26 bc
       0.00053968135 0.086002395 -0.026090778 -0.01013391
0003f0 0f aa 5d 3d 3f 39 a4 3d e6 2f d5 bd 90 2f 90 bd
       0.05411726 0.08018731 -0.104095265 -0.07040322

network_body._body_endoder.seq_layers.0.bias f4 [128]
000000 0d 68 28 bd 60 f9 ca bd f5 d6 5b bd fa 80 53 be
       -0.041114856 -0.09910846 -0.053671796 -0.2065467
000010 98 c3 43 bd 21 15 93 be 37 f0 5c be c4 f5 19 be
       -0.047793955 -0.28727058 -0.2157601 -0.15035158
000020 72 f0 65 bd e3 0c 76 3c 45 3f df 3d 70 b7 ae bc
       -0.05613751 0.015017721 0.109007396 -0.021327704
000030 0d a8 92 bd 9a 77 3b be b3 6f 47 be 71 e1 d4 bd
       -0.071609594 -0.18307343 -0.19476204 -0.10394562
000040 f1 1c 45 bd b6 86 15 bd 92 45 3c be 7e 91 5b be
       -0.048123304 -0.036505423 -0.18385914 -0.2144222
000050 15 2e 96 3d f3 b0 cf bd aa 10 8f be d5 77 93 be
       0.07333008 -0.10141172 -0.279424 -0.28802362
000060 38 0f c4 3d e4 1b 3b be c4 3c 9e be 2e 17 65 be
       0.09573215 -0.18272358 -0.30905735 -0.22372124
000070 8d 90 0e bd 8b ba 60 be 3f 2d 29 bd b3 15 66 bd
       -0.034805823 -0.2194616 -0.041302916 -0.056173038
000080 96 87 91 be b4 c5 bc 3d 30 18 94 3c ba 62 42 3d
       -0.28423756 0.092173964 0.01807794 0.047457434
000090 a8 3c c8 bd 65 0d 2b bc cf 18 10 bd 2c c2 33 be
       -0.09777194 -0.010440205 -0.03517991 -0.1755454
0000a0 18 d0 62 bb 36 6b 24 be 84 49 1c be 08 87 a6 bd
       -0.0034608897 -0.16056523 -0.15262419 -0.08131224
0000b0 3c e4 b5 bd da e3 29 3d a4 ff 0a be f6 f7 fe 3d
       -0.08881423 0.04147706 -0.13574082 0.124496385
0000c0 ad a0 0b be 25 62 ce bd f1 d2 32 bd d2 18 3d 3d
       -0.13635512 -0.10077313 -0.0436582 0.04616625
0000d0 2b 3f 0a 3d ab f2 7b be 37 8f 84 bd 99 5b 97 be
       0.033751648 -0.24604289 -0.064726286 -0.2956207
0000e0 fb 93 0a be a2 cb 21 be d2 28 0a 3e d7 fa 18 ba
       -0.13533013 -0.15800336 0.13492134 -0.0005835718
0000f0 2f 06 99 3e a3 a5 e3 bd fd e9 c1 3d 06 a2 1c be
       0.2988753 -0.11115577 0.09468458 -0.15296182
000100 df 57 19 ba 9a 41 d1 3d b7 ed 47 be 71 d3 73 be
       -0.00058495806 0.10217591 -0.19524275 -0.23811127
000110 1a df 0f be 8b 91 15 3c 4e c1 22 be 51 4e c5 be
       -0.1404995 0.009128938 -0.15894052 -0.38536313
000120 dd af 86 be 08 3e a8 3d a0 7f 64 be 99 f7 01 bd
       -0.26306048 0.082149565 -0.2231431 -0.03173027
000130 f9 9c 72 be 44 8b 97 3c 3a e8 02 bd 2e bb 96 bd
       -0.23692693 0.018499024 -0.03195975 -0.073599204
000140 f2 09 6f bc 29 e1 c1 bd de 42 e1 bc f9 f8 a2 3e
       -0.0145897735 -0.09466774 -0.027497705 0.31830576
000150 64 e5 71 bd 04 9a d9 3d 88 73 09 be 1b 32 16 bd
       -0.059056655 0.10625079 -0.13422978 -0.036668878
000160 20 ea fa 3d 13 69 12 bb 2a 2e 7d 3e 60 a8 79 bd
       0.12251687 -0.002234046 0.24724641 -0.06095159
000170 15 20 5a bd 43 4a ab be e2 4d 26 be 77 da 51 3d
       -0.053253252 -0.33455095 -0.16240647 0.051233735
000180 38 b7 fe bb 14 31 89 be e1 36 5d 3e 77 a2 0d 3e
       -0.007773306 -0.26795256 0.21602966 0.13831507
000190 c0 ae 4e 3e 78 dd af 3d 38 bc d0 bc be 52 27 be
       0.2018385 0.08587164 -0.025480375 -0.16340157
0001a0 4e fb ba be 4b 12 6e be 93 40 54 bc d2 27 bd be
       -0.36519855 -0.23249166 -0.012954849 -0.36944443
0001b0 43 4e 9b bd e8 2c 6e bd 90 c2 9d be 4a 74 04 3e
       -0.075832866 -0.058148295 -0.30812502 0.12934986
0001c0 5b 96 db bd 4b ec 86 3e e6 38 92 be 60 0b 16 bd
       -0.107220374 0.26352152 -0.28559035 -0.03663194
0001d0 7d c6 62 be 0c f8 26 bd a0 6b 9b be 80 58 ac 3d
       -0.2214603 -0.0407639 -0.3035555 0.084153175
0001e0 48 79 8d be 37 cf 2a bd 37 d8 94 3c 52 e7 5a be
       -0.27631593 -0.04170152 0.018169506 -0.21377304
0001f0 c0 7a e5 bd 4d e4 98 3d be c6 04 3d b7 53 75 3e
       -0.11205053 0.0746542 0.032416098 0.23957716

network_body._body_endoder.seq_layers.0.weight f4 [128, 12]
000000 72 c1 94 bd 54 75 7d 3d 36 dd 5d be 89 ac 42 3f
       -0.07263459 0.06187947 -0.21666417 0.7604452
000010 7a 29 f7 bb e5 45 53 3e 0e ba 82 bc f6 36 c3 bd
       -0.007542786 0.20632131 -0.015957858 -0.09531967
000020 ea 1f 86 bd 7d b7 c9 3d ba 26 1b bf fb cf 37 be
       -0.06549056 0.09849451 -0.6060597 -0.17950432
000030 06 82 18 bf 46 a4 f1 be ab 42 97 3e de 47 14 be
       -0.595734 -0.47195643 0.2954305 -0.1448054
000040 24 6f 88 3d 12 09 67 3e e6 07 3a be 8b a2 f2 be
       0.066618234 0.22562054 -0.18167076 -0.47389635
000050 d1 f9 71 bd aa 21 2b 3f 1c ca 61 bf 86 1f 2e be
       -0.059076134 0.6684824 -0.8819902 -0.17004213
000060 c5 cd fc bd 45 f9 84 3c 0c 45 bc 3e f7 15 99 be
       -0.12343935 0.016232142 0.3677143 -0.2989957
000070 ed 93 18 3f 5a 60 ca be 99 1d 03 3f 6b 34 af 3e
       0.59600717 -0.39526635 0.5121704 0.3421968
000080 cd 63 89 be 39 89 00 3e dc 55 4f 3e cb 64 bc bc
       -0.26833954 0.12552346 0.20247597 -0.02299728
000090 8a 7b 84 3e 42 2a b9 be a5 cc 93 be 76 d8 92 be
       0.25875503 -0.36165053 -0.2886707 -0.28680772
0000a0 1b c0 a5 bd a0 ea 4c 3b 65 a1 0f bf 76 5b 35 bc
       -0.08093282 0.0031267777 -0.56105644 -0.011069169
0000b0 48 45 c1 3d ad 2e 1f 3d 37 84 dc bd cb 45 04 bf
       0.094370425 0.038862873 -0.107674055 -0.51668996
0000c0 2a c4 c1 3e a8 17 50 be bc 04 e5 bd f2 f5 db be
       0.37844974 -0.20321524 -0.11182544 -0.4296108
0000d0 d9 07 0e be c4 52 d3 3e 78 9b 01 3e 1b 1c c7 be
       -0.13870181 0.41274083 0.12656963 -0.3888863
0000e0 b0 2e 1e be 58 1b 0e 3f cd fa 87 be a1 ac c8 bd
       -0.15447497 0.55510473 -0.26558533 -0.09798551
0000f0 50 14 c7 3c 54 9b b9 bd e1 60 cd be 4f b2 64 3e
       0.024301678 -0.090628296 -0.40112975 0.22333644
000100 30 44 1b be 52 15 06 3f 96 cf a5 3d ff da f7 3e
       -0.1516273 0.5237628 0.080962345 0.48409268
000110 30 c9 26 be 3b 00 10 be a4 b3 b1 bc 2b 7a 93 bf
       -0.16287684 -0.14062588 -0.021692105 -1.1521658
000120 ba 54 38 3e 3a 92 a8 be 7d 7b 93 3e 69 c8 88 be
       0.1800107 -0.32924062 0.28805152 -0.267154
000130 0c ee e9 3c 8a aa 77 be 6b c0 17 bc 01 aa 0f be
       0.028555892 -0.24186149 -0.009262185 -0.14029695
000140 18 4a ad 3d cc 22 72 3e b3 f8 82 bd 75 e9 2c bf
       0.08461398 0.23646086 -0.06395092 -0.6754373
000150 9f 3d 74 3e a0 b9 e7 be f6 bc 35 be 3c e9 eb bd
       0.23851632 -0.45258808 -0.17747864 -0.11519095
000160 56 a8 ed be c7 e8 95 be 55 68 88 3d 50 e4 73 3d
       -0.46417493 -0.29279158 0.06660525 0.059543908
000170 9a 4e 99 3e c4 40 56 be 31 4f f8 be b2 fa ce bd
       0.2994278 -0.20923144 -0.48497918 -0.1010641
000180 fc 50 86 3e 3a 90 3f 3e a4 af 08 3e ca 98 4f bc
       0.2623366 0.18707362 0.13348252 -0.012670705
000190 b0 7a 9a be ca e2 36 3e 8c f9 3d be 3c 70 59 bc
       -0.30171728 0.1785995 -0.18552226 -0.013271388
0001a0 76 e1 7b 3e e7 89 2d be 12 7d 21 be 1d 87 13 bf
       0.24597725 -0.16947137 -0.15770367 -0.5762804
0001b0 56 5e 06 be 2a 1a 7d be 0e 4c 83 be 43 68 41 3e
       -0.13121924 -0.24717012 -0.25643963 0.18887429
0001c0 eb ea d3 bd 08 64 e3 3e b2 75 2f 3d 17 1c b7 3e
       -0.103475414 0.44412255 0.042836852 0.35763618
0001d0 56 0a ec 3d 81 39 83 be 64 7b bd 3b 1c e0 21 3e
       0.11525409 -0.2562981 0.0057825316 0.15808147
0001e0 f5 47 f6 3e 7f 1b 03 be 6f 81 15 3f fd 93 d3 3c
       0.48101774 -0.12803458 0.58400625 0.025827402
0001f0 7d 95 d3 bd 1b 32 65 3e cc 81 98 be e9 aa 86 3e
       -0.10331247 0.22382395 -0.29786527 0.2630227
000200 2d 26 8b bb 19 dd 13 3f 0c 7f bf be 79 e6 e1 be
       -0.0042464943 0.57759243 -0.37401617 -0.4412115
000210 b7 b8 21 bd de 11 40 bf 1b e0 4a 3e 3f 46 63 be
       -0.0394828 -0.75027263 0.19812052 -0.22194766
000220 c2 e4 b6 3e ae 19 fd 3d 36 14 fc 3d 4f ad 0a 3e
       0.35721403 0.12358414 0.123085424 0.13542674
000230 f4 0d 31 be 86 e6 45 bd ce 81 bb be 23 6f 0e be
       -0.17290479 -0.048315547 -0.3662247 -0.13909583
000240 9b d2 7a be e3 cc 50 be 77 ed 17 3e e8 af e7 be
       -0.24494402 -0.20390658 0.1483668 -0.45251393
000250 ab fd 1c be d3 9c 0a be e9 de fb 3e ba 25 28 3e
       -0.15331142 -0.13536386 0.49193504 0.16420642
000260 3f f8 63 be 75 f9 f8 3e 86 2c c3 bd 8e 03 35 3e
       -0.22262667 0.4862782 -0.095299765 0.17677137
000270 3a 62 a1 3e fe 8f a8 be b7 52 3c 3e 18 b4 f4 be
       0.31520253 -0.32922357 0.18390928 -0.4779365
000280 d1 26 8d be a2 38 86 be bc 70 db 3e 3c d7 67 3e
       -0.27568677 -0.26215082 0.42859447 0.22640699
000290 5b 57 a2 3c 04 bf 12 be 95 5b ef 3d 94 4e 91 bd
       0.019817045 -0.14330679 0.1168739 -0.07095066
0002a0 89 ac 8f 3e 12 a8 92 3d 4f 4d 99 3e 9a 62 80 be
       0.2806132 0.07160963 0.29941794 -0.25075227
0002b0 fd 3e 32 3e a3 4e 7a bc 96 7f f1 be ad 79 61 3e
       0.1740684 -0.0152775375 -0.47167653 0.22019072
0002c0 68 9d 09 bf cb 5e 05 bf 49 e6 4c bd 15 16 40 be
       -0.5375581 -0.5209777 -0.050024305 -0.18758424
0002d0 12 bc 5f 3b 23 54 16 bf 24 a9 9d be 50 50 d7 bd
       0.0034139198 -0.5872213 -0.30793107 -0.10513365
0002e0 d8 5c 97 bd 4c c6 a2 be db 0b a0 3e 60 ed c2 3d
       -0.073907554 -0.31791914 0.31259045 0.09517932
0002f0 5f bd 07 bf 4e 59 d7 3d 7b 7e 34 bd 4c 98 4a be
       -0.5302333 0.105150804 -0.044065934 -0.19784659
000300 11 83 d4 3d aa 5c a4 3d 8b 70 02 3f 42 6b 78 bd
       0.103765614 0.08025487 0.50952977 -0.060649164
000310 30 43 8f be c6 7f d3 be b2 e6 28 3d 54 b8 ff be
       -0.27980947 -0.4130842 0.041235633 -0.4994532
000320 96 6e 29 be 6e d6 31 be 95 e1 c6 be 11 6b 75 be
       -0.16546091 -0.17366955 -0.3884398 -0.23966624
000330 bb 70 40 be c9 a4 d7 bd fd 72 53 3d f9 e1 52 3d
       -0.18793003 -0.10529477 0.051623333 0.051485036
000340 a4 15 20 bd 9d 91 84 3e b1 8f c9 be 46 97 76 bc
       -0.039083138 0.25892344 -0.3936744 -0.015050715
000350 13 76 94 bd 32 ff 1a bd fa 0f 32 3e b7 ab f8 be
       -0.07249083 -0.03784103 0.17388907 -0.48568508
000360 cd a0 47 be 8f a0 b6 bd 3e ed 53 be c3 20 9e 3c
       -0.19494934 -0.08917343 -0.2069597 0.019302731
000370 37 fc 88 be 71 9f f2 bc bf 92 36 3e 17 11 bb 3e
       -0.26754925 -0.029617043 0.17829417 0.36536476
000380 2e 7f 91 be 61 1a 0d bc e2 02 9b bd 02 94 b6 bc
       -0.28417343 -0.008612246 -0.07568909 -0.022287372
000390 83 a6 e0 be 34 73 c0 be 30 c5 30 be cc d0 16 3d
       -0.43877038 -0.37587893 -0.17262721 0.036820218
0003a0 20 9f e4 be e1 e4 0f bd 97 e1 4e 3e 29 3a 26 3e
       -0.44652653 -0.035130385 0.20203243 0.16233124
0003b0 53 fb 81 ba 6d ae e8 3e ee fd d5 bd a1 36 9e bd
       -0.0009916819 0.45445576 -0.10448824 -0.077252634
0003c0 d5 c0 1b be 4f 40 a1 3e 33 ce 29 be 68 9a 7d be
       -0.15210278 0.31494376 -0.16582565 -0.24765933
0003d0 12 2a 18 3d 1e 39 d7 3e 8b e0 b9 bd 9e 72 59 be
       0.037149496 0.42035764 -0.09076031 -0.21235129
0003e0 8c 25 90 bd f4 fa 9f 3d 56 b6 3f 3e d2 53 7e 3e
       -0.070384115 0.078115374 0.187219 0.24836662
0003f0 68 7c 71 be df e1 c6 be 66 50 10 3d 0f c6 cb be
       -0.23582613 -0.388442 0.035232924 -0.39799544

network_body._body_endoder.seq_layers.2.bias f4 [128]
000000 44 07 c1 bd 80 85 a3 bc 96 d7 a4 bd 48 c2 ac bd
       -0.09425214 -0.019961119 -0.08048932 -0.08435494
000010 bf 48 ff bd 11 df 84 bd 9e 77 7c bd 69 ae 9f bd
       -0.12465047 -0.06487859 -0.061637513 -0.07796938
000020 3f 01 08 be 28 a2 8b bc fd 4a 16 be 08 0c f6 bc
       -0.13281725 -0.017045096 -0.14677043 -0.030035034
000030 4a b2 b7 bd 21 dc e3 3d 90 8f c0 bd 6e 6b 2f be
       -0.08969553 0.11125971 -0.094023824 -0.17130825
000040 78 12 23 bd 54 61 cf bd 35 e6 0f be 02 7a 03 be
       -0.039812535 -0.10125986 -0.14052661 -0.12839511
000050 a4 5a 05 be 06 9b ed bd 3b 78 2a bd 8b 2f a7 bd
       -0.13022858 -0.11601834 -0.041618567 -0.08163365
000060 47 d4 ac bd 3d a2 5a bd 70 8a 16 be c3 7d ad bd
       -0.08438926 -0.05337738 -0.14701247 -0.08471253
000070 ea 1b db bd 7b b2 72 bd 7b cc 96 bd 5f f8 31 bd
       -0.106986836 -0.059252243 -0.0736322 -0.043449756
000080 a0 d8 e2 bd eb 88 76 bd df b7 be bd d2 55 cd bc
       -0.11076474 -0.06018917 -0.093124144 -0.025065336
000090 58 37 f3 bc e3 45 de bd 99 62 00 3c 75 1c 61 bd
       -0.029689476 -0.108531736 0.0078360075 -0.05495878
0000a0 88 7c 83 3e ca e4 c1 bc b9 43 26 be 5e f4 eb bc
       0.25680947 -0.023668665 -0.16236772 -0.028803047
0000b0 c9 f0 35 be 4c f7 df bd a8 33 0b be 72 3d 08 bd
       -0.17767633 -0.1093584 -0.13593924 -0.033261724
0000c0 d1 3c 96 bd ac 4b 06 3d b1 7c a0 bd 53 0a 73 bd
       -0.073358186 0.03278701 -0.07836283 -0.059336018
0000d0 91 49 f0 3b c0 15 0e 3d ab 8c 3b bd 1f 2f 46 bd
       0.0073329885 0.03468871 -0.04578845 -0.048384782
0000e0 36 78 4c be 11 64 f0 bd c8 7f bb bd c9 a0 03 be
       -0.19967732 -0.11737836 -0.09155232 -0.12854303
0000f0 18 a3 cc bd ee c8 d2 bd 94 8c 08 be b2 fa d8 bd
       -0.09992045 -0.102922305 -0.13334876 -0.10594691
000100 5e e5 1f be 82 b3 0a 3e 07 61 e0 3c 25 54 07 be
       -0.1561484 0.1354504 0.027390016 -0.13215692
000110 b5 49 2e be 8e f8 9c bd 64 93 83 bd 92 57 0f bb
       -0.17020305 -0.076645955 -0.06424597 -0.0021872264
000120 ec 5b 88 3c 53 58 27 bc 94 10 14 bd 40 df 69 bd
       0.016645394 -0.010213929 -0.036148623 -0.057097673
000130 7c 1d 6f bd 55 f4 a3 bc 3d 01 9a bd e1 35 07 be
       -0.058377728 -0.020013968 -0.075197674 -0.13204147
000140 c2 b6 83 bd 2d 23 65 be 23 5c b5 bd 64 06 d7 bd
       -0.06431343 -0.223767 -0.08855464 -0.10499266
000150 5c 35 23 bc 5e d5 be bd ea 88 11 be f3 41 07 bd
       -0.009961452 -0.0931804 -0.14212385 -0.03302188
000160 a2 dc 12 be d8 54 00 be ea 0f 09 be e9 51 3b bd
       -0.14341977 -0.12532365 -0.13384977 -0.045732412
000170 85 3a 21 be 38 4f fe 3c 19 c8 83 bd db e8 73 bd
       -0.1574498 0.031043634 -0.0643465 -0.05954824
000180 f9 d7 2c 3d 6c 77 c0 bc 39 6f cf 3c 81 c1 e2 bd
       0.042198155 -0.023494445 0.02532159 -0.11072064
000190 b3 ba 8a bd 6b 0d d1 bd 13 9c be bc 33 0f 1e bd
       -0.06773891 -0.102076374 -0.023267781 -0.038588714
0001a0 85 5c a4 bd 62 c4 f4 bd 95 40 96 bd 6a fd be bd
       -0.08025459 -0.119515195 -0.07336537 -0.09325679
0001b0 ec 00 c1 bd 8e 35 96 bc 4b 91 45 bd 98 0b 92 3e
       -0.09424004 -0.018336084 -0.048234265 0.2852447
0001c0 ea f7 08 be ca 82 ea bc 1a ef 1a 3c f1 fe f4 3c
       -0.13375822 -0.028626818 0.00945642 0.029906722
0001d0 ef d3 dd bc 20 0c ae 3b 42 54 77 bd 8e ec 21 be
       -0.027078597 0.005311504 -0.06038309 -0.15812895
0001e0 1b 10 48 bb 4e 96 4b bd 3f b8 e2 bd 81 4f 0b be
       -0.0030527178 -0.04970389 -0.110702984 -0.13604547
0001f0 f9 9b 87 bd 77 31 f6 bc dc fc 19 bd c2 6e 1e b9
       -0.06621546 -0.030052884 -0.03759466 -0.00015109315

network_body._body_endoder.seq_layers.2.weight f4 [128, 128]
000000 6b a8 57 bd 74 45 1b 3e 15 3a 14 be 06 1b cb bc
       -0.05265085 0.15163213 -0.14475282 -0.02479316
000010 2b df de bd 14 d0 21 3d f5 ed 58 be 64 4b ca 3d
       -0.1088241 0.03950508 -0.21184523 0.09877661
000020 3f df d8 3d 55 67 82 be d9 1b 32 3d 1f 62 26 3d
       0.10589456 -0.2546946 0.04348359 0.04062092
000030 d3 91 c5 bb 81 51 d8 bd b2 7d a5 3d 65 78 95 bd
       -0.0060293465 -0.10562421 0.08080615 -0.07298354
000040 1b 99 ef bd c6 8f 99 3c 66 67 87 3c ed c5 c0 bd
       -0.116991244 0.018745314 0.016528796 -0.09412751
000050 37 0f 11 be fb 54 91 bd 80 5d ef bb 59 66 12 ba
       -0.1416596 -0.07096287 -0.0073048472 -0.0005584709
000060 5b cf 01 be 2d 4a 86 bd 77 22 74 3d c2 a3 7b 3d
       -0.12676756 -0.06557117 0.05960318 0.06143547
000070 11 b2 3d 3d 6f 0c 1b 3e d4 17 42 bd a3 3a 52 3d
       0.046312395 0.15141462 -0.047386006 0.05132545
000080 a8 03 12 be 7e 16 24 bd 74 5b 6f 3c e1 3c 28 3e
       -0.14259207 -0.040060513 0.0146092065 0.16429473
000090 41 65 07 3e 05 b4 6c 3c 43 e7 5f 3c 6e a4 2c 3e
       0.13222219 0.014447217 0.013665977 0.168596
0000a0 68 6c d8 bd 44 f9 31 bd 72 63 01 be 83 c5 38 be
       -0.10567552 -0.04345061 -0.12635592 -0.18044095
0000b0 3e 82 39 be 09 7d 38 be 0e 20 e9 bd da 19 0c be
       -0.1811609 -0.18016447 -0.11383067 -0.13681737
0000c0 35 e5 7a 3d 98 e0 05 3e 4c bf 00 bd 4b dd 47 3e
       0.061253745 0.13073957 -0.031432435 0.1951801
0000d0 99 04 f4 bd e4 56 b4 bb bd c7 a6 3d e9 15 ea 3c
       -0.119149394 -0.005503522 0.08143566 0.0285749
0000e0 e6 2d ef bc 2c 4c 0a be b3 b0 22 be 19 96 9c 3d
       -0.02919669 -0.1350562 -0.15887718 0.07645816
0000f0 85 4e 39 be 35 eb 2c bd 01 f9 ec 3c 95 3d c5 3c
       -0.18096359 -0.0422165 0.028927328 0.024077216
000100 e4 64 4d be 9b 56 d8 bd 45 55 6a 3d 20 24 3d 3e
       -0.20058018 -0.10563394 0.057210226 0.18470812
000110 48 1f 9a 3d 39 7e 25 bd d7 cb 8a 3d e9 19 ab 3b
       0.07525498 -0.04040358 0.067771606 0.0052215946
000120 01 0e ec 3d 72 76 aa be 69 af 65 bc 49 26 96 bd
       0.115261085 -0.33293492 -0.014018872 -0.07331521
000130 52 0d ef bd 1e fa 93 be 14 d5 b0 bd 91 ef 9f 3d
       -0.116724625 -0.28901762 -0.086343914 0.078093655
000140 9c 19 d2 3d 54 a4 22 be 93 fc bc 3b c1 da 76 bd
       0.10258791 -0.15882999 0.005767414 -0.060267214
000150 d4 7a 82 3d bc b8 26 3e 34 99 fd bc ac 8f ac 3d
       0.06371084 0.16281408 -0.030956842 0.08425841
000160 d2 ed 88 be 7e cb 2e 3c a0 bc 82 be f7 b0 d0 3c
       -0.26743942 0.0106686335 -0.25534534 0.025475008
000170 60 16 b9 bd 1b eb 04 3d 36 3c 24 3e b0 3a ae bd
       -0.09037471 0.032450777 0.16038594 -0.085072875
000180 12 34 b1 39 44 aa d1 bd e8 a8 8d 3d 88 22 ce bd
       0.00033798866 -0.10237554 0.06916982 -0.1006518
000190 c3 40 98 be 93 98 36 be bd 12 90 3d 40 3f ba bb
       -0.2973691 -0.1783164 0.07034824 -0.0056838095
0001a0 70 90 e6 bd 8a 0f 13 be fb 64 0c 3c 46 c9 ca bc
       -0.11258018 -0.14361396 0.0085689975 -0.024754178
0001b0 da bf e2 bc 5c bc c1 bc 85 ed 3f be 7c 76 28 3d
       -0.027679373 -0.023649387 -0.1874295 0.04112862
0001c0 c1 6d d5 bd f3 45 f3 bd c7 9c ea 3d c9 08 b1 bc
       -0.104213245 -0.11878576 0.11455684 -0.021610634
0001d0 75 b0 45 3d b7 58 65 be d1 78 a7 3d 94 91 7d bd
       0.048263986 -0.22397123 0.08177341 -0.061906412
0001e0 f9 ed cc bd 44 f1 51 bd 97 b8 f2 3b 30 99 96 3c
       -0.10006327 -0.05125548 0.0074072587 0.018383592
0001f0 e0 a4 13 3d 65 6f 6e bd 68 b2 ee bc 88 f3 9b bd
       0.03604591 -0.058211703 -0.029137805 -0.07614809
000200 3f c0 06 be 55 42 02 be 9b 9a c4 be 6c ba 54 be
       -0.13159274 -0.12720616 -0.38399205 -0.2077424
000210 c7 6e 03 be 8c 80 a7 be a3 25 c9 bd 1e 59 7c be
       -0.12835227 -0.3271526 -0.09821632 -0.2464337
000220 fd c3 96 3d 1e 96 5a be 19 74 e4 bd d7 e9 e7 3d
       0.073616005 -0.21346328 -0.11154956 0.11323898
000230 41 0f 8c be b3 49 e6 3d e2 1f d0 bd 46 3d 4d bd
       -0.27355388 0.11244526 -0.10162331 -0.050107263
000240 fe 7d 0c be 49 72 c8 b9 84 e0 e6 bc 5c 1b 1d be
       -0.13719937 -0.00038232122 -0.02818323 -0.15342468
000250 81 a0 59 be fc c8 6a bd 8e ec 01 be e1 b1 f3 bd
       -0.21252634 -0.05732058 -0.12687895 -0.11899162
000260 5f 7e 21 3c 12 4c 09 3e 37 7e e9 3c aa 87 33 3e
       0.009856789 0.13407925 0.028502567 0.1753222
000270 08 e4 23 3d 0c ff 0b bd c8 c6 53 be e1 d0 a3 3d
       0.04001239 -0.03417878 -0.20681298 0.07998825
000280 4a b5 6e 3e 23 4c 6c be 51 e2 9d bd b1 16 83 be
       0.23311344 -0.23075919 -0.07709182 -0.2560325
000290 c5 12 1d be 02 72 20 3c 9c 14 5c 3d d8 96 98 3d
       -0.15339191 0.009792807 0.053730592 0.07450646
0002a0 90 12 96 be db 5a 7f bd 19 98 d1 3d c3 ee 1d bd
       -0.29311037 -0.062342506 0.102340885 -0.03855778
0002b0 9d 7a b4 bd 0c be ca bd 1f 56 94 bd bd 6d 23 3e
       -0.08812449 -0.0989953 -0.07242989 0.1595983
0002c0 26 c8 19 3d 59 94 8b be 1d 84 01 3e a5 90 d3 3d
       0.037544392 -0.27261618 0.12648053 0.10330323
0002d0 d7 22 43 be bb 39 8a bd 90 99 da be 84 c9 1f be
       -0.19056259 -0.067492925 -0.42695284 -0.15604216
0002e0 04 33 87 be 79 26 c0 bc 1e 99 1b be 87 74 ab 3d
       -0.2640611 -0.023455845 -0.15195128 0.08371835
0002f0 8a da 32 be 54 d8 8f 3d 92 bd bc bc 85 a0 96 be
       -0.17466179 0.07023683 -0.023039613 -0.29419342
000300 24 dc 7f be 32 ab 17 3e d6 f6 84 be 87 28 6e bd
       -0.2498632 0.148114 -0.2596957 -0.05814412
000310 c0 4a 57 bd fb e1 0c 3d 9a 20 a8 be 75 f7 71 3d
       -0.05256152 0.0343952 -0.32837373 0.059073884
000320 f1 45 ce bd d9 b8 dc bd 29 7a c9 bd 15 3a 4e be
       -0.10071934 -0.107774444 -0.09837753 -0.20139344
000330 c4 0c c8 3d fb 6d 06 3e ba 54 b1 3d e6 e8 e7 bd
       0.0976806 0.13127892 0.086587384 -0.11323719
000340 73 76 3b 3e c9 6d 58 bc cb 00 9b 3c 62 30 a9 bb
       0.18306904 -0.013209769 0.018921277 -0.0051632384
000350 75 19 0a bd 11 72 0d 3c 5e 2f 37 be 55 59 ad 3e
       -0.033715684 0.008633153 -0.17889163 0.33857217
000360 47 45 5a bd ac 39 0f be 45 ec 5b be 00 b6 b2 bd
       -0.053288724 -0.13986844 -0.21476848 -0.0872612
000370 ae 55 92 bd d8 08 a6 ba 26 c7 ea bd 0f cb d7 be
       -0.07145248 -0.001266743 -0.11463766 -0.4214711
000380 3b 55 4b bd 65 72 93 bb 6a af 89 ba 39 82 3a be
       -0.04964183 -0.004499721 -0.0010504548 -0.18213739
000390 13 af 17 be 79 b6 41 be 49 5c e4 bc 2b 9f af bd
       -0.1481288 -0.18917264 -0.027876036 -0.08575281
0003a0 ed 26 9a bb e3 ce d1 bb 0f e7 6a be 6a 5d 3a be
       -0.0047043473 -0.0064028366 -0.22939704 -0.18199697
0003b0 f7 3c 1e be 15 c0 a6 3d 34 a4 95 3c b2 46 cd 3d
       -0.15452944 0.081421055 0.018266775 0.1002325
0003c0 89 98 5a bc 28 cb 04 3d 76 df 25 ba 0b df 02 be
       -0.013342031 0.032420307 -0.0006327549 -0.12780397
0003d0 73 de 7b be 55 31 24 bd a7 e4 c6 3b f7 8b 2c be
       -0.24596576 -0.04008611 0.006069738 -0.16850267
0003e0 22 81 17 be a7 14 81 3d b1 1e 01 be ca e2 77 3e
       -0.14795354 0.06302767 -0.12609364 0.24207607
0003f0 58 76 fa 3d a6 12 16 3c ac d2 da bc a7 b4 36 3c
       0.122296035 0.00915972 -0.026711784 0.011151469
