Project/Assets/ML-Agents/Examples/SlideMan/SlideMan.onnx (onnx, 75711 bytes, 7 tensors)

action_model._continuous_distribution.log_sigma f4 [1, 2]
-0.22260873 -0.3694836
00000000: 8bf3 63be f42c bdbe

action_model._continuous_distribution.mu.bias f4 [2]
0.08852392 0.06531178
00000000: 074c b53d 2fc2 853d

action_model._continuous_distribution.mu.weight f4 [2, 128]
0.0070141964 -0.023925714 -0.059435803 -0.013636434 -0.030737374 0.023503544 0.020501168 -0.042345196
-0.011973793 0.04656777 0.0064166435 -0.045784026 -0.025404837 0.006702293 -0.024565691 -0.013552251
0.017033108 -0.021679642 -0.013880064 0.03917767 0.041763272 -0.031745978 0.0010812103 -0.009665476
-0.008801991 0.006229503 -0.050312042 0.08487294 -0.014367196 -0.03645459 -0.045372996 0.032826357
-0.02609043 -0.01613162 -0.028274788 -0.060193926 -0.022452427 0.04893039 -0.0077125425 -0.0039617545
-0.0013160713 -0.023502333 -0.03911592 -0.003274949 -0.024036618 -0.06191187 -0.0011388157 0.00030591933
-0.057419255 -0.017228559 -0.014530284 0.028882839 -0.014285978 -0.014025114 -0.06110342 0.00091613055
-0.023823785 0.032058973 0.0058026575 -0.0060535306 -0.0013646758 -0.02252792 -0.06360288 -0.0048685926
-0.005355413 -0.10419764 0.048182555 -0.033873614 -0.046698637 -0.050164793 -0.04223961 -0.005951045
-0.0069286944 -0.0008292335 -0.02633532 0.011106061 -0.008756093 -0.0017168955 0.003209545 0.077779256
-0.034148373 -0.0061980137 -0.012863106 -0.014249693 0.024591494 -0.062299836 0.010972401 -0.017507676
-0.005955631 -0.05923686 -0.0022488928 0.043452356 0.0018842492 -0.008189371 0.0054563116 -0.035157103
-0.019983118 0.06932765 0.0059086564 -0.035818174 -0.017201187 -0.09265135 -0.01789279 -0.026809428
-0.036871523 -0.0018079643 0.024982035 -0.027276007 -0.028544903 -0.034123886 0.056594543 -0.022649588
-0.023408152 -0.021020152 -0.002221047 -0.0043609617 -0.01826017 0.061725743 -0.106653735 -0.08508847
-0.00589397 -0.029897846 0.049403366 -0.03175103 -0.0006094109 -0.005151258 -0.014934041 -0.011660637
-0.019366404 0.042784568 -0.01607701 0.04778827 -0.020025382 0.038593527 0.014125113 -0.021177843
-0.008767843 -0.03599427 0.03571317 0.037990447 -0.040838543 0.03876144 -0.056012284 0.022422615
-0.026047492 0.029163137 0.060654946 0.019545518 0.06353276 0.02054733 -0.053773366 -0.0072551174
0.034056943 0.052958712 0.03656502 0.008777382 0.03359141 0.010939253 0.04247914 -0.005366646
-0.040286377 0.037342444 -0.0017807801 0.04633855 0.073247485 -0.0020823553 -0.006959416 -0.022508182
0.09005044 0.032867346 -0.026475836 -0.0033875832 -0.026596958 0.07843056 0.006471349 -0.04525686
-0.015210497 0.035703108 -0.008256491 0.030966653 0.042106934 0.0380294 0.07043038 -0.0061368523
-0.01706248 0.037057776 -0.11193445 0.015736 -0.024543365 0.0069283606 0.033503078 0.012914096
-0.0046030977 -0.006382875 0.010783432 0.051573254 0.031941373 0.041526098 0.00836586 0.043723095
-0.003862536 -0.02578534 0.009941917 0.06050203 -0.00964334 0.06283949 0.0578647 -0.030219138
0.066238336 0.072253026 -0.0037549029 0.07654629 0.052002694 -0.014086889 0.019616494 -0.008409917
0.013692532 -0.049564827 0.024436483 -0.068058915 -0.000949952 -0.059649695 -0.011889355 0.06905815
0.013461561 0.027161093 -0.053866446 0.018703697 0.031675123 0.061589465 0.017750213 0.0155823035
-0.012310834 -0.014453595 -0.027513849 -0.019758038 0.076765105 0.02396315 0.003114595 0.08275861
-0.042069837 -0.019540852 -0.02897162 -0.008351488 0.08930607 0.049643338 0.017938655 -0.016282061
0.00014921676 0.018473603 0.02842484 -0.069915526 0.012789672 0.00035624873 -0.0058029667 -0.009578206
00000000: 58d7 e53b dcff c3bc f572 73bd 5a6b 5fbc
00000010: f2cc fbbc 818a c03c 11f2 a73c 2872 2dbd
00000020: ba2d 44bc d9bd 3e3d b542 d23b 0888 3bbd
00000030: ce1d d0bc e99e db3b fd3d c9bc 430a 5ebc
00000040: 0489 8b3c 8199 b1bc 3569 63bc c478 203d
00000050: f70f 2b3d 1208 02bd 66b7 8d3a f25b 1ebc
00000060: 3a36 10bc dc20 cc3b 0014 4ebd ddd1 ad3d
00000070: 6364 6bbc 6851 15bd 09d9 39bd ee74 063d
00000080: 99bb d5bc 7626 84bc 87a0 e7bc e88d 76bd
00000090: 27ee b7bc 3c6b 483d 7fb9 fcbb 9bd1 81bb
000000a0: 0680 acba f787 c0bc 0438 20bd 87a0 56bb
000000b0: 71e8 c4bc 4d97 7dbd 5044 95ba cc63 a039
000000c0: 7430 6bbd e822 8dbc 6e10 6ebc b49b ec3c
000000d0: bc0f 6abc 97c9 65bc 9447 7abd 7b28 703a
000000e0: 192a c3bc 4550 033d 3824 be3b b25c c6bb
000000f0: ecde b2ba 798c b8bc 3a42 82bd b788 9fbb
00000100: 767c afbb 9365 d5bd 125b 453d 0fbf 0abd
00000110: 1247 3fbd 9979 4dbd 7103 2dbd fc00 c3bb
00000120: 1a0a e3bb eb60 59ba 2bbd d7bc 32f6 353c
00000130: b775 0fbc 7409 e1ba 3b57 523b bb4a 9f3d
00000140: 2adf 0bbd b518 cbbb c7bf 52bc 8b77 69bc
00000150: 1a74 c93c 1d2e 7fbd 96c5 333c 426c 8fbc
00000160: 7427 c3bb 5aa2 72bd 2962 13bb 19fb 313d
00000170: e9f8 f63a b62c 06bc dcca b23b e500 10bd
00000180: a3b3 a3bc a8fb 8d3d 679d c13b 14b6 12bd
00000190: 81e9 8cbc febf bdbd e693 92bc 729f dbbc
000001a0: 9806 17bd 37f9 ecba 20a7 cc3c ef71 dfbc
000001b0: 00d7 e9bc 7dc5 0bbd aecf 673d a18b b9bc
000001c0: 74c2 bfbc 7432 acbc fc8e 11bb 66e6 8ebb
000001d0: 5a96 95bc 22d4 7c3d 466d dabd dd42 aebd
000001e0: 3422 c1bb 54ec f4bc 2f5b 4a3d 5e0d 02bd
000001f0: e0c0 1fba e2cb a8bb e8ad 74bc 420c 3fbc
00000200: 4ba6 9ebc df3e 2f3d efb3 83bc a2bd 433d
00000210: 450c a4bc 3f14 1e3d 056d 673c 287d adbc
00000220: 00a7 0fbc ba6e 13bd f947 123d df9b 1b3d
00000230: 5146 27bd 51c4 1e3d 236d 65bd a2af b73c
00000240: 8d61 d5bc 88e7 ee3c 5271 783d ec1d a03c
00000250: 771d 823d e052 a83c 7641 5cbd 56bc edbb
00000260: 4b7f 0b3d 3ceb 583d 34c5 153d 02cf 0f3c
00000270: 2597 093d 8d3a 333c 9bfe 2d3d b1da afbb
00000280: 5403 25bd 64f4 183d 1169 e9ba 7ecd 3d3d
00000290: c702 963d 2078 08bb d00b e4bb 1463 b8bc
000002a0: 5d6c b83d e99f 063d dae3 d8bc 3702 5ebb
000002b0: dde1 d9bc 34a0 a03d 9c0d d43b 425f 39bd
000002c0: 7335 79bc 6c3d 123d 3c46 07bc c7ad fd3c
000002d0: 5278 2c3d b7c4 1b3d ce3d 903d a617 c9bb
000002e0: 9dc6 8bbc e5c9 173d e43d e5bd c9e8 803c
000002f0: 2b0f c9bc 4d07 e33b 863a 093d a595 533c
00000300: 95d5 96bb 7027 d1bb feac 303c 7a3e 533d
00000310: f5d4 023d 4517 2a3d f610 093c fd16 333d
00000320: 9a22 7dbb c73b d3bc 6ce3 223c fad0 773d
00000330: 19ff 1dbc feb1 803d 8903 6d3d 208e f7bc
00000340: f7a7 873d 65f9 933d d114 76bb 4dc4 9c3d
00000350: c700 553d b2cc 66bc c5b2 a03c c0c9 09bc
00000360: a456 603c 7d04 4bbd 052f c83c 7962 8bbd
00000370: 3306 79ba 3d53 74bd 92cb 42bc 5c6e 8d3d
00000380: e18d 5c3c f180 de3c 10a3 5cbd 7f38 993c
00000390: c6bd 013d 3c45 7c3d e568 913c eb4c 7f3c
000003a0: 61b3 49bc c5ce 6cbc b964 e1bc 9cdb a1bc
000003b0: 0637 9d3d 5e4e c43c 3c1e 4c3b 597d a93d
000003c0: 6c51 2cbd 2314 a0bc e455 edbc aed4 08bc
000003d0: 1ae6 b63d d056 4b3d 16f4 923c f561 85bc
000003e0: 1277 1c39 f455 973c 36db e83c df2f 8fbd
000003f0: c68b 513c e5c6 ba39 d026 bebb e8ed 1cbc

network_body._body_endoder.seq_layers.0.bias f4 [128]
-0.07292467 0.02901971 -0.04961638 0.038799547 -0.03609611 -0.014747509 -0.026423402 0.12164288
-0.019212136 -0.0852753 -0.11579346 -0.085342705 -0.013223097 -0.062192444 0.04193163 0.04257356
-0.0010073014 -0.042567413 -0.017628288 0.059040625 0.021123841 -0.004594903 -0.08991528 -0.08782486
0.050214443 -0.051792335 -0.121632956 -0.09045639 -0.12884976 0.0034277148 -0.044412006 0.0048879627
-0.07715608 -0.00023880728 -0.027497211 -0.03514358 -0.081842326 -0.017186379 -0.07300493 -0.09096718
-0.11741268 -0.054716952 -0.024682568 -0.12483359 -0.066213205 0.08364271 0.035870202 -0.04148169
-0.12813313 -0.10289308 -0.0689503 -0.017178906 -0.020168798 -0.11966584 -0.16977815 0.05986665
-0.09679883 0.014418316 -0.054150835 0.00554193 -0.14307722 -0.06205819 -0.029689508 0.034197673
-0.04778474 0.0048499363 -0.05253616 -0.12630595 -0.008207096 0.025750969 0.055745102 -0.02489359
-0.052441716 -0.20438275 0.109601215 -0.11611894 0.041118007 -0.05228658 0.086325966 -0.06857863
-0.07399807 0.06566285 -0.055477332 -0.05278497 -0.00085115246 -0.014994711 -0.0071944636 -0.113533966
0.026700977 0.03356386 -0.12034886 -0.10868804 -0.009922293 -0.1327942 -0.08856019 0.1010637
-0.0681595 0.03658901 -0.077588126 0.037408993 -0.015306027 0.004203628 -0.099110276 0.05547485
-0.020620937 -0.15645556 -0.06604172 -0.028255567 -0.02382549 -0.09787404 -0.01928408 0.091516666
0.007544332 -0.08007475 -0.0448402 0.13899732 0.028364183 0.002674465 0.124548584 0.026879719
0.02040275 -0.015176007 -0.0076677417 -0.014203747 0.04747921 -0.077991456 -0.0376475 -0.031125067
00000000: 8859 95bd beba ed3c 8c3a 4bbd 46ec 1e3d
00000010: 84d9 13bd 899f 71bc e475 d8bc e71f f93d
00000020: c562 9dbc d1a4 aebd 1f25 edbd 28c8 aebd
00000030: b0a5 58bc 81bd 7ebd 80c0 2b3d 9d61 2e3d
00000040: 6d07 84ba 2b5b 2ebd 3369 90bc 95d4 713d
00000050: e80b ad3c d790 96bb 8125 b8bd 85dd b3bd
00000060: a9ad 4d3d 3324 54bd b31a f9bd 3341 b9bd
00000070: 31f1 03be 83a3 603b 5de9 35bd 342b a03b
00000080: 0204 9ebd 5768 7ab9 d541 e1bc b7f2 0fbd
00000090: f39c a7bd 73ca 8cbc 9c83 95bd 004d babd
000000a0: 0f76 f0bd e21e 60bd 1933 cabc c1a8 ffbd
000000b0: ca9a 87bd de4c ab3d a2ec 123d b4e8 29bd
000000c0: 5535 03be 9bb9 d2bd d135 8dbd c7ba 8cbc
000000d0: 0939 a5bc 5d13 f5bd 53da 2dbe bb36 753d
000000e0: 773e c6bd cd3a 6c3c 44cd 5dbd 1499 b53b
000000f0: d682 12be bb30 7ebd 6937 f3bc dc12 0c3d
00000100: eeb9 43bd 37ec 9e3b 2830 57bd 5956 01be
00000110: 0e77 06bc b2f3 d23c fa54 643d a4ed cbbc
00000120: 20cd 56bd b649 51be 9a76 e03d c4cf edbd
00000130: 5b6b 283d 742a 56bd abcb b03d f472 8cbd
00000140: 4d8c 97bd 3f7a 863d 333c 63bd 0d35 58bd
00000150: e01f 5fba 60ac 75bc 89bf ebbb 7f84 e8bd
00000160: 02bc da3c 427a 093d 7779 f6bd d697 debd
00000170: 1d91 22bc 34fb 07be 0b5f b5bd 7cfa ce3d
00000180: 3597 8bbd 5cde 153d 86e6 9ebd 2c3a 193d
00000190: 21c6 7abc 96be 893b 54fa cabd 9939 633d
000001a0: 3ded a8bc e335 20be e240 87bd 3878 e7bc
000001b0: ad2d c3bc 2f72 c8bd a6f9 9dbc 176d bb3d
000001c0: 7236 f73b 3bfe a3bd 5caa 37bd 5055 0e3e
000001d0: 015c e83c 1446 2f3b 5413 ff3d db32 dc3c
000001e0: ab23 a73c c9a4 78bc ae41 fbbb d5b6 68bc
000001f0: 8f79 423d fcb9 9fbd 4434 1abd fff9 febc

network_body._body_endoder.seq_layers.0.weight f4 [128, 12]
-0.08541569 0.3741705 -0.25180414 -0.03421506 -0.41227087 -0.31147406 0.26237777 0.027188215
-0.51353985 -0.2726215 0.19241014 -0.12496857 0.031747274 0.4817372 0.019572876 0.00052985514
0.15233116 -0.10345396 0.26639855 -0.18766347 0.14642572 0.35940856 0.21099971 0.2402967
-0.0017205187 0.46371266 0.23380369 0.10476087 -0.10540982 -0.09259094 -0.105954036 -0.49359655
0.08217634 0.14662331 -0.21058513 0.1285493 0.12583934 -0.36146638 0.0143198855 -0.25391105
-0.111287236 -0.5207248 0.04679762 -0.46744913 -0.26560858 0.16732535 -0.46853742 0.041207492
-0.26269686 -0.10591583 0.5129456 0.24443603 0.2292511 0.34048378 -0.39214292 -0.21940205
0.2886091 -0.003978098 0.04601821 -0.2990597 0.1976814 -0.10894036 0.069729276 0.5398419
0.13683295 0.047828693 -0.44935575 -0.030193852 0.11170379 0.17811684 -0.5660126 0.0076133767
-0.19141373 -0.24595772 -0.38187104 -0.2650692 0.34458235 -0.34588882 0.00651816 0.23671381
0.121225476 0.34461564 -0.15363365 0.13806625 0.31635183 0.17286552 -0.13161397 0.096305594
-0.24778865 0.29667434 0.259341 -0.33480307 -0.15677178 -0.07122653 -0.44176126 0.24589731
0.14531492 0.40693223 0.0982349 -0.1377389 -0.011408856 0.3702673 -0.5283537 0.23196174
-0.152239 0.122948684 -0.07595698 -0.07712562 0.1848588 -0.009074895 0.26681966 -0.1380687
0.056676336 -0.24812536 0.19930264 -0.04561914 0.51418346 -0.07879174 -0.055828035 0.12942384
-0.23016559 -0.1579753 -0.23318723 -0.23849845 -0.03012921 -0.11961142 -0.13367972 0.002067881
-0.21239024 -0.43742934 -0.16452049 -0.28193197 0.16306609 -0.45873627 0.35222226 0.40298995
-0.51944095 -0.052946553 -0.34584138 0.49791148 0.19293582 -0.022667415 0.42128012 -0.22176088
-0.63874704 -0.5235359 0.30690458 -0.36496383 0.010327867 0.5563464 -0.26683742 -0.04700335
-0.18529272 -0.29506055 0.00861375 -0.11477105 0.1560256 0.007519367 -0.44420123 -0.56485516
0.055702087 0.017599717 0.21219784 0.06251979 0.08408977 -0.40136713 0.27961645 -0.44490114
0.07084938 0.57690597 -0.03377766 0.24108882 -0.512181 0.3614932 0.55554384 0.28454095
0.018458676 -0.09611748 0.05850296 -0.24794903 0.35859445 0.22085658 0.8383357 0.69733053
0.3832129 0.21049878 -0.9275237 0.027022552 0.010009186 -0.24441937 0.07682849 -0.21758267
-0.29056954 -0.14510567 -0.20788422 0.20332089 0.018967215 -0.20568886 -0.33220494 0.25294247
-0.2218937 0.011451682 -0.14057516 -0.5509774 -0.46227187 -0.6438908 0.20516658 -0.22294131
-0.16633447 -0.09645599 -0.39894453 0.11591009 -0.27780643 -0.07728188 0.035802234 0.5706702
0.05721021 0.4009435 0.09094833 0.16786592 0.19990839 0.18079783 0.11866715 -0.009499459
0.3450775 0.12784435 -0.38939932 0.07648638 0.27479348 -0.43744376 -0.13953711 0.2862528
-0.5637311 0.21920949 -0.21411206 0.29592714 -0.10145085 0.98142904 -0.29857552 0.13345094
-0.027828656 -0.024345553 0.5150674 0.215531 -0.22375432 -0.67103386 0.15764374 0.029348817
0.13420828 -0.122799486 -0.44175217 0.17131774 -0.33781478 0.33691043 -0.27300513 -0.4872397
00000000: 6cee aebd 4793 bf3e 79ec 80be 1725 0cbd
00000010: 2b15 d3be 8779 9fbe 6156 863e d2b9 de3c
00000020: 5977 03bf 0c95 8bbe 2a07 453e 86ef ffbd
00000030: 6e09 023d 42a6 f63e 4c57 a03c fae5 0a3a
00000040: b3fc 1b3e abdf d3bd 6465 883e da2a 40be
00000050: a0f0 153e 6604 b83e 4f10 583e 5710 763e
00000060: 0783 e1ba bf6b ed3e 3c6a 6f3e de8c d63d
00000070: 1be1 d7bd 52a0 bdbd 6efe d8bd b0b8 fcbe
00000080: 124c a83d 6c24 163e a1a3 57be 6da2 033e
00000090: 07dc 003e 1f12 b9be f49d 6a3c a100 82be
000000a0: 90ea e3bd 384e 05bf dcae 3f3d 7e55 efbe
000000b0: d9fd 87be 5657 2b3e 23e4 efbe 30c9 283d
000000c0: 3480 86be 66ea d8bd 6750 033f 704d 7a3e
000000d0: cdc0 6a3e e453 ae3e f5c6 c8be eeaa 60be
000000e0: 92c4 933e b45a 82bb 977d 3c3d 5a1e 99be
000000f0: fe6c 4a3e 201c dfbd 39ce 8e3d 1433 0a3f
00000100: f01d 0c3e 05e8 433d f511 e6be 1959 f7bc
00000110: f5c4 e43d 4364 363e 34e6 10bf a279 f93b
00000120: f601 44be 57dc 7bbe 9a84 c3be 26b7 87be
00000130: 196d b03e 5718 b1be 4a96 d53b 1b65 723e
00000140: 1045 f83d 7671 b03e 2452 1dbe 3d61 0d3e
00000150: def8 a13e a903 313e d0c5 06be de3b c53d
00000160: 4fbc 7dbe b3e5 973e 58c8 843e 4f6b abbe
00000170: c888 20be 37df 91bd 882e e2be 81cc 7b3e
00000180: 6fcd 143e 6c59 d03e 612f c93d 6d0b 0dbe
00000190: 36ec 3abc ad93 bd3e 3042 07bf 6187 6d3e
000001a0: 8ae4 1bbe 85cc fb3d 558f 9bbd 09f4 9dbd
000001b0: a04b 3d3e deae 14bc 969c 883e e261 0dbe
000001c0: 7225 683d 9314 7ebe fe15 4c3e 23db 3abd
000001d0: 87a1 033f 905d a1bd f0ab 64bd af87 043e
000001e0: 87b0 6bbe 47c4 21be a2c8 6ebe f038 74be
000001f0: 88d1 f6bc d5f6 f4bd 56e3 08be 4985 073b
00000200: d47c 59be bdf6 dfbe 0f78 28be 6359 90be
00000210: ccfa 263e 7bdf eabe 7a56 b43e b354 ce3e
00000220: 15fa 04bf 7cde 58bd 1f12 b1be 41ee fe3e
00000230: f890 453e 04b1 b9bc 07b2 d73e 4915 63be
00000240: ed84 23bf 7306 06bf 9922 9d3e 8adc babe
00000250: 3736 293c b86c 0e3f ea9e 88be 9686 40bd
00000260: 60bd 3dbe 2d12 97be b020 0d3c 160d ebbd
00000270: 2dc5 1f3e 0665 f63b 586e e3be 599a 10bf
00000280: df27 643d 482d 903c 644a 593e 600a 803d
00000290: 4237 ac3d fe7f cdbe e329 8f3e 15ca e3be
000002a0: 7b19 913d 1cb0 133f 725a 0abd fddf 763e
000002b0: 4b1e 03bf a315 b93e 1f38 0e3f 5aaf 913e
000002c0: a636 973c 3ed9 c4bd cda0 6f3d 5ae6 7dbe
000002d0: b199 b73e 3a28 623e 2b9d 563f 4184 323f
000002e0: 7b34 c43e fe8c 573e 3172 6dbf 665e dd3c
000002f0: 92fd 233c 1249 7abe 4158 9d3d fecd 5ebe
00000300: 88c5 94be 9596 14be 9adf 54be 5a33 503e
00000310: 2261 9b3c 1aa0 52be c416 aabe ad81 813e
00000320: 1a38 63be d69f 3b3c eff2 0fbe db0c 0dbf
00000330: e6ae ecbe 07d6 24bf 3017 523e ba4a 64be
00000340: 9553 2abe b88a c5bd 7542 ccbe 4562 ed3d
00000350: a53c 8ebe f645 9ebd 5da5 123d 7117 123f
00000360: 4155 6a3d 7748 cd3e 1e43 ba3d 0be5 2b3e
00000370: c9b4 4c3e 1123 393e c307 f33d 9ea3 1bbc
00000380: 00ae b03e a1e9 023e 595f c7be e4a4 9c3d
00000390: bbb1 8c3e a1f8 dfbe d1e2 0ebe ba8f 923e
000003a0: ae50 10bf 7478 603e 3140 5bbe c383 973e
000003b0: 77c5 cfbd ef3e 7b3f e4de 98be 5da7 083e
000003c0: ecf8 e3bc 5370 c7bc 75db 033f 29b4 5c3e
000003d0: da1f 65be e0c8 2bbf 5c6d 213e ee6c f03c
000003e0: e56d 093e 4c7e fbbd 572d e2be eb6d 2f3e
000003f0: 0ff6 acbe 867f ac3e 54c7 8bbe 7b77 f9be

network_body._body_endoder.seq_layers.2.bias f4 [128]
-0.046571482 -0.039887637 -0.012442149 -0.041861285 -0.026000097 -0.041609384 -0.002843669 -0.02432816
-0.035044353 -0.016856788 -0.035515703 -0.026824273 -0.024677794 0.0035807837 -0.03332182 -0.008175105
-0.042742733 -0.03027776 -0.02891191 0.007937618 -0.019249136 -0.014115868 -0.0017721575 -0.041831188
-0.057302702 -0.005986342 -0.0140492 0.0487197 0.014613353 -0.070440486 -0.0064450544 -0.06590437
-0.034434356 -0.01789823 -0.056962155 -0.031012615 -0.030474445 0.03179584 -0.04085711 -0.061081514
-0.04723384 -0.048059557 -0.05753496 -0.05101471 -0.0410948 -0.03797813 -0.03610149 -0.0053732097
-0.050940406 -0.06661861 -0.00033754777 -0.053332254 0.008708328 -0.021822415 -0.020392446 -0.055518866
-0.028616348 0.039778806 -0.01816526 -0.027775457 -0.04074126 -0.05729239 0.010678822 -0.027988082
-0.051220022 0.024541205 -0.0055309255 -0.01725292 -0.0457969 -0.009110721 -0.03955699 -0.03478716
-0.0378378 -0.04925277 -0.03246835 0.06759891 -0.041266292 0.0072870543 -0.0003809923 0.059569534
-0.0049488866 -0.008003171 -0.05410538 -0.010992754 -0.042624444 -0.040278915 -0.07218854 -0.01813846
-0.051891454 -0.028483529 -0.030885294 -0.04162835 -0.057033144 0.008475787 -0.05737991 0.006752517
-0.09822915 0.033013355 -0.03541129 -0.05953135 0.0075693023 -0.014460412 -0.04451817 -0.039181337
-0.037111066 -0.050391342 -0.02722405 -0.049757168 -0.011227521 -0.043830864 0.04637244 0.04228877
-0.033166997 -0.07524155 -0.03170005 -0.05660206 0.010216628 0.0128275985 0.017921308 0.015167335
-0.051799603 -0.021438183 0.027497923 -0.028644897 -0.050368525 -0.03426787 -0.03831612 -0.047267858
00000000: bdc1 3ebd 3861 23bd 28da 4bbc bd76 2bbd
00000010: 28fe d4bc 9a6e 2abd d95c 3abb d94b c7bc
00000020: ab8a 0fbd 3f17 8abc ea78 11bd 94be dbbc
00000030: 1629 cabc 95ab 6a3b 767c 08bd e0f0 05bc
00000040: 0113 2fbd 1109 f8bc abd8 ecbc c80c 023c
00000050: 5db0 9dbc 3e46 67bc bd47 e8ba 2e57 2bbd
00000060: 3db6 6abd 1429 c4bb 9e2e 66bc 4f8e 473d
00000070: d86c 6f3c 1a43 90bd 0931 d3bb dff8 86bd
00000080: 0a0b 0dbd 4f9f 92bc 2651 69bd 2b0e febc
00000090: 8ba5 f9bc 5b3c 023d c959 27bd 9c30 7abd
000000a0: 4578 41bd 19da 44bd c7a9 6bbd cdf4 50bd
000000b0: 0553 28bd f58e 1bbd 28df 13bd c011 b0bb
000000c0: e3a6 50bd 566f 88bd e5f8 b0b9 ec72 5abd
000000d0: 60ad 0e3c ecc4 b2bc 0f0e a7bc c067 63bd
000000e0: d56c eabc 1aef 223d 50cf 94bc 5b89 e3bc
000000f0: 4fe0 26bd 6dab 6abd 3af6 2e3c 4347 e5bc
00000100: 16cc 51bd a30a c93c c43c b5bb ff55 8dbc
00000110: 8895 3bbd 2245 15bc 8306 22bd fb7c 0ebd
00000120: cffb 1abd 46bd 49bd 88fd 04bd 4c71 8a3d
00000130: d806 29bd 3ec8 ee3b ecbf c7b9 2fff 733d
00000140: 452a a2bb bb1f 03bc 9a9d 5dbd f41a 34bc
00000150: f896 2ebd 81fb 24bd 96d7 93bd 1c97 94bc
00000160: 228c 54bd 4a56 e9bc 2803 fdbc 7d82 2abd
00000170: 969b 69bd 07de 0a3c 3207 6bbd 3844 dd3b
00000180: 5d2c c9bd 0339 073d 6e0b 11bd 25d7 73bd
00000190: e907 f83b 5deb 6cbc af58 36bd 9c7c 20bd
000001a0: c601 18bd 2767 4ebd f904 dfbc 2cce 4bbd
000001b0: a3f3 37bc fe87 33bd 07f1 3d3d fd36 2d3d
000001c0: 1eda 07bd 3e18 9abd e9d7 01bd 90d7 67bd
000001d0: a563 273c d92a 523c b5cf 923c 6a80 783c
000001e0: d22b 54bd 219f afbc 5343 e13c b4a8 eabc
000001f0: 3a4f 4ebd 775c 0cbd 5df1 1cbd f19b 41bd

network_body._body_endoder.seq_layers.2.weight f4 [128, 128]
0.051869486 0.022559192 -0.12585305 0.0516547 0.20921244 0.00919761 -0.067650385 -0.07965953
0.07195585 0.1322827 -0.03621317 0.021306066 0.061377965 -0.13762814 -0.1248321 -0.051640116
0.22919072 -0.08206132 0.091537304 -0.031745315 0.1664627 -0.03593472 -0.048110954 0.022063822
0.0853592 0.007191466 0.037579425 -0.024993032 -0.114859395 0.019817429 -0.06978183 -0.054241482
-0.13592473 -0.06127559 0.053335104 -0.04719606 -0.14434011 -0.19166169 -0.061244633 0.02199106
0.029779838 0.039290402 -0.052557897 0.12220933 -0.06480794 0.07812222 -0.40517396 0.009776318
-0.05492231 0.008589833 -0.06768778 0.032495495 -0.061012506 0.10733356 0.06306905 -0.20639132
0.03406888 -0.058247536 -0.1288103 0.17118025 -0.13392992 -0.15802497 0.02353966 0.048397683
0.13108487 -0.055425275 0.0055714548 -0.11770727 0.073846094 -0.09620714 -0.17276798 -0.08989786
0.17217422 -0.0062082224 -0.10795832 0.02638335 -0.035908613 0.019909505 -0.17789732 0.020474445
-0.0684102 0.00740593 0.16870612 0.052323565 -0.010227301 -0.16289502 -0.17042719 -0.071603134
-0.2705314 0.09041309 -0.098530434 0.024480514 -0.0736019 -0.009654099 -0.083748214 0.047236193
0.09490673 0.0050441343 -0.1260906 0.06152985 -0.006894001 -0.20030983 -0.08749268 -0.037103668
-0.09434533 0.106523246 0.0075986916 -0.08176009 -0.021321371 -0.049738623 -0.3134763 -0.08301025
0.059667222 0.050495245 0.095001966 0.067314915 0.027892167 -0.050931465 -0.07483508 -0.099420056
0.058201082 -0.040415645 -0.13210335 -0.19208606 -0.045040503 0.10513094 -0.065505855 -0.14865617
0.045879398 -0.03417156 -0.06411319 0.20062158 -0.036734033 0.16886076 0.061316982 0.0056626154
-0.0926752 -0.14370093 0.10643982 0.11407592 0.08545739 0.09500049 0.23685765 0.055576157
0.14393611 -0.10803952 0.18944928 -0.08765318 -0.016190957 0.046924703 -0.2496188 0.13452126
-0.047923017 0.1638475 -0.15219381 0.057728603 -0.045440655 -0.004788972 -0.178011 -0.20378554
-0.099245705 -0.03312527 0.060625397 0.06501593 -0.12830552 -0.08782536 0.09500413 -0.11607665
-0.050008688 0.088557296 0.18317494 -0.057800382 -0.002335881 0.0016843237 0.11043244 -0.0009414309
-0.12609325 -0.11392557 0.071805604 0.15929495 -0.020967608 -0.007794852 0.020556478 -0.049094915
-0.017546348 -0.1392922 0.016853984 -0.09240836 -0.00011108123 7.813678e-05 -0.06321891 0.003948697
-0.027604751 -0.13427588 -0.039803755 -0.17093043 0.009680817 -0.04805735 -0.087251954 0.27573803
0.24761584 0.14177555 -0.04983194 -0.067552045 0.10169833 0.10147052 0.19438039 0.043977313
-0.02857205 0.11669734 -0.029533047 -0.026168995 -0.013573979 -0.13149746 0.07833981 -0.03576726
0.119713515 -0.055324018 0.062024545 0.051766474 -0.016486544 0.0013322674 0.07027701 -0.093871266
-0.0069116657 -0.045443173 0.033907738 0.01678238 -0.056042604 -0.07095161 0.19386418 0.035270315
-0.0025565221 -0.1843593 -0.049143042 -0.06294609 0.044289753 -0.051542662 -0.12404542 0.13208012
-0.1183588 -0.0699133 -0.033035874 -0.05703668 -0.034781087 -0.03657065 -0.08966426 -0.10566894
0.007368146 0.039380804 0.12107205 -0.09442506 -0.13726899 -0.008557749 -0.06324654 0.07645732
00000000: 1975 543d 0ece b83c 9fdf 00be e193 533d
00000010: c93b 563e 93b1 163c 498c 8abd 8924 a3bd
00000020: 975d 933d 1e75 073e 4354 14bd 0f8a ae3c
00000030: 7667 7b3d 64ee 0cbe f9a7 ffbd 9684 53bd
00000040: f9b0 6a3e c40f a8bd e977 bb3d 6007 02bd
00000050: 3375 2a3e 4930 13bd fe0f 45bd 30bf b43c
00000060: ced0 ae3d 64a6 eb3b e2ec 193d 30be ccbc
00000070: 673b ebbd 2958 a23c c7e9 8ebd 512c 5ebd
00000080: da2f 0bbe 1dfc 7abd e975 5a3d a850 41bd
00000090: e5cd 13be f642 44be a7db 7abd 9826 b43c
000000a0: d9f4 f33c f9ee 203d f346 57bd e348 fa3d
000000b0: 06ba 84bd 8bfe 9f3d f672 cfbe da2c 203c
000000c0: 37f6 60bd 5fbc 0c3c e49f 8abd ff19 053d
000000d0: 40e8 79bd b3d1 db3d 592a 813d 3f58 53be
000000e0: cf8b 0b3d f894 6ebd d9e6 03be e049 2f3e
000000f0: ed24 09be 4cd1 21be 3fd6 c03c a63c 463d
00000100: 1d3b 063e 9d05 63bd c090 b63b 8210 f1bd
00000110: 9f3c 973d 4008 c5bd 17ea 30be 5f1c b8bd
00000120: 704e 303e 586e cbbb 4019 ddbd e521 d83c
00000130: e914 13bd 4219 a33c b72a 36be 06ba a73c
00000140: a61a 8cbd 72ad f23b 4cc1 2c3e 3c51 563d
00000150: 6990 27bc f4cd 26be 7784 2ebe aaa4 92bd
00000160: 1783 8abe 802a b93d 53ca c9bd 5c8b c83c
00000170: 98bc 96bd 3a2c 1ebc 2f84 abbd bd7a 413d
00000180: 765e c23d 4449 a53b e51d 01be b906 7c3d
00000190: 12e7 e1bb 051e 4dbe 5d2f b3bd 04fa 17bd
000001a0: 2038 c1bd dc28 da3d 72fe f83b d671 a7bd
000001b0: 28aa aebc baba 4bbd f77f a0be 4701 aabd
000001c0: 9e65 743d 1ad4 4e3d 6490 c23d 67dc 893d
000001d0: 1d7e e43c 839d 50bd 2243 99bd be9c cbbd
000001e0: 4264 6e3d e08a 25bd 1a46 07be 35b2 44be
000001f0: 647c 38bd e44e d73d ef27 86bd 5339 18be
00000200: 09ec 3b3d 7af7 0bbd c74d 83bd be6f 4d3e
00000210: 6d76 16bd d6e9 2c3e 8427 7b3d 768d b93b
00000220: 7fcc bdbd 5626 13be 1ffd d93d a3a0 e93d
00000230: 4904 af3d 9e8f c23d d08a 723e d3a3 633d
00000240: fd63 133e d343 ddbd fefe 413e 8383 b3bd
00000250: e6a2 84bc 1e34 403d 129c 7fbe f1bf 093e
00000260: ed4a 44bd a4c7 273e b2d8 1bbe d474 6c3d
00000270: fb1f 3abd cfec 9cbb 8448 36be 28ad 50be
00000280: 5541 cbbd 5dae 07bd 5652 783d 1227 853d
00000290: 8662 03be c8dd b3bd 8691 c23d 98b9 edbd
000002a0: e9d5 4cbd 875d b53d 3692 3b3e 18c0 6cbd
000002b0: 9515 19bb 86c4 dc3a 672a e23d 5cca 76ba
000002c0: 971e 01be cf51 e9bd d10e 933d 371e 233e
000002d0: 43c4 abbc f56b ffbb 0f66 a83c c017 49bd
000002e0: 5cbd 8fbc 9da2 0ebe 5e11 8a3c 9840 bdbd
000002f0: 48f4 e8b8 5ddd a338 ea78 81bd 1264 813b
00000300: 5c23 e2bc 9e7f 09be 4309 23bd 6308 2fbe
00000310: 4a9c 1e3c c9d7 44bd 27b1 b2bd 892d 8d3e
00000320: 028f 7d3e 9c2d 113e 941c 4cbd ba58 8abd
00000330: 3747 d03d c7cf cf3d a70b 473e 8e21 343d
00000340: ef0f eabc 04ff ee3d 4aef f1bc 5c60 d6bc
00000350: 6565 5ebc 45a7 06be 9f70 a03d b180 12bd
00000360: 5c2c f53d 709b 62bd 730d 7e3d 1509 543d
00000370: ca0e 87bc 7a9f ae3a 65ed 8f3d 943f c0bd
00000380: 417b e2bb 9f22 3abd d7e2 0a3d 347b 893c
00000390: ee8c 65bd 144f 91bd 5584 463e 9b77 103d
000003a0: 538b 27bb afc8 3cbe 374a 49bd e1e9 80bd
000003b0: 2c69 353d 661e 53bd 860b febd 0340 073e
000003c0: 1966 f2bd b42e 8fbd a050 07bd 4b9f 69bd
000003d0: 9d76 0ebd 1bcb 15bd e5a1 b7bd f568 d8bd
000003e0: 7d70 f13b c44d 213d 9ff4 f73d ed61 c1bd
000003f0: 3e90 0cbe cd35 0cbc 6787 81bd a895 9c3d
