Project/Assets/ML-Agents/Examples/SlideMan/SlideMan.onnx (onnx, 78302 bytes, 9 tensors)

action_model._discrete_distribution.branches.0.bias f4 [2]
0	0xbd74606b	-0.059662264
1	0x3d74606e	0.059662275

action_model._discrete_distribution.branches.0.weight f4 [2, 128]
0	0x3d995f7b	0.074889146
1	0x3c393530	0.011304185
2	0x3daa5a36	0.083179876
3	0xbd0d93d8	-0.034564823
4	0x3da110d6	0.07864539
5	0x3c2256e7	0.009908414
6	0x3d9a9f7d	0.07549951
7	0x3dc252b5	0.09488431
8	0x3d982dd0	0.07430613
9	0x3d734f31	0.059401695
10	0x3d8ffb2e	0.070303306
11	0xbabe919d	-0.0014539246
12	0x3bc11296	0.005892108
13	0x3c5cba40	0.01347214
14	0x3d0846fe	0.03327083
15	0x3ccba9d7	0.02486126
16	0x3c139051	0.009006576
17	0xbd24adb1	-0.040204708
18	0x3d32ce8b	0.043654006
19	0x3b9e36b3	0.004828298
20	0x3d75f328	0.060046345
21	0x3d13d92a	0.036095776
22	0x3dba6658	0.09101552
23	0x3d17e9d4	0.03708823
24	0xba42ddb6	-0.000743355
25	0x3d701bb0	0.058620155
26	0x3d4e6345	0.05038764
27	0x3dc0e350	0.094183564
28	0x3df1d6e7	0.118085675
29	0xbd7c8d9a	-0.06165848
30	0x3d3e377c	0.046439633
31	0x3d9840ce	0.074342355
32	0xbd525d52	-0.05135853
33	0x3dc3980a	0.095504835
34	0xbb1cd103	-0.0023928292
35	0xbd9cc3e3	-0.0765455
36	0x3db017d5	0.085982956
37	0xbd20f27b	-0.039293747
38	0x3c752da1	0.014964492
39	0x3d1fb57f	0.038991448
40	0x3d8c5423	0.06851985
41	0x3d089d39	0.033353064
42	0x3d035906	0.03206732
43	0x3c5f592e	0.013632102
44	0x3db4e541	0.08832789
45	0x3da09de9	0.07842619
46	0x3d8646a6	0.06556444
47	0x3d4eedea	0.05051986
48	0x3d9af6d2	0.075666085
49	0x3c72488b	0.014787803
50	0x3d02a324	0.031893864
51	0x3d0c40d5	0.034241516
52	0x3d81670e	0.06318484
53	0x3ca60121	0.02026421
54	0x3d1ed758	0.038779587
55	0x3dc14ec0	0.094388485
56	0x3d309384	0.043109432
57	0x3c1d7dd8	0.009612523
58	0xb985ed9b	-0.00025544767
59	0x3dd2dd09	0.10296065
60	0x3e094568	0.13405383
61	0x3d7af3a8	0.061267525
62	0x3d96111a	0.073274806
63	0x3b9bd3b8	0.0047554635
64	0x3d68ce94	0.056837633
65	0x3d069b10	0.032862723
66	0x3d17cf6c	0.037063047
67	0x3cdde19e	0.027085122
68	0x3df8bc2b	0.12145265
69	0xbd12a6f8	-0.035803765
70	0x3d5d3426	0.05400481
71	0x3dab3398	0.0835945
72	0xbce54f84	-0.027992018
73	0x3becd7ce	0.0072278744
74	0xbb91c15f	-0.0044481005
75	0xbc73a6ba	-0.014871294
76	0x3d91b3ac	0.07114348
77	0xb99a46a4	-0.000294258
78	0xbdae0dbc	-0.084987134
79	0x3c89333f	0.016748069
80	0xbba0c479	-0.004906234
81	0x3d159f04	0.036528602
82	0x3cfff107	0.03124286
83	0xbcd2851c	-0.025698237
84	0xbd5dc510	-0.05414301
85	0x3d9d84ba	0.07691331
86	0x3b60a126	0.003427574
87	0xbd182c04	-0.03715135
88	0x3e0427e0	0.12905836
89	0x3c8e413d	0.017365092
90	0xbcc00533	-0.02343998
91	0x3c0deb1c	0.0086620115
92	0x3dbce12c	0.092226356
93	0x3d507805	0.05089571
94	0xbdc657af	-0.09684693
95	0xbca0fbd0	-0.019651324
96	0x3b2bcc52	0.0026214314
97	0xba72c97c	-0.0009261591
98	0x3d973b24	0.07384327
99	0x3dcddc59	0.100517936
100	0xbd6a910a	-0.057267226
101	0x3e297d8f	0.16551803
102	0x3d561dc9	0.0522745
103	0x3d9db40f	0.07700359
104	0x3cf0a4fe	0.02937555
105	0x3e06e5db	0.1317362
106	0x3ddf9b0f	0.10918247
107	0x3ce40976	0.027836543
108	0x3d8bf825	0.06834439
109	0x3cfe48ca	0.031040568
110	0xbc3a295e	-0.011362402
111	0x3cdc55cc	0.02689638
112	0xbc9f597a	-0.019451845
113	0xbcc9fbe5	-0.024656245
114	0xbd932a17	-0.071857624
115	0xbd10e499	-0.035374258
116	0x3db7558e	0.08951865
117	0x3d8d2c38	0.068932
118	0x3c7e5a27	0.015524424
119	0x3da4ac36	0.08040659
120	0x3cf4eea4	0.029898949
121	0xbcff90c5	-0.031196961
122	0x3d9b4e7f	0.07583331
123	0xbcc395d7	-0.02387516
124	0x3d873f2b	0.06603845
125	0x3daa0066	0.08300857
126	0x3c6be7d4	0.014398534
127	0xbd501861	-0.0508045
128	0xbd8d98c5	-0.06913904
129	0x3a76a5d0	0.0009408863
130	0xbdae6c59	-0.085167594
131	0x3d259a5b	0.040430408
132	0xbda1faa7	-0.07909136
133	0xbce87913	-0.028378045
134	0xbd87e4c9	-0.06635434
135	0xbdd218ae	-0.102586135
136	0xbda3dbe3	-0.080009244
137	0xbdaa6558	-0.08320111
138	0xbd8666df	-0.0656259
139	0xbc9604f8	-0.018312916
140	0x3c42ba10	0.011885181
141	0xbcd1fddd	-0.025633747
142	0xbce9db55	-0.028546968
143	0xbd028a7f	-0.03187036
144	0x3c1417b4	0.009038854
145	0x3d14fe64	0.03637542
146	0xbd3c7633	-0.04601116
147	0xbcd6be3b	-0.026213756
148	0xbd49d92a	-0.04927937
149	0xbd8b37c2	-0.06797744
150	0xbdbf9b08	-0.09355742
151	0xbcb515ce	-0.022105124
152	0xbc23147a	-0.009953612
153	0xbd77e663	-0.06052245
154	0xbd3a9a4b	-0.0455573
155	0xbdd39888	-0.103318274
156	0xbde877c1	-0.11350966
157	0x3d554ab4	0.052073196
158	0xbd867763	-0.0656574
159	0xbd655eb6	-0.055998527
160	0x3d04fc49	0.03246716
161	0xbdcf2e4d	-0.10116253
162	0x3cd6d2f5	0.026223639
163	0x3d9dd1b5	0.07706014
164	0xbd82dbe0	-0.06389594
165	0x3cee561b	0.029093793
166	0x3c16e3ac	0.009209555
167	0xbd2285d2	-0.039678402
168	0xbd6b09a8	-0.057382256
169	0xbd16ffb7	-0.036864962
170	0xbd4f78e2	-0.050652392
171	0x3b404e2b	0.0029343467
172	0xbd9c7752	-0.07639946
173	0xbda793ac	-0.08182463
174	0xbd70ea7b	-0.058817368
175	0xbd0b941f	-0.034076806
176	0xbd9dad0f	-0.07699024
177	0xbce45fcc	-0.02787771
178	0xbcc61068	-0.024177745
179	0xbc510187	-0.012756712
180	0xbda55efe	-0.08074759
181	0xbc6be8f4	-0.014398802
182	0xbd7bbbb9	-0.061458323
183	0xbda69a0b	-0.0813485
184	0xbd77b134	-0.06047173
185	0xbc339a13	-0.010962027
186	0x3c123906	0.008924728
187	0xbdd07cd5	-0.1018006
188	0xbe0c7173	-0.13715152
189	0xbd82e806	-0.06391911
190	0xbd87329a	-0.06601448
191	0xbb506c93	-0.0031802997
192	0xbd8717d0	-0.06596339
193	0xbad8548e	-0.0016504691
194	0xbd12b171	-0.035813753
195	0x3c055eb0	0.008140251
196	0xbdf324f2	-0.11872281
197	0x3d59d9f7	0.053186383
198	0xbdab1340	-0.08353281
199	0xbdb89039	-0.09011883
200	0x3ca75f2c	0.020431124
201	0xbc6c71a9	-0.014431396
202	0x3c179f0a	0.009254226
203	0x3cf49ab0	0.029858917
204	0xbda35941	-0.07976008
205	0xbc3f2f9e	-0.011669068
206	0x3dbb89e5	0.09157161
207	0x3b1daf8f	0.002406094
208	0x3aba4e7c	0.0014214064
209	0xbd25e1e7	-0.04049864
210	0xbd665b8e	-0.056239657
211	0x3d0172e0	0.031603694
212	0x3d688633	0.056768607
213	0xbdbf52a8	-0.09341937
214	0xbc8b6d59	-0.017019914
215	0x3cdf3584	0.027247198
216	0xbe037220	-0.12836504
217	0xbcc6a05c	-0.024246387
218	0x3cd04860	0.025425136
219	0xbc9593e5	-0.018258998
220	0xbdab6842	-0.08369495
221	0xbd2f1dc9	-0.042753015
222	0x3d7ce486	0.061741374
223	0x3ce87047	0.02837385
224	0xbb94c0ab	-0.0045395694
225	0x3b9cc9be	0.0047847917
226	0xbda09f77	-0.078429155
227	0xbdad626f	-0.0846604
228	0x3d92ed46	0.071741626
229	0xbe220b51	-0.1582463
230	0xbd2c1a4a	-0.04201726
231	0xbdb2bc39	-0.08727307
232	0xbd01d29c	-0.031694993
233	0xbe024c04	-0.1272431
234	0xbdc76028	-0.09735137
235	0xbd231741	-0.0398171
236	0xbda8d871	-0.08244408
237	0xbcf481e0	-0.029847085
238	0x3be52093	0.0069924085
239	0xbcbb8a4f	-0.0228931
240	0x3ce09bf1	0.027418109
241	0x3cf709fe	0.030156132
242	0x3d6ab201	0.057298664
243	0x3d224e96	0.039625727
244	0xbdaac071	-0.083374865
245	0xbd93354e	-0.071879014
246	0xbcd00141	-0.025391223
247	0xbdaa7f15	-0.0832502
248	0xbd4a8849	-0.049446378
249	0x3c5a0534	0.013306905
250	0xbd9ddbe8	-0.077079594
251	0x3ceb5469	0.028726773
252	0xbd8d571b	-0.0690138
253	0xbd9160fa	-0.07098575
254	0xba31ef0c	-0.0006787635
255	0x3d598719	0.053107355

action_model._discrete_distribution.branches.1.bias f4 [3]
0	0x3ccbf31d	0.024896199
1	0xbd9fb67c	-0.07798478
2	0x3d593f87	0.0530391

action_model._discrete_distribution.branches.1.weight f4 [3, 128]
0	0x3c753272	0.01496564
1	0xbcd5f269	-0.026116567
2	0xbcf4bc15	-0.02987484
3	0x3d553dc4	0.052060857
4	0xbb9f4b9c	-0.0048613083
5	0x3c60eb15	0.013727923
6	0x3c950dc8	0.018195048
7	0x3cfa99c6	0.030590903
8	0x3bd584f3	0.006516093
9	0xbd55e05b	-0.052215915
10	0x3c611e03	0.0137400655
11	0x3b876bf7	0.0041327435
12	0x3c646dc8	0.0139421895
13	0xbd327a3e	-0.04357361
14	0x3c9ffb20	0.019528925
15	0xbb28c295	-0.0025750746
16	0x3de5ad47	0.11214691
17	0xbd25a4b9	-0.040440295
18	0x3c8d87d0	0.017276675
19	0xbd966afe	-0.07344626
20	0xbcf72f72	-0.03017399
21	0xbd5864b4	-0.052830413
22	0xbc5028a4	-0.012705002
23	0x3d87c5f6	0.06629555
24	0xbda9f504	-0.08298686
25	0x3bdcc8fb	0.006737826
26	0xbd5c5fa2	-0.05380214
27	0x3d47e91d	0.0488063
28	0xbc83ec73	-0.016103959
29	0xbd786a3a	-0.06064818
30	0xbc637fed	-0.01388548
31	0x3d872554	0.06598917
32	0x3d66c1c5	0.056337137
33	0xbd332fa0	-0.04374659
34	0xbcf21ceb	-0.029554805
35	0x3bbc7322	0.0057510296
36	0xbd1d9e42	-0.038481005
37	0xbda09a94	-0.078419834
38	0xbcfc6de5	-0.03081412
39	0xbd02fb11	-0.031977717
40	0xbb855537	-0.0040689963
41	0x3da44f34	0.08022919
42	0x3d0e62a4	0.03476204
43	0xbdad1066	-0.084503934
44	0x3cb601e5	0.0222177
45	0xbd46bc25	-0.048519272
46	0x3db3fda4	0.087886125
47	0xbdc84f15	-0.09780709
48	0xbd5184aa	-0.05115191
49	0x3dd5f61e	0.10447334
50	0xbd3f2eff	-0.04667568
51	0x392238d5	0.00015470696
52	0xbc71c696	-0.014756819
53	0x3d82bd9c	0.06383821
54	0xbc028a72	-0.007967578
55	0xbc103c04	-0.008803371
56	0xbc0f3b30	-0.008742139
57	0x3d6b08c1	0.057381395
58	0xbd78e313	-0.06076343
59	0xbd91e5ce	-0.0712391
60	0x3cf66c53	0.03008095
61	0xbda92b8c	-0.08260259
62	0xbd94fabf	-0.072743885
63	0x3cb3dc6d	0.021955693
64	0x3d078e8b	0.033094924
65	0xbd9bc3c0	-0.07605696
66	0x3d833f10	0.064085126
67	0x3c45bacd	0.012068463
68	0x3c1e3d0e	0.009658111
69	0xbaa69e62	-0.0012711997
70	0xbdb8a8af	-0.09016549
71	0x3c023e9f	0.0079495
72	0x3c0e5eac	0.008689564
73	0xbda4d0ae	-0.08047615
74	0xbd1e0137	-0.038575377
75	0x3c901e62	0.017592613
76	0x3cbfd51d	0.02341705
77	0x3d30269c	0.04300557
78	0xbd9c59cc	-0.07634315
79	0xbca0d799	-0.019634055
80	0x3cfb10a8	0.03064759
81	0x3d8aedd3	0.067836426
82	0x3c29ca69	0.0103632
83	0xbd0cd0de	-0.03437888
84	0x3a8b12d5	0.0010610471
85	0x3c1ea5cc	0.009683084
86	0xbcdace23	-0.026709622
87	0xbd4d52d5	-0.050127823
88	0x3c5c2ef0	0.013438925
89	0xbd665f1e	-0.056243055
90	0xbd8c8cd0	-0.06862795
91	0xbc8c41ee	-0.017121281
92	0xbd239463	-0.039936434
93	0xbd007127	-0.03135791
94	0x3ba867b0	0.0051393136
95	0xbd22b1b0	-0.039720237
96	0xbbaa62cc	-0.005199766
97	0x3caa5853	0.02079407
98	0xbbdcc0ab	-0.006736835
99	0x3cf4a2c6	0.029862773
100	0x3ca7fb10	0.020505458
101	0xbc70c489	-0.014695295
102	0x3dcabe22	0.09899546
103	0x3d6e45fd	0.058172215
104	0x3d14691f	0.036233064
105	0x3c159e6f	0.009132012
106	0xbd304d1c	-0.043042287
107	0x3dd9563d	0.10612152
108	0xbbcd4d27	-0.006265301
109	0xbddfe856	-0.109329864
110	0xbd070766	-0.03296604
111	0x3d09cb9e	0.03364145
112	0xbd4b3461	-0.0496105
113	0x3d643135	0.05571099
114	0x3d558e45	0.052137632
115	0xbc381ef5	-0.0112378495
116	0xbc4b669c	-0.012414601
117	0xbd0790ac	-0.033096954
118	0xbd6a5d43	-0.057217848
119	0x3c32f268	0.010922052
120	0x3d1e8a4e	0.038706116
121	0xbdb679c7	-0.08909946
122	0x3cb3b2e3	0.021935886
123	0x3c166805	0.009180074
124	0xbd593def	-0.05303758
125	0xbd58e597	-0.05295333
126	0x3cc88357	0.02447669
127	0xbd8ee6ea	-0.06977637
128	0x3a68d72f	0.00088821625
129	0xbbef5060	-0.0073032826
130	0xbd96e9a9	-0.07368786
131	0xbd95a531	-0.073068984
132	0x3c39a025	0.011329685
133	0x3c450b6a	0.012026647
134	0xbd55420e	-0.052064948
135	0xbb800ed9	-0.00390802
136	0x3c4f5036	0.012653401
137	0xb9263bf3	-0.00015853326
138	0x3dc33161	0.09530903
139	0xbdb065aa	-0.08613141
140	0xbdb35aeb	-0.087575756
141	0x3df0b5b2	0.11753406
142	0xbcf7197f	-0.030163525
143	0x3cb7242c	0.022356115
144	0xbdd6a93e	-0.10481499
145	0xbc349cca	-0.01102371
146	0x3c53cac2	0.012926759
147	0x3d1f472c	0.038886234
148	0x3d3be1a9	0.045869503
149	0xbcfa97ae	-0.030589905
150	0xbccb31d3	-0.024804031
151	0xbdbf1176	-0.09329502
152	0x3db7f677	0.08982556
153	0x3d701f55	0.05862363
154	0x3d344917	0.044015016
155	0x3b393d53	0.0028265312
156	0xbb02750e	-0.0019906196
157	0x3d868e25	0.06570081
158	0x3c264f75	0.01015078
159	0x3d160da7	0.036634114
160	0xbd902ad0	-0.07039416
161	0xbc489120	-0.012241632
162	0x3b78ec09	0.0037982485
163	0x3d624219	0.055238817
164	0xbc9c7dd1	-0.019102963
165	0x3d6a567f	0.057211395
166	0xbcbdf20e	-0.02318671
167	0x3d811770	0.063032985
168	0xbcc2b10a	-0.02376606
169	0xbe0c07e9	-0.13674892
170	0xbbf8b561	-0.0075899814
171	0x3d7a7a3a	0.06115172
172	0xbcd942f2	-0.02652118
173	0xbd712b9d	-0.058879483
174	0xbcf91ed9	-0.030410217
175	0xbc14cd48	-0.009082146
176	0x3cad4175	0.021149376
177	0xbbbc4214	-0.005745182
178	0xbc8f0649	-0.017459052
179	0xbcc7f93c	-0.024410836
180	0xbcb529f8	-0.022114739
181	0x3d4ec04c	0.050476357
182	0x3d976cb5	0.07393781
183	0xbd66c9b4	-0.056344703
184	0x3d045d1a	0.03231535
185	0xbd194e59	-0.037428234
186	0x3d6fec3c	0.0585749
187	0x3dc2965c	0.09501335
188	0x3e1655e5	0.14681204
189	0x3ce21782	0.0275991
190	0x3df7b46a	0.12094958
191	0xbb0fc148	-0.0021935273
192	0xbc5d8146	-0.013519591
193	0xbd243961	-0.040093783
194	0x3d5e6606	0.054296516
195	0xbd7cdcd4	-0.061734036
196	0xbcd8a451	-0.02644554
197	0xbd02acab	-0.03190295
198	0x3d1b3ccb	0.037899774
199	0xbc9b4080	-0.018951654
200	0x3d17e0c1	0.037079576
201	0x3d914643	0.070934795
202	0xbcf9b2cc	-0.030480765
203	0xbd2d4dfd	-0.042310704
204	0xbcdeff24	-0.02722127
205	0x3d000a83	0.031260025
206	0x3d94f1c5	0.072726764
207	0x3ccbc3c5	0.024873624
208	0x3cac1b0e	0.021008994
209	0xbdae32ba	-0.08505769
210	0xbd15ddda	-0.036588527
211	0xbc0f4541	-0.008744539
212	0x3dae29bb	0.08504053
213	0x3cd802b5	0.026368478
214	0x3d6c2985	0.057656784
215	0xbc0ffc92	-0.008788245
216	0x3d0f8b26	0.03504481
217	0xbc640972	-0.013918268
218	0x3b84d6d3	0.0040539294
219	0xbc803359	-0.015649484
220	0x3cdab880	0.026699305
221	0xbca5130a	-0.02015068
222	0xbd5a3ace	-0.053278737
223	0xbcd71ba8	-0.026258305
224	0x3d8f1fd0	0.0698849
225	0x3d266b3e	0.040629618
226	0xbc8f0bc3	-0.017461663
227	0xbb2f4665	-0.002674484
228	0xbb7d9ee5	-0.0038699445
229	0x3d4d89ef	0.05018037
230	0xbd2b1b08	-0.041773826
231	0x3b7eea75	0.0038897071
232	0x3ba2e886	0.0049715666
233	0xbb93fd82	-0.0045163045
234	0x3d37a110	0.044831336
235	0xbd83036b	-0.06397136
236	0x3d61e784	0.05515243
237	0x3de42974	0.11140719
238	0x3ca16cda	0.019705225
239	0xbd70a35f	-0.058749553
240	0xbb198bcc	-0.0023429273
241	0x3cde711c	0.027153544
242	0xbc83862c	-0.01605519
243	0x3d537e64	0.051634207
244	0x3ce8e2e6	0.028428506
245	0x3bc34776	0.0059594465
246	0x3c7260aa	0.014793554
247	0xbd8b0cb2	-0.06789531
248	0xbd45c8d2	-0.04828722
249	0xbb63f2a1	-0.003478207
250	0xbe014a80	-0.12626076
251	0x3dd2a915	0.10286156
252	0xb97cce43	-0.00024109431
253	0x3da6110e	0.08108722
254	0xbc056739	-0.008142286
255	0x3d295e8f	0.041349944

discrete_action_output_shape f4 [1, 2]
0	0x40000000	2.0
1	0x40400000	3.0

network_body._body_endoder.seq_layers.0.bias f4 [128]
0	0x3c84c4fb	0.016207209
1	0x3dc61fdc	0.096740454
2	0xbcafbd09	-0.021452444
3	0x3ccc42fa	0.02493428
4	0xbd25e269	-0.040499125
5	0xbc585827	-0.013204611
6	0xbdaa8e74	-0.08327952
7	0xbe166d09	-0.14690031
8	0xbcd1023f	-0.025513766
9	0xbaf742ad	-0.0018864475
10	0xbd6e016b	-0.05810682
11	0xbd9fdeee	-0.07806192
12	0x3d3e44d7	0.04645237
13	0x3d67675c	0.056495056
14	0xbc3133d1	-0.010815577
15	0x3c4549b7	0.012041501
16	0xbd2024e1	-0.03909767
17	0xbbd39d94	-0.0064579938
18	0x3ced75ef	0.0289869
19	0xbd95c6c4	-0.07313302
20	0xbd73ae61	-0.059492473
21	0xbe10ecb2	-0.14152792
22	0xbddc09c4	-0.1074405
23	0xbde89e18	-0.11358279
24	0xbd5391d8	-0.05165276
25	0xbd2e844a	-0.04260663
26	0xbbad7ef9	-0.0052946773
27	0xbba7a6f5	-0.0051163384
28	0xbd0350f1	-0.032059614
29	0x3d8129ed	0.06306825
30	0xbd6fd385	-0.05855133
31	0x3d1ad881	0.03780413
32	0xbd2734c8	-0.04082182
33	0xbc1db5c1	-0.009625853
34	0xbcac5024	-0.021034308
35	0x3c40bd10	0.011763826
36	0xbd65fa6c	-0.056147024
37	0xbb65b31a	-0.003504938
38	0xbdf754e0	-0.120767355
39	0xbd7db7de	-0.061942928
40	0x3c60f5b2	0.013730453
41	0xbd09891e	-0.03357803
42	0xbd6c4b62	-0.05768908
43	0xba99c3ca	-0.0011731323
44	0xbda1f512	-0.079080716
45	0xbdb5685e	-0.08857797
46	0xbc823f40	-0.0158993
47	0xbe4ab8a1	-0.19796993
48	0xbd9db8b3	-0.07701244
49	0x3ccf74d4	0.025324263
50	0xbdc000a0	-0.09375119
51	0xbd8a4eba	-0.06753297
52	0x3dc95138	0.09829944
53	0xbdd4ed4b	-0.103968225
54	0xbcffb048	-0.031211987
55	0xbd48f627	-0.049062874
56	0x3ceca2f0	0.028886288
57	0x3d18abad	0.037273098
58	0x3d9ca602	0.07648851
59	0xbd9d4bc1	-0.076804645
60	0xbcd7fdba	-0.026366103
61	0xbce20637	-0.027590854
62	0xbdcd481c	-0.100235194
63	0xbd3413c0	-0.043964148
64	0xbc348b7a	-0.011019582
65	0xbd6fcafc	-0.05854319
66	0x3d219fcc	0.039459035
67	0x3d271e8b	0.040800612
68	0x3daa5648	0.08317238
69	0x3d1e936a	0.038714804
70	0xbd1a9bd2	-0.037746258
71	0x3c017755	0.007901986
72	0xbda3822c	-0.07983813
73	0x3dc17c85	0.09447578
74	0xbc23d620	-0.009999782
75	0xbdb374ca	-0.0876251
76	0x3d5ca912	0.053872176
77	0xbc800138	-0.015625581
78	0xbd2c86d7	-0.04212078
79	0xbcaf5ad7	-0.02140562
80	0xbd5ea073	-0.054352235
81	0xbd8c488e	-0.06849776
82	0x3c4d9a09	0.012548932
83	0xbccbab34	-0.02486191
84	0x3c36a941	0.011148752
85	0xbce5d2bb	-0.028054586
86	0xbc311c8d	-0.01081003
87	0x3cea9787	0.028636707
88	0xbdbb03f6	-0.09131615
89	0x3d8275f9	0.06370158
90	0x3d9144f4	0.0709323
91	0xbdc47ddd	-0.09594319
92	0x3d663e83	0.05621196
93	0x3d54eaa0	0.05198157
94	0xbd4d4601	-0.05011559
95	0xbe293720	-0.16524935
96	0xbd4a9798	-0.049460977
97	0xbd5f9f04	-0.05459501
98	0xbab4617c	-0.0013761963
99	0xbcbbdd12	-0.022932563
100	0x3bcbe1f4	0.006222004
101	0xbe3c5c1d	-0.18394513
102	0xba03922b	-0.0005019034
103	0xbde4368a	-0.11143215
104	0xbb7b3828	-0.0038333032
105	0xbc31d736	-0.010854533
106	0x3d3d8d39	0.04627726
107	0x3c897849	0.01678099
108	0xbe0a41d6	-0.13501677
109	0xbd8327f9	-0.064041086
110	0x3c9b7c73	0.01898024
111	0x3e1adc86	0.15123186
112	0xbd75d703	-0.060019504
113	0xbde7ff36	-0.113279745
114	0x3ce72b46	0.028218877
115	0xbb92645e	-0.004467531
116	0x3caaaf84	0.020835645
117	0x3d5df7c0	0.05419135
118	0xbd8d92cb	-0.06912764
119	0xbdcb0df0	-0.09914768
120	0x3d320352	0.043460198
121	0xbcd3757d	-0.025812859
122	0x3cba3892	0.022732053
123	0x3d531266	0.051531218
124	0xbdb5b404	-0.08872226
125	0xba27d7e0	-0.00064027123
126	0xbd737283	-0.05943538
127	0xbce6e4b6	-0.02818523

network_body._body_endoder.seq_layers.0.weight f4 [128, 12]
0	0xbd8352cb	-0.06412276
1	0x3f699381	0.912407
2	0x3e73a462	0.23793176
3	0x3df78860	0.12086558
4	0x3e906b7a	0.28206998
5	0x3dc2d119	0.095125385
6	0xbe925747	-0.28582212
7	0x3ed7d117	0.4215171
8	0x3e39b996	0.18137202
9	0x3bcf9a9f	0.006335571
10	0x3eefb54b	0.46818003
11	0x3e605ed7	0.21911179
12	0x3e2f06be	0.17092416
13	0x3da87a8a	0.082264975
14	0xbdf5a367	-0.11994057
15	0xbe69a1e7	-0.22815667
16	0x3ebd60f8	0.36988044
17	0xbee11df7	-0.43968174
18	0xbd8374ef	-0.06418788
19	0x3f0984ce	0.5371827
20	0xbe7d4d58	-0.24736536
21	0xbe00db2b	-0.12583606
22	0x3e8e73d5	0.27822748
23	0xbd726b8c	-0.059184596
24	0xbde0801f	-0.10961937
25	0xbe7b2a6c	-0.24527901
26	0xbd81b775	-0.0633382
27	0x3e711c1a	0.23545876
28	0xbdbc2a48	-0.09187752
29	0xbe2d6afb	-0.16935341
30	0xbecbb7a2	-0.39788538
31	0x3dbbb143	0.09164669
32	0xbdec4fea	-0.1153868
33	0x396e0b06	0.00022701555
34	0xbe7e2aac	-0.24820966
35	0x3e1ac9b4	0.15116006
36	0xbe3ea7ed	-0.18618746
37	0xbe4fd0d9	-0.20294513
38	0x3f2fd7e2	0.68688786
39	0xbe70d84a	-0.23520008
40	0xbe43d7f5	-0.1912535
41	0x3d9a53ca	0.07535513
42	0x3f0d8bcd	0.55291444
43	0xbe56426c	-0.20923775
44	0xbee8a1a2	-0.45435816
45	0x3e572fbf	0.21014307
46	0x3db23d12	0.087030545
47	0x3cc688ac	0.024235092
48	0x3e2950cf	0.16534732
49	0x3e0c0ccc	0.13676757
50	0x3eac3d35	0.33640447
51	0x3f418c91	0.7560511
52	0xbe4fdb72	-0.20298555
53	0xbdbf8824	-0.09352139
54	0x3e3af005	0.18255623
55	0xbe2b50d8	-0.16730058
56	0xbe721c5a	-0.23643628
57	0xbf0604d2	-0.52351105
58	0xbe23c983	-0.1599484
59	0xbeaeb62a	-0.34123355
60	0xbe25a2b2	-0.16175345
61	0xbe1d3222	-0.15351155
62	0xbebffb6d	-0.3749651
63	0xbea460c4	-0.32105076
64	0x3dbe95cc	0.09305915
65	0x3ee4c469	0.446811
66	0x3ecd0b39	0.40047625
67	0x3d090112	0.033448286
68	0xbe36bcd6	-0.17845473
69	0x3f57e227	0.84329456
70	0xbe5c54b0	-0.2151668
71	0xbdbceefc	-0.0922527
72	0x3dac97c6	0.08427386
73	0x3e3296d1	0.17440344
74	0x3c590703	0.013246301
75	0x3ea3bca4	0.3197986
76	0x3e8b5080	0.27209854
77	0x3e3d2077	0.18469416
78	0xbec8b808	-0.39202905
79	0x3e8cc6f8	0.2749555
80	0xbed9527f	-0.42445752
81	0x3e5f31e1	0.21796371
82	0x3dbc17a5	0.09184197
83	0xbe3d12ca	-0.18464199
84	0xbe83f8ad	-0.25775662
85	0x3e801227	0.2501385
86	0x3e77251e	0.24135253
87	0xbe3e67cd	-0.18594284
88	0xbec16e7c	-0.37779605
89	0x3e16a367	0.1471077
90	0x3f179cc1	0.5922356
91	0x3e0f9e13	0.14025144
92	0xbeac1bea	-0.33615047
93	0x3e586ae1	0.21134521
94	0x3e71ceee	0.23614094
95	0x3ee282f3	0.4424053
96	0xbddc6fda	-0.107635215
97	0xbd4b5862	-0.049644835
98	0x3f0ad968	0.54237986
99	0xbde13731	-0.10996855
100	0x3ede4338	0.4341066
101	0x3cb723d8	0.022355959
102	0x3c68d0fc	0.014209982
103	0xbe87347f	-0.2640724
104	0x3e2c5329	0.16828598
105	0xbebd0a65	-0.36921993
106	0xbe9c0e8a	-0.30479842
107	0xbf281dac	-0.65670276
108	0x3ebeddc9	0.37278584
109	0xbf22a491	-0.6353236
110	0x3ea5211c	0.32251823
111	0x3e04a0c2	0.12951949
112	0x3e2608d4	0.16214305
113	0x3e88250f	0.26590773
114	0xbe9d59cc	-0.30732572
115	0xbece4936	-0.4029023
116	0xbda99970	-0.08281219
117	0xbda0deda	-0.078550056
118	0xbe3e351f	-0.18574952
119	0xbdb79bdc	-0.08965275
120	0x3da01c2c	0.07817873
121	0xbe8458de	-0.2584905
122	0x3dc7415e	0.09729265
123	0xbf28bcb0	-0.65912914
124	0x3e75e8b7	0.24014555
125	0x3f222fc2	0.6335412
126	0xbe3d3c85	-0.18480118
127	0x3f02cd63	0.51094645
128	0x3a791bed	0.00095027575
129	0x3f131466	0.57453
130	0x3ec31fe3	0.38110265
131	0xbe39196c	-0.18076104
132	0xbd5b4cbe	-0.053539984
133	0xbcff3867	-0.031154824
134	0xbe1aa1d3	-0.15100794
135	0x3dc3bc38	0.09557384
136	0xbe4c4296	-0.19947276
137	0x3eabc3fd	0.33547965
138	0x3c3c9efb	0.011512513
139	0xbe12a1fb	-0.14319603
140	0xbf0ca704	-0.54942346
141	0x3ef0b6af	0.47014377
142	0x3e20a1f9	0.15686788
143	0x3e3ea299	0.18616714
144	0xbd234eeb	-0.039870184
145	0xbe763080	-0.24041939
146	0xbe503e07	-0.20336162
147	0x3f13875c	0.57628417
148	0xbe9e9884	-0.30975735
149	0xbd9ccfa5	-0.076567926
150	0x3dc900aa	0.0981458
151	0x3e3903c0	0.18067837
152	0x3f0c58e5	0.5482314
153	0x3ed70623	0.4199687
154	0x3d8015c4	0.062541515
155	0x3d293c83	0.041317474
156	0xbe31a273	-0.17347126
157	0x3e5817d0	0.21102834
158	0xbea28198	-0.31739497
159	0xbd004cd3	-0.031323265
160	0xbde61cab	-0.11235937
161	0x3ce2b579	0.027674424
162	0xbd7a86ca	-0.0611637
163	0xbdebc16f	-0.11511504
164	0x3de1556b	0.1100262
165	0x3de6aabe	0.11263035
166	0xbe12a760	-0.14321661
167	0xbd2cfffb	-0.04223631
168	0xbd4d2a97	-0.050089445
169	0xbe2b997f	-0.16757773
170	0x3de2acba	0.11068101
171	0x3dd30a18	0.103046596
172	0xbdf9cdca	-0.12197454
173	0xbea3ca00	-0.3199005
174	0xbf1a25c3	-0.6021387
175	0x3d958dfc	0.07302472
176	0xbea43d65	-0.3207809
177	0xbe5b5f90	-0.21423173
178	0xbdb7061b	-0.089367114
179	0xbc85d8a6	-0.016338658
180	0xbed7c1ad	-0.4213995
181	0xbb7c4153	-0.0038491085
182	0x3ec519d4	0.38496268
183	0xbeea4ade	-0.45760244
184	0x3e8a0ad8	0.26961398
185	0xbe30b21d	-0.17255445
186	0xbd2f8d3e	-0.04285931
187	0xbe0da10e	-0.13830969
188	0xbf5ed9cc	-0.8705108
189	0x3e4f8dd5	0.20268948
190	0x3dc92540	0.09821558
191	0xbe040175	-0.12891181
192	0x3d816429	0.06317932
193	0x3e84f7e4	0.25970376
194	0xbe32fe1d	-0.17479749
195	0xbe2d4645	-0.16921337
196	0xbec39fcf	-0.38207862
197	0x3e057547	0.13033019
198	0xbd3f6e84	-0.046736255
199	0xbf2c297f	-0.6725082
200	0xbe69214d	-0.2276661
201	0xbe98a6e6	-0.29814833
202	0x3e82a5d2	0.25517136
203	0x3baf6f3e	0.0053538373
204	0xbd40dbf8	-0.04708478
205	0x3dbd866c	0.092541546
206	0xbb900479	-0.0043950644
207	0x3e4de8ff	0.20108412
208	0x3d30893d	0.04309963
209	0xbec9724d	-0.39345017
210	0x3ed21fba	0.4103983
211	0xbde71bc4	-0.11284593
212	0xbe308669	-0.17238773
213	0x3e8d2368	0.27566075
214	0x3e0f56ff	0.1399803
215	0xbee582ba	-0.448263
216	0xbda24c4b	-0.07924708
217	0x3c9d1b60	0.019178092
218	0x3c329fe9	0.010902383
219	0x3ec3df78	0.3825643
220	0x3e56f3d2	0.20991448
221	0xbb891e86	-0.004184547
222	0x3ebda79e	0.37041944
223	0xbe213504	-0.1574288
224	0x3f2a34ae	0.6648663
225	0x3ecfbac4	0.40572178
226	0x3e59e497	0.21278606
227	0x3baec1a3	0.005333142
228	0xbde9428e	-0.113896474
229	0xbf116b2f	-0.56804174
230	0x3ed46d5a	0.4148968
231	0xbedf5573	-0.4361988
232	0x3d41664a	0.04721669
233	0xbe7282bb	-0.23682682
234	0x3cf81a07	0.030285848
235	0xbec09dfa	-0.37620527
236	0xbe20057f	-0.15627097
237	0xbe99b7cb	-0.30023035
238	0xbe826ead	-0.25475064
239	0xbf1f4a63	-0.6222288
240	0xbea14dfd	-0.31504813
241	0xbd41bc6b	-0.04729883
242	0x3ea55cf9	0.32297495
243	0xbece8d84	-0.40342343
244	0xbefdadee	-0.4954676
245	0x3e13cc39	0.14433374
246	0xbeb57941	-0.35444072
247	0xbe1ee51f	-0.1551709
248	0xbe7a8919	-0.24466361
249	0x3d8a000c	0.0673829
250	0xbe98d40e	-0.29849285
251	0xbef793d2	-0.48354965
252	0x3f003c69	0.5009218
253	0xbe3d50f9	-0.1848792
254	0x3ca85e9c	0.020552926
255	0x3c2bab70	0.010477886

network_body._body_endoder.seq_layers.2.bias f4 [128]
0	0xbd59597f	-0.053063866
1	0x3b926ebd	0.0044687674
2	0xbd1d8ea9	-0.03846613
3	0xbd45a521	-0.048253182
4	0xbb201757	-0.0024427974
5	0xbd4d1e45	-0.050077695
6	0xbbbca883	-0.005757393
7	0xbcdee3ad	-0.027208174
8	0xbb707314	-0.0036689686
9	0x3bc4e93a	0.006009248
10	0xbb31f5ae	-0.0027154493
11	0xbda585ad	-0.08082137
12	0xbd386d15	-0.045025904
13	0x3b2c9361	0.0026332962
14	0xbd05768a	-0.03258375
15	0xbd445da5	-0.04794087
16	0xbbad5195	-0.0052892664
17	0xbc8963d4	-0.016771235
18	0xbd5ec61a	-0.054388143
19	0xbce532c2	-0.027978305
20	0xbc993949	-0.018704074
21	0xbd1ede49	-0.038786206
22	0xbb36bfda	-0.0027885349
23	0x3c6b6cb7	0.014369181
24	0xbd3787b1	-0.04480714
25	0xbd4d410b	-0.050110858
26	0xbc9ca35d	-0.019120866
27	0xbcacda37	-0.021100147
28	0x3cf97022	0.030448977
29	0x3c5850d2	0.013202863
30	0xbcd656b4	-0.02616439
31	0xbd2dd22a	-0.042436756
32	0xbbcc7449	-0.006239448
33	0x3b8c9639	0.004290369
34	0x3bf18937	0.0073710936
35	0x3c62529b	0.01381364
36	0xbccc37bb	-0.024928918
37	0xbc755fa3	-0.014976415
38	0xbd304499	-0.04303417
39	0xbcdfa624	-0.027300902
40	0xbd2084eb	-0.03918926
41	0xbd23eaec	-0.04001896
42	0x3a999861	0.0011718386
43	0xbd41e6f5	-0.0473394
44	0xbced992d	-0.029003704
45	0xbd224421	-0.039615754
46	0x3c90d79e	0.01768094
47	0x3d57d2fc	0.052691445
48	0xbcca78b8	-0.024715766
49	0xbd14d567	-0.03633633
50	0x3b362d5b	0.002779803
51	0xbcd53473	-0.026025986
52	0xbc1dbf90	-0.009628192
53	0x3c27877b	0.010225172
54	0xbcad1577	-0.0211284
55	0x3c9d86fe	0.019229408
56	0xbd22d4b3	-0.039753627
57	0xbcaa03a1	-0.020753684
58	0x3c51f201	0.012814046
59	0xbca8964e	-0.020579483
60	0x3d073080	0.033005238
61	0x3cb0982b	0.021556934
62	0xbbb2a3be	-0.0054516485
63	0xbd67060d	-0.056402255
64	0xbd337cfb	-0.043820363
65	0x3a31e0b0	0.0006785495
66	0x3b5dde0e	0.0033854279
67	0xbc9a06a5	-0.018801996
68	0xbc894a28	-0.016758993
69	0xbb1e5956	-0.0024162135
70	0x3ca7d17e	0.020485636
71	0x3d2246c0	0.039618254
72	0x3b805f2c	0.0039175954
73	0x3a56fed5	0.0008201425
74	0xbd45f7ea	-0.048332132
75	0x3d2fcc72	0.042919584
76	0xbc545111	-0.012958781
77	0x3c25f45c	0.010129061
78	0xbdab6dd3	-0.08370557
79	0xbdc75580	-0.09733105
80	0xbd6a66ac	-0.05722682
81	0xbc8966f7	-0.01677273
82	0xbd0119c9	-0.03151873
83	0xbc118785	-0.008882408
84	0x3d25baf8	0.04046151
85	0x3accda8c	0.0015629097
86	0xbd96c966	-0.073626325
87	0xbc0f8918	-0.008760713
88	0x3c870c84	0.01648546
89	0xbc3467f9	-0.011011117
90	0xbd34748b	-0.044056457
91	0xbc3d0241	-0.011536182
92	0xbb819c9c	-0.003955437
93	0xbcbab038	-0.022789106
94	0xbd7f9559	-0.06239829
95	0xbd409f0f	-0.04702669
96	0xbd791ebe	-0.060820334
97	0xbc9bb0a0	-0.01900512
98	0xbd2ab33e	-0.041674845
99	0xbc27a763	-0.010232779
100	0x3ce0fccc	0.027464293
101	0x3c8de2d1	0.017320069
102	0x3d7f5f03	0.06234647
103	0x3cbfb82e	0.023403253
104	0xbd34c412	-0.0441323
105	0xba86ff96	-0.0010299559
106	0xbc176b63	-0.009241912
107	0xbd1fd18c	-0.0390182
108	0xbc7738db	-0.015089239
109	0xbd48524e	-0.048906617
110	0xbc9f5c2e	-0.019453134
111	0xbc4ca6f4	-0.012490977
112	0xbd4f7240	-0.050646067
113	0xbd2a372a	-0.041556515
114	0xbbe41f7c	-0.006961761
115	0x3c9997d1	0.01874915
116	0x3d207fd2	0.0391844
117	0xbb8747e6	-0.004128444
118	0xbd1dbcfe	-0.038510315
119	0xbc2a42dc	-0.010391917
120	0xbca07009	-0.019584673
121	0x3b916c8c	0.0044379886
122	0x3c7286c0	0.014802635
123	0x3c440ec3	0.01196641
124	0xbd5a7176	-0.05333086
125	0x3b40b3a0	0.002940394
126	0xbd95ea7f	-0.07320117
127	0x3cac511f	0.021034775

network_body._body_endoder.seq_layers.2.weight f4 [128, 128]
0	0xbe818043	-0.25293168
1	0xbdd479e3	-0.103748105
2	0xbba1a387	-0.004932824
3	0xbd8babb3	-0.068198584
4	0xbdf84a06	-0.12123494
5	0x3e321d06	0.17393884
6	0xbd7070c2	-0.058701284
7	0xbe0124c3	-0.1261168
8	0x3d5ddac9	0.054163728
9	0x3dc151bd	0.094394185
10	0x3da62660	0.08112788
11	0xbe33d0c1	-0.17560102
12	0xbdeff362	-0.117163435
13	0x3d5e1bc3	0.054225694
14	0x3c6881f8	0.014191143
15	0x3d83295d	0.06404374
16	0x3e04def6	0.12975678
17	0xbe3fb13e	-0.18719956
18	0x3e1be7dd	0.15225168
19	0x3d642bb1	0.05570573
20	0x3ddcb250	0.10776198
21	0x3d3f1d6b	0.046658915
22	0xbcdfaefa	-0.027305115
23	0x3d06c5a2	0.03290332
24	0x3e44737f	0.19184683
25	0x3c0b1621	0.008489163
26	0xbe05debe	-0.1307325
27	0xbb5598de	-0.0032592337
28	0xbd8da6b7	-0.06916564
29	0xbce7cf22	-0.02829701
30	0xbe3a6e52	-0.18206146
31	0xbdb61084	-0.08889869
32	0xbc6e3779	-0.014539593
33	0xbd307560	-0.043080688
34	0x3ca688f2	0.020328972
35	0xbc32fa3e	-0.01092392
36	0x3d7e80ce	0.062134556
37	0xbbcc90df	-0.006242856
38	0xbc7cea91	-0.015436784
39	0xbd655e56	-0.05599817
40	0x3d02d70a	0.03194336
41	0xbd1b734b	-0.03795175
42	0xbd559866	-0.05214729
43	0x3e840a7b	0.25789246
44	0x3e2cad28	0.16862929
45	0xbb025bac	-0.0019891066
46	0x3ddfc850	0.109268785
47	0x3a86fbed	0.0010298468
48	0x3d63fb76	0.055659734
49	0x3cba0d39	0.022711383
50	0x3d294fe9	0.041335974
51	0x3df5a0b6	0.11993544
52	0xbd98b3f8	-0.07456201
53	0x3c791ec8	0.015205093
54	0xbd9b10b9	-0.07571549
55	0xbc0577df	-0.008146255
56	0x3ba5b7df	0.0050573195
57	0x3e455bb3	0.19273262
58	0x3deb5fd5	0.11492888
59	0xbb9c6951	-0.004773297
60	0xbde33a41	-0.110950954
61	0xbdaeb1bc	-0.08529994
62	0xbe017236	-0.12641224
63	0x3d29b3a2	0.041431077
64	0xb6aba833	-5.115778e-06
65	0x3d35677b	0.04428814
66	0xbe1cb04b	-0.15301625
67	0x3d87b9f4	0.066272646
68	0xbc883b70	-0.016629905
69	0x3c300b59	0.010744893
70	0xbe0bc078	-0.1364764
71	0x3d1c928f	0.038225707
72	0x3da7d112	0.08194174
73	0xbdf47ae6	-0.119375035
74	0xbdc4ac4f	-0.09603178
75	0x3e03b8b5	0.12863429
76	0xbd0fbdda	-0.035093166
77	0xbd9ab45f	-0.07553934
78	0xbbf4782e	-0.0074606156
79	0xbddb8e21	-0.10720468
80	0xbd90862d	-0.07056842
81	0xbde2c902	-0.110734954
82	0xbd9228ab	-0.07136663
83	0x3d94a337	0.07257693
84	0xbe412858	-0.18863046
85	0x3e1ca30c	0.15296572
86	0xbde76593	-0.112986706
87	0x3d0647ee	0.03278344
88	0xbd8a103f	-0.0674138
89	0x3ba13c14	0.004920492
90	0xbd93bb60	-0.07213473
91	0xbe1785e7	-0.14797173
92	0x3d9111fe	0.0708351
93	0xbdfff718	-0.12498301
94	0xbe066d4d	-0.13127632
95	0xbd857a8f	-0.06517517
96	0xbd8a3c42	-0.067497745
97	0x3d25f228	0.04051414
98	0xbdf3f086	-0.119111106
99	0x3e23d4f7	0.15999208
100	0x3e141e46	0.14464673
101	0xbdf35ef4	-0.11883345
102	0xbdb122bf	-0.086492054
103	0x3d6cb91d	0.057793725
104	0x3d8fe739	0.07026524
105	0x3d3da2f6	0.04629799
106	0xbd2446d4	-0.04010661
107	0x3bd62aaf	0.00653585
108	0xbe922a0f	-0.28547713
109	0xbcb769a4	-0.02238924
110	0xbe55763d	-0.20845886
111	0xbc40512c	-0.011738103
112	0xbdfc6873	-0.123246096
113	0xbcda4d33	-0.02664814
114	0xbdef0a07	-0.116718344
115	0xbb9415f4	-0.0045192186
116	0x3d4931d2	0.049119778
117	0x3d809ea5	0.06280259
118	0xbd752ad6	-0.059855305
119	0x3d69d69a	0.057089426
120	0x3d386612	0.045019217
121	0xbe7c6e91	-0.24651553
122	0xbd61c147	-0.055115964
123	0xbd0ed101	-0.03486729
124	0xbcf47722	-0.029841963
125	0xbc099626	-0.008397615
126	0xbe0d92f8	-0.13825595
127	0xbca543aa	-0.020173866
128	0xbda6f04b	-0.08151301
129	0x3d1318c3	0.035912286
130	0x3afd755b	0.0019337343
131	0xbcef17c5	-0.029186139
132	0xbc839a19	-0.01606469
133	0xbe05df0f	-0.13073371
134	0x3d0785a5	0.033086438
135	0xbde35094	-0.110993534
136	0xbe1793a3	-0.14802413
137	0xbd53cfa0	-0.05171168
138	0x3b009f83	0.0019626326
139	0x3e8612b9	0.2618616
140	0x3e1dae6f	0.15398572
141	0xbdbdcad4	-0.09267202
142	0xbc82915e	-0.015938457
143	0x3d126630	0.035741985
144	0xbe4cfc94	-0.20018226
145	0x3d5629ce	0.05228596
146	0xbd6dc593	-0.05804975
147	0xbd0023a2	-0.031283982
148	0xbc56ff24	-0.013122354
149	0x3de56589	0.11201007
150	0x3dc804e2	0.09766556
151	0xbd391873	-0.045189332
152	0xbd00f937	-0.03148767
153	0xbdf1af7d	-0.1180105
154	0xbd9dbb0a	-0.077016905
155	0xbe922bac	-0.28548944
156	0xbd34c56c	-0.04413359
157	0x3d70a918	0.05875501
158	0xbd8044d8	-0.06263131
159	0xbdc8851e	-0.09791015
160	0xbcde3ca9	-0.027128534
161	0xbe0834b8	-0.1330136
162	0xbdd031ed	-0.101657726
163	0xbd4029d0	-0.046914876
164	0x3d4c4af3	0.049876165
165	0xbe3782af	-0.17920946
166	0x3a8a9fee	0.0010576227
167	0xbcc091d8	-0.023507044
168	0xbd99362b	-0.07481035
169	0xbd82bdfa	-0.063838914
170	0xbe2c0b11	-0.16801096
171	0x3d6d9633	0.05800457
172	0xbe0b8697	-0.1362556
173	0xbc64ce4c	-0.013965201
174	0xbe33b2b1	-0.17548634
175	0x3d22277d	0.03958844
176	0xbd399ab9	-0.04531357
177	0xbe29c11f	-0.16577576
178	0x3cd1076e	0.025516238
179	0x3c670cf7	0.014102212
180	0x3e110830	0.1416328
181	0x3d9fdca2	0.07805754
182	0x3cbce829	0.023059921
183	0x3df01a06	0.117237136
184	0x3d021fd3	0.03176863
185	0xbd4d1480	-0.05006838
186	0xbd1fca87	-0.039011505
187	0x3df48014	0.119384915
188	0xbd669c6a	-0.05630151
189	0x3d35bc93	0.04436929
190	0x3dc21844	0.094772846
191	0xbe2641d3	-0.16236047
192	0x3c8c08ac	0.017093979
193	0xbd2f6467	-0.04282036
194	0x3e016daf	0.12639497
195	0x3b10c89f	0.0022092236
196	0x3d528fa6	0.051406525
197	0xbdb8cd8b	-0.09023579
198	0x3e266009	0.16247572
199	0x3d125b3a	0.03573153
200	0x3d25e95a	0.040505745
201	0xbc682392	-0.014168637
202	0x3d823689	0.06358058
203	0xbe0d5d33	-0.13805084
204	0xbdf4b338	-0.11948246
205	0xbd1009c2	-0.035165556
206	0x3d9d10bf	0.0766921
207	0xbbf08e7d	-0.0073412047
208	0x3e17e1ef	0.1483228
209	0xbe30bd58	-0.17259729
210	0x3e012af5	0.12614043
211	0xbd3530db	-0.044236045
212	0xbd4a756f	-0.0494284
213	0xbe3125f4	-0.17299634
214	0x3d6e15b5	0.05812617
215	0xbd980136	-0.07422106
216	0xbe36c450	-0.17848325
217	0x3dadc5f1	0.0848502
218	0xbdd59607	-0.10429006
219	0xbd885c7d	-0.06658266
220	0xbcdf8546	-0.02728523
221	0x3cac6dd7	0.02104847
222	0x3d944264	0.072392255
223	0xbd3a4a50	-0.045481026
224	0xbe8547b6	-0.26031274
225	0x3afe427c	0.0019398476
226	0xbd82ab42	-0.06380321
227	0xbd9f336a	-0.07773478
228	0xbdeab194	-0.114596516
229	0xbd66ba74	-0.05633016
230	0xbdf365a1	-0.118846186
231	0x3dd5248d	0.10407362
232	0x3d4b1418	0.04957971
233	0xbc919e1e	-0.017775591
234	0x3c59d96f	0.013296469
235	0x3c644a0c	0.01393367
236	0xbe18a8f0	-0.14908195
237	0xbe08cfbd	-0.13360496
238	0xbe057f1e	-0.13036773
239	0x3e9f5d09	0.31125668
240	0x3c658a53	0.01401003
241	0xbddec06b	-0.108765446
242	0x3d1299e1	0.03579128
243	0x3d8be7e6	0.068313405
244	0xbe703140	-0.23456287
245	0xbc99e038	-0.018783674
246	0x3d2be6be	0.0419681
247	0x3d2e1c17	0.042507257
248	0x3c897d7c	0.016783468
249	0xba579e4d	-0.0008225188
250	0xbdfa2030	-0.122131705
251	0x3b7e5eb3	0.003881377
252	0xbc3dd717	-0.011586926
253	0x3ac20289	0.0014801781
254	0xbdd238d0	-0.102647424
255	0x3e9dd954	0.3082987
