Project/Assets/ML-Agents/Examples/SlideMan/SlideMan.onnx (onnx, 75719 bytes, 7 tensors)

action_model._continuous_distribution.log_sigma f4 [1, 3]
000000 1d b3 9d be 21 f2 4c be 28 55 b4 be
       -0.30800715 -0.2001424 -0.3522122

action_model._continuous_distribution.mu.bias f4 [3]
000000 00 a6 07 3d 10 79 8c 3d 41 76 c7 bd
       0.033117294 0.06859028 -0.09739352

action_model._continuous_distribution.mu.weight f4 [3, 128]
000000 0c 4c 0d 3d 9f 28 96 bc c8 dd 5f 3d 07 da 12 3b
       0.034496352 -0.018329917 0.054654866 0.0022407786
000010 af a8 ed bd a5 f1 bc bc 00 ad bc 3b 93 12 e2 3c
       -0.116044395 -0.023064444 0.005757928 0.027596748
000020 a9 7b 97 bd ce f7 06 bc c4 6e 04 be e6 ac 9f bd
       -0.07396633 -0.008237792 -0.12932879 -0.0779665
000030 a4 e4 c5 3c eb 70 5a bd 32 3c dc 3d ab c0 6d 3d
       0.024156876 -0.053330343 0.10753669 0.05804507
000040 a5 87 1e bd 5c 7b a7 bd 0e 8b 7c bc 17 f4 25 bc
       -0.03870358 -0.08177826 -0.015414013 -0.010128996
000050 58 05 75 3d fa be e8 bc 65 d4 e6 bd bd 0e af 3d
       0.05981955 -0.028411377 -0.1127098 0.08547733
000060 78 9c e9 bc dc c4 1c bd 5a cd 2d 3c 2f 44 de 3d
       -0.028516993 -0.038273677 0.010608042 0.10852849
000070 d3 58 ef ba 1e 83 af 3d 4e 89 27 3e c0 39 e0 bd
       -0.0018260725 0.085699305 0.16360971 -0.10948515
000080 80 57 1b bd a5 23 2a 3d 2a 19 b0 bd 94 68 eb bd
       -0.037925243 0.0415379 -0.0859855 -0.11494556
000090 1c 2d a3 3d 96 06 80 bd 54 49 23 be d5 a0 1c bd
       0.07967588 -0.06251256 -0.15945941 -0.03823932
0000a0 e2 7d 16 3d 5a cf 19 bd 2e 9b 00 be ef d2 30 3d
       0.036741145 -0.03755126 -0.12559196 0.043169912
0000b0 28 c3 8e 3c 9e f0 0b 3d 17 60 3e bc e7 d2 67 bd
       0.017427042 0.034165017 -0.011619589 -0.056597617
0000c0 3c 0b 28 bd c4 c0 e6 3d aa 7c 97 3c 52 26 13 3d
       -0.04102634 0.11267236 0.018492062 0.035925217
0000d0 85 10 7c 3b d8 14 9b bd d9 a1 04 3d c1 67 81 3b
       0.0038461995 -0.07572335 0.032380912 0.003949136
0000e0 10 1b 87 3d 1d dc 95 3c 7a 41 10 bd 17 b3 6f 3c
       0.06596959 0.018293435 -0.035218693 0.014630101
0000f0 6d 00 01 be 3f 14 14 be 31 9e ed bd 77 ab cb bd
       -0.12597819 -0.14460848 -0.11602438 -0.09944814
000100 05 93 17 bb 4d 7e bc bd 94 b1 99 bd 5a 2d 0b 3b
       -0.0023128402 -0.092037775 -0.075045735 0.0021236748
000110 01 7f 2d bc e1 f0 b6 3c ce 87 f4 3d 0c 64 af 3d
       -0.010589362 0.022331657 0.11939965 0.08564004
000120 a2 2c a2 bd a1 21 a5 bd 9c bc 6d 3c 4a ff 81 bc
       -0.07918669 -0.08063055 0.0145103 -0.015868802
000130 64 4d 3f bd ff 0b 12 be a0 13 72 be 37 60 27 bd
       -0.046704665 -0.14262389 -0.23640299 -0.040863242
000140 d0 eb ab bc 18 12 f9 3c 21 90 59 3d 17 ea 15 3d
       -0.020986468 0.030404136 0.053115968 0.0366002
000150 b8 2c b4 3c 73 32 d7 bd 3b af 02 be 34 53 97 bd
       0.02199398 -0.10507669 -0.12762158 -0.073889166
000160 e0 7b 61 bd ad e8 50 bd f7 a4 32 bd 33 ae 35 bb
       -0.055049777 -0.051003147 -0.043614354 -0.002772224
000170 97 fb 7d bc e7 64 49 bd f6 d2 ff bd 15 00 14 3e
       -0.015501878 -0.049168494 -0.124914095 0.14453156
000180 09 dd 88 3d 8c 65 a7 bd e6 ae d0 bd 0a 25 23 bd
       0.06682784 -0.081736654 -0.10189609 -0.039830245
000190 ca 5d 28 bd 5f f7 84 3d 2b 26 d7 bc 01 f0 07 be
       -0.04110507 0.06492495 -0.026263317 -0.13275148
0001a0 5c 8c 01 3e 62 f3 98 3d fd 00 9c bd 49 87 4a bd
       0.12651199 0.074682966 -0.07617376 -0.049445424
0001b0 53 26 1f be 1d fb 28 bc f8 9a 1b be 4e d4 db bc
       -0.15541963 -0.010313776 -0.15195835 -0.026834633
0001c0 c7 ef c6 bd ea a7 20 be 7d 63 c4 3d cc 43 99 bd
       -0.09713703 -0.15689054 0.095892884 -0.07483634
0001d0 51 b1 9d 3b b9 86 33 3c 16 b1 01 bd 70 88 04 bd
       0.0048123975 0.010957413 -0.031663023 -0.03235668
0001e0 64 e0 16 bd ec b8 49 be d5 7b 1b be 7d 25 6b bd
       -0.03683509 -0.19699448 -0.15183957 -0.0574088
0001f0 1a cd 43 bd 53 dc fe bc be 4c 20 3d 4c a5 f8 bd
       -0.047803022 -0.031110918 0.039135687 -0.12140903
000200 e7 54 e3 bd d0 32 c2 bd c2 68 c6 3d ed 39 8a 3d
       -0.11100178 -0.09482348 0.0968795 0.0674933
000210 ab fa f4 bc 8a c5 9d 3d 2b 41 ee bc 11 27 1a 3d
       -0.029904684 0.07703693 -0.029083809 0.037634913
000220 20 9a 29 bd f9 b9 25 3a 51 71 0a bd c3 c7 44 3b
       -0.04140675 0.00063219626 -0.033799473 0.0030026294
000230 e9 90 18 bd 00 ea 43 bc 76 86 55 3d 7c cd 11 3d
       -0.037247572 -0.011957645 0.052130185 0.035596356
000240 a8 f8 01 bd ea c1 cf 3b ca b5 06 bd e8 1c 26 3d
       -0.031731278 0.006340255 -0.03288821 0.04055491
000250 43 ea a5 bd 91 b6 29 bd c8 50 7d 3d 9c bf aa 3d
       -0.081013225 -0.041433875 0.061844617 0.08337328
000260 71 a9 0f bd 8e df 9c bb 54 10 bf bc d2 f0 72 bd
       -0.0350737 -0.004787392 -0.023323216 -0.059311695
000270 dc a9 fd 3d d7 e7 0d 3d 66 66 34 3d 07 8d 97 bd
       0.12385914 0.034644928 0.044042967 -0.07399946
000280 58 41 ec 3d 42 75 97 bd a4 15 56 bd 81 13 f6 bc
       0.11535901 -0.07395412 -0.05226673 -0.030038597
000290 a5 ec 57 bd de ac ce bd 0c 23 0c bd 24 5b ec 3c
       -0.052715916 -0.100915655 -0.03421311 0.028852053
0002a0 e4 18 72 3d 2c 31 09 3d 8a 38 8f 3c b4 24 e3 3b
       0.05910577 0.03349416 0.017483015 0.0069318656
0002b0 60 83 e0 3b 24 87 73 bd a4 bf c0 bb b3 72 93 bd
       0.0068515986 -0.059455052 -0.0058822203 -0.071996115
0002c0 bf f0 ae bd f4 02 ce bd 73 42 65 3b 46 90 64 bd
       -0.085420124 -0.10059157 0.0034982234 -0.055801652
0002d0 4b 64 68 bd e5 2a 81 3d 30 de 69 bd 78 e2 4e bd
       -0.05673627 0.063070096 -0.05709666 -0.050508946
0002e0 f7 b9 29 bd fc 46 66 bd 74 73 14 3d 5b 42 ce 3d
       -0.041437116 -0.05622004 0.036242917 0.1007125
0002f0 75 ba ff 3d 63 80 6c bc ff e2 88 bd 6c 0f b0 bc
       0.12486736 -0.014434907 -0.06683921 -0.021491729
000300 b9 68 38 3d 91 02 ab bd c8 35 2b bd 4d 88 45 bd
       0.045021746 -0.08350099 -0.041799337 -0.04822569
000310 1d 36 a6 bd 3c 7b b6 3d d1 a2 15 be fa 5d 84 bd
       -0.0811579 0.08910224 -0.14612891 -0.06463237
000320 48 42 a7 3d 87 02 bb bd ce 00 b5 bc 33 50 c0 ba
       0.08166939 -0.091313414 -0.02209511 -0.0014672339
000330 4e ad cc 3d e2 66 0d 3e 26 9f 96 3c 36 4b c4 bb
       0.09993993 0.13808778 0.018386435 -0.005990411
000340 bc 19 08 bd 09 5c a4 3d 96 9a d4 bd 82 b9 a7 3d
       -0.033227667 0.08025367 -0.103810474 0.0818968
000350 06 0d c2 3c 22 7b ca 3d 5a 2c 16 bc e2 77 80 bd
       0.02368785 0.09886767 -0.009165848 -0.06272866
000360 4d 35 e6 3c 4a a0 07 3d de 1b d3 3c 5a af c2 3c
       0.028101588 0.033111848 0.025770124 0.023765255
000370 d2 b9 92 3d d8 06 91 bd f1 12 e2 bd 96 f6 66 bc
       0.07164349 -0.070813835 -0.11038769 -0.014096877
000380 3f 1a b2 3c 5c 49 dd 3d 0e 22 21 3b 27 5c 9c bb
       0.02174103 0.10805008 0.0024586949 -0.0047717276
000390 80 25 e8 bc 73 8e bb bc 88 5d a7 3d c2 9f 29 3e
       -0.028338194 -0.022895074 0.081721365 0.16564849
0003a0 c9 d4 e6 bd 37 5e 48 be 47 20 bc bd a1 f9 95 3b
       -0.11271054 -0.1956719 -0.09185844 0.004576877
0003b0 27 da e4 bc 2e 67 aa 3d 5d ee cd 3d 78 13 45 bd
       -0.027936054 0.08320461 0.1005523 -0.04811427
0003c0 cf 6b a0 3d 41 32 8e 3d 0c d1 7a bd e3 ae f6 3b
       0.07833063 0.06943179 -0.06123452 0.0075281723
0003d0 8b ff b7 bd 88 8e c4 3c 88 3c 2a 3d 14 2a df 3c
       -0.08984288 0.023993745 0.041561633 0.027241744
0003e0 b8 20 98 3c d9 23 fd 3d e8 ad 0d 3d 99 9c 9a bd
       0.018570289 0.12360353 0.034589678 -0.075494
0003f0 4b f7 e4 bd e5 52 0b 3e c4 3e 08 3e 02 63 07 3d
       -0.1117998 0.1360584 0.13305193 0.033053406

network_body._body_endoder.seq_layers.0.bias f4 [128]
000000 00 18 dd bc 04 8f 60 bc 6d 8c 8f 3d a3 31 da ba
       -0.026988983 -0.013705973 0.07009206 -0.0016646873
000010 b5 86 94 3d 8d 15 f8 bb 40 84 35 3d 95 d5 a1 3a
       0.07252256 -0.0075709284 0.044315577 0.0012346978
000020 5d 9c da bd cb e6 8e 3c 59 2b 02 bc 0b 6d a0 bd
       -0.10674355 0.017444035 -0.007944905 -0.07833298
000030 87 b0 d7 bd 0b c6 31 bd 93 60 2c bd 83 3e f0 bd
       -0.10531717 -0.04340176 -0.042084288 -0.11730673
000040 e5 da bf bd 10 d9 49 bd 60 b2 99 bd b8 38 45 bc
       -0.09367923 -0.049279273 -0.075047255 -0.012037449
000050 fa e0 a3 bd 43 5b 4c bd 9a 25 b6 bd 49 35 80 bd
       -0.08001895 -0.04989172 -0.08893891 -0.06260163
000060 ca 94 4f 3d e7 1b 20 bd 10 7d f9 3c 80 ba 9f 3c
       0.050679006 -0.03908911 0.030455142 0.01949811
000070 17 b7 e3 3d 1c 89 15 bd 20 af c1 bd 3c 37 e0 3c
       0.11118906 -0.03650771 -0.094572306 0.027370088
000080 4c 7d 26 3c 97 c0 83 3d 25 9d 0b 3e c9 d6 85 bc
       0.010161709 0.06433218 0.13634165 -0.01633777
000090 72 49 96 bd d4 68 63 bd 7c 6d 85 3d 4f 49 04 bd
       -0.07338227 -0.055519894 0.06515023 -0.032296475
0000a0 1d 28 05 3c 78 5e 79 3a a2 19 41 be e8 67 17 bc
       0.0081272395 0.0009512673 -0.18857434 -0.009241082
0000b0 5f f6 61 3d f5 47 f7 bc 49 b0 8d 3b f8 ff 3e bd
       0.0551666 -0.030185679 0.0043239933 -0.04663083
0000c0 4d 2d f2 bb 7b 1c e5 3b 93 b6 62 bd 37 d1 c3 bd
       -0.007390654 0.0069919205 -0.055349898 -0.09561389
0000d0 14 99 b3 bd 43 46 1a be a4 01 c4 3c 16 58 fa bd
       -0.08769432 -0.15065865 0.023926564 -0.12223832
0000e0 42 32 4d 3d 8c a3 10 bd 98 84 ad 3d 72 14 9a bd
       0.050096758 -0.03531222 0.08472556 -0.07523431
0000f0 52 46 ac bd cb fc 93 3b 48 8c bd bc f8 7d cb bd
       -0.0841185 0.0045162193 -0.02313818 -0.09936136
000100 25 4f 02 be b6 eb 8c 3c a6 f8 10 bd d5 28 91 bc
       -0.12725504 0.01720224 -0.03539338 -0.017719666
000110 cd 27 e5 bd 75 c1 2f bc 1a fd b1 bd ed 82 e0 bd
       -0.11189232 -0.010727276 -0.086908534 -0.10962472
000120 c2 9a d7 3b cd 34 b9 bd 0b 92 c2 bd 62 8c 39 bc
       0.006579728 -0.09043274 -0.09500512 -0.011324974
000130 f7 ef 5b bd 86 84 a0 3d 84 5f 1f be 1d 89 37 bc
       -0.053695645 0.07837777 -0.1556378 -0.011202124
000140 db 84 d0 bc a1 34 99 bd 19 f3 8a 38 ff 08 50 bd
       -0.025453975 -0.07480741 6.625633e-05 -0.05078983
000150 f3 eb 46 bd c2 48 a5 3b 77 d2 a5 bd 5d 49 b5 bc
       -0.048564862 0.005044074 -0.080967836 -0.022129709
000160 ec d2 a9 3d 93 55 c7 3c 85 8d 01 3e e1 53 13 39
       0.08292183 0.024332797 0.12651642 0.0001405026
000170 87 4a 94 bd 53 0c 19 be 0e fb cd bd 3e 7b 9b bc
       -0.072407775 -0.14946108 -0.100576505 -0.018979665
000180 e2 5a 25 3d a0 6e 4d 3c 0a be 1f 3d 45 1c 4d bd
       0.040369876 0.012538582 0.038999595 -0.050075788
000190 d5 89 b7 bd 8f cc 13 bd d8 b1 cc bc ea 23 06 3e
       -0.08961836 -0.036083754 -0.024987146 0.13099638
0001a0 c8 ee dc bc e2 71 93 bd 36 41 b7 bb d9 74 ee bb
       -0.026969329 -0.07199456 -0.0055924905 -0.007277113
0001b0 74 b9 69 3c 04 11 10 3d 9c a0 cc 3d bf a4 99 bd
       0.014265407 0.035172477 0.09991571 -0.07502126
0001c0 95 3f 5a bd d6 29 6d 3d 90 a8 03 be 57 2f c5 bd
       -0.053283293 0.057901226 -0.1285727 -0.0962817
0001d0 00 c0 48 3d e6 dc 68 bb a2 1e 07 be f5 61 89 bc
       0.04901123 -0.0035532056 -0.13195279 -0.016770342
0001e0 b6 88 07 3d 1e 9f aa 3d df c4 0c be 8a d5 0c 3d
       0.033089362 0.083311304 -0.13746975 0.034383334
0001f0 93 a3 a0 bd 6a 6f 55 bd 12 3b 09 3d 14 87 86 3d
       -0.07843699 -0.052108206 0.0335036 0.06568733

network_body._body_endoder.seq_layers.0.weight f4 [128, 11]
000000 4c 8b 30 be 98 89 2a be 52 63 bb 3d 44 be c2 3e
       -0.17240638 -0.1665405 0.09149803 0.38035786
000010 81 03 f3 be 37 c1 b7 3e d1 b4 51 3e 09 79 7a bd
       -0.4746361 0.358896 0.20479132 -0.061150584
000020 f9 65 ab 3e e8 36 8a be 87 cd 83 3d 43 0d 7f bd
       0.33476236 -0.26995015 0.064356856 -0.062268507
000030 ad a6 64 be b2 18 30 3e ca 99 ae bd fc 39 0c 3f
       -0.22329207 0.1719692 -0.08525427 0.5477598
000040 ff b4 64 be ae a6 54 bc 11 58 22 3e bf a5 01 bf
       -0.2233467 -0.012979193 0.15853907 -0.50643533
000050 f6 b4 f4 be 7d 60 8e 3e 8f f6 38 3c 44 24 07 be
       -0.47794312 0.2780799 0.011289253 -0.13197428
000060 64 68 75 be 5a ed 9c be 16 6b 32 3e 14 4a 28 bd
       -0.23965603 -0.30649835 0.17423663 -0.04108627
000070 ea c8 db 3e bb 3d f1 3e fb 2f f3 3e f8 80 99 be
       0.42926723 0.4711741 0.47497544 -0.29981208
000080 49 7b e8 bd 9e 27 37 3e d3 5e 4c 3f 81 22 49 bd
       -0.1135164 0.17886207 0.7983219 -0.04910517
000090 40 de 90 be 89 d2 29 3e aa e1 65 bc 50 87 6f be
       -0.28294563 0.16584219 -0.014030853 -0.23391461
0000a0 c3 1e ef 3c 52 9f f2 3e f3 70 20 3e 1f 11 31 3e
       0.029189473 0.47387177 0.15668087 0.17291687
0000b0 63 15 c2 3e f2 ae dd be 51 e5 a2 3e 39 14 48 bd
       0.37906942 -0.43297535 0.3181558 -0.04884741
0000c0 2d 4c 43 3e 90 07 8f 3e 64 be 6d 3e 53 0e c0 3d
       0.19072028 0.27935457 0.2321716 0.09377732
0000d0 4a 8e ac 3e 1e 01 23 be fc fb 94 be 37 fd 32 3e
       0.33702308 -0.15918395 -0.290985 0.17479406
0000e0 e2 c4 e8 be f5 42 41 3e bf e2 4d 3e e9 1c 73 bd
       -0.4546271 0.18873198 0.20106028 -0.059353743
0000f0 e2 12 1f 3e 5e c0 fc 3e 33 1a ef be 4b 4e 45 bf
       0.15534547 0.49365515 -0.46699676 -0.7707259
000100 58 ac 57 3e 80 3f 84 3e 36 a5 d3 bd da d1 e5 be
       0.21061838 0.25829697 -0.10334246 -0.44886667
000110 38 3e 05 3f 37 c0 83 3e e7 3e 55 bd 00 ec a4 be
       0.52048063 0.25732586 -0.05206194 -0.32211304
000120 a6 73 39 3f 5b 8b 19 be 35 1b cf 3d 36 db 1b bd
       0.7244209 -0.14994566 0.10112611 -0.038050853
000130 0a 7e 15 3e d4 99 30 be 05 32 05 bf 60 61 39 3e
       0.14598861 -0.17246181 -0.5202945 0.18103552
000140 db 6c 67 3e e8 04 fe 3e 0e 57 ed bd d1 b0 3a 3e
       0.22600119 0.49613118 -0.1158887 0.18231513
000150 58 0c c5 be 15 0a 9b 3c bf 3d c2 3e e4 4e dc 3d
       -0.3848598 0.018925706 0.37937734 0.10757235
000160 3f 8b 19 bf af f6 68 3d 6a eb 66 be ed 0a ac be
       -0.599781 0.05687588 -0.22550741 -0.33602086
000170 32 33 89 be 5c a8 92 3d 43 73 35 3f 82 df 44 be
       -0.2679687 0.07161018 0.70879 -0.19225886
000180 cd ba 71 bd 63 53 cc 3d 8e 8f eb 3e e4 8f cf 3d
       -0.059016038 0.09976842 0.4600796 0.10134867
000190 fa 98 54 3d f6 5c af 3e a1 1e 2f be eb 90 74 be
       0.051903702 0.3425061 -0.17101528 -0.23883407
0001a0 00 e9 60 be fd 1e 42 bf 72 a3 a3 3d 46 70 56 bd
       -0.21963882 -0.75828534 0.07990159 -0.052353166
0001b0 68 3a ce be 57 da d3 bd d0 71 4b 3e 58 d2 bc be
       -0.40278935 -0.103443794 0.19867635 -0.3687923
0001c0 75 59 b9 3d 30 0d d2 be f8 8a 8e be 42 6b db 3d
       0.09050266 -0.41025686 -0.278404 0.10713817
0001d0 29 33 9c 3e ed 9b 0c be ae 85 ac be b0 3d 10 be
       0.30507782 -0.13731356 -0.3369574 -0.14086032
0001e0 9b 64 c0 be 10 8a 25 bd 46 51 0e be 29 4a a2 be
       -0.37576756 -0.04041487 -0.13898191 -0.31697205
0001f0 a4 47 5b 3d e2 4e 7d be a2 79 09 bf 29 24 ef 3e
       0.05353512 -0.24737123 -0.5370122 0.46707276
000200 45 80 58 bd f7 8f 19 be 87 ca 59 bf 69 a5 10 bf
       -0.052856702 -0.14996324 -0.8507466 -0.56502396
000210 27 0f 92 be d7 54 24 bf 91 bd 3d be 4c cc ba be
       -0.28527185 -0.64191955 -0.18529345 -0.3648399
000220 e6 a2 18 bf b2 57 09 bf 79 18 a9 3d be d0 92 be
       -0.59623563 -0.5364944 0.08256621 -0.28674883
000230 7c 57 1d 3f 54 26 dd 3e a8 59 89 3e 62 a1 dc bd
       0.61461616 0.43193305 0.26826215 -0.10772969
000240 ae fc 9d 3e 89 ec cb 3d 2b 68 1b 3e 08 3e d0 be
       0.30856842 0.09957225 0.15176456 -0.40672326
000250 60 38 41 be 7d 05 85 bc ca 40 79 bc b2 2c df bb
       -0.18869162 -0.016237969 -0.015213201 -0.006810748
000260 71 d2 e2 be 7b ab 61 bd c5 fb 26 bf ea dc df 3e
       -0.4430118 -0.055095177 -0.6522792 0.43723232
000270 7c b8 ce 3e 09 ce 1c 3f 65 6f 07 be 74 34 1c 3e
       0.40375125 0.61251885 -0.13226087 0.15254384
000280 d3 23 23 3e b8 04 aa be 43 16 2d bf 68 50 af 3e
       0.15931635 -0.33206725 -0.67612094 0.34241033
000290 13 4a 29 3d 54 43 f5 3e 58 7a 3e be 02 0a de 3e
       0.04133041 0.4790293 -0.18601358 0.4336701
0002a0 51 72 88 be 6f b0 00 be 02 88 b9 be 7c 37 93 be
       -0.26649716 -0.12567304 -0.36236578 -0.2875327
0002b0 2b f7 03 3f 02 a6 6e bd eb d8 3b be e8 e5 c1 3c
       0.51549023 -0.058263786 -0.18344466 0.023669198
0002c0 22 c0 04 3e 90 46 4b 3e ff 56 18 3f 1c 91 7d 3d
       0.12963918 0.19851136 0.59507746 0.061905965
0002d0 d0 f9 48 3f cf 6a ef be f1 2c de be 1e b9 17 3e
       0.78506184 -0.46761176 -0.43393663 0.1481671
0002e0 2a 43 3f be 5b 33 da be 9b a8 88 bd 8d 02 87 3e
       -0.18677965 -0.42617306 -0.06672784 0.26369134
0002f0 03 52 f9 3d 63 e6 04 be 0a 51 c4 3e 2b 8c 3d 3d
       0.121738456 -0.1297851 0.38343078 0.046276253
000300 83 71 13 3e 8c e9 01 3e 23 fa 55 be c8 08 38 3e
       0.1439877 0.12686747 -0.20896201 0.179721
000310 1d db 0d be 24 ed cd be a9 a8 5e 3e 9d 29 e8 3d
       -0.13853116 -0.40219986 0.21744026 0.11336062
000320 7a c6 8b 3b 6c 27 35 3e 54 b9 94 be 90 f3 d4 3e
       0.0042656036 0.1769082 -0.29047644 0.41592073
000330 ff 35 c9 3e 69 a0 68 3e 07 93 62 3f bf d6 2e be
       0.39299008 0.22717442 0.88505596 -0.17074107
000340 10 e2 07 bf 2c d7 a7 3e cb 9e 3b 3f 0d d8 2c 3c
       -0.5307932 0.3278135 0.73289174 0.010549557
000350 0a ea 14 be f1 be f8 bd 57 1a a3 3e c9 b3 d5 bd
       -0.14542404 -0.12145794 0.31856033 -0.10434682
000360 b1 a0 a4 3e 2a 38 c9 bd 8c b2 3e 3f 7f 4f ba 3e
       0.32153848 -0.098251656 0.7449119 0.36388776
000370 96 46 af be 20 ae a0 3d 35 3e 75 be e1 35 a9 3e
       -0.3423354 0.07845712 -0.23949511 0.3304892
000380 bc 6c 3c bd 3e 81 0e be ca 67 c9 be c0 a0 da 3c
       -0.046002135 -0.1391649 -0.39336997 0.02668798
000390 bd 5d f0 bd 4f 2f e9 bd b7 f4 97 be d9 e0 01 bf
       -0.11736629 -0.113859765 -0.2967889 -0.50733715
0003a0 c7 bd 21 3e 51 ef d7 3e ac f8 29 3e 98 35 80 3e
       0.1579505 0.4217477 0.16598767 0.2504089
0003b0 4c cc 8d be de 49 70 bd 2c af 1e be e0 d8 b7 3d
       -0.2769493 -0.058664195 -0.1549651 0.089769125
0003c0 6e ad 7f 3e a2 d9 b6 be fd e2 fc 3e 22 6a ca bb
       0.24968502 -0.35712916 0.49391928 -0.006177203
0003d0 6e 94 0b be 69 8e 05 3e b8 4d c9 bc b3 f4 0f 3e
       -0.1363084 0.13042606 -0.024573192 0.14058189
0003e0 76 c5 d4 be 6f 83 6d 3e 7c 0d d3 3e ab 40 f4 3e
       -0.415569 0.23194669 0.41221225 0.47705588
0003f0 bc 53 c8 be 0b 15 da be d1 cb 5a 3e 2f fd b3 3b
       -0.39126384 -0.4259418 0.21366812 0.0054928283

network_body._body_endoder.seq_layers.2.bias f4 [128]
000000 b2 7d a0 bb be d0 90 bb 8f 33 28 3d 8a 46 7a bc
       -0.0048977965 -0.0044194153 0.041064795 -0.015275607
000010 37 59 8f bd 99 ef 64 bd 32 b7 0e bd e7 ac 66 3d
       -0.06999438 -0.05589256 -0.034842677 0.056317236
000020 b8 b9 ab bc 0e 4d 2d bd 55 0a 65 bd ba 26 bc 3c
       -0.020962581 -0.042309813 -0.055918057 0.022967685
000030 ca 6c 96 bc 6b fc e1 bc 85 21 05 3d 77 bc 2b bc
       -0.018362422 -0.027586183 0.03250267 -0.010481945
000040 09 62 63 bd aa 7b 66 bd 32 bf 8c bd a5 e6 ac bd
       -0.055513415 -0.05627028 -0.06872405 -0.084424295
000050 bc 82 70 bd 78 54 bf bb ae 9e bd 3c 5e aa bd 3c
       -0.058718428 -0.005838927 0.023146953 0.023152526
000060 7c e7 77 bb 45 25 23 bd 76 47 13 bd ad 7a 96 bd
       -0.0037827184 -0.039830465 -0.035956822 -0.07347617
000070 75 6a d7 3c 42 57 4c bd b0 49 e3 3d 29 43 66 bd
       0.02629588 -0.049887903 0.11098039 -0.056216393
000080 cf e1 a7 bd 54 50 16 bd 4d 48 2a bd 76 e8 3b bd
       -0.081973664 -0.0366977 -0.041572858 -0.04587599
000090 11 ac 0a bb 5b cb ce bc 8a a9 5e bc 66 ff 72 bd
       -0.0021159688 -0.025243452 -0.013590226 -0.0593256
0000a0 29 30 8e bb c2 c9 6f bd 0f bf a5 ba de ba 67 bd
       -0.004339237 -0.05854202 -0.0012645441 -0.056574695
0000b0 d1 50 cb bd 5d 9c 4e ba 80 74 a9 bc 6f 3f 91 bc
       -0.09927524 -0.00078815763 -0.020685434 -0.017730443
0000c0 ce 67 eb b8 63 80 72 3c 23 61 18 3c b4 b7 87 bd
       -0.00011225008 0.014801118 0.009300503 -0.066268355
0000d0 59 61 26 bd e1 fc b8 bc da ff cb 3b c4 21 e9 bc
       -0.04062018 -0.02258152 0.0062255682 -0.028458484
0000e0 f8 08 71 bc c8 0e 8e bc f1 b0 9c 3a cd 43 9a bc
       -0.014711611 -0.017341033 0.0011954588 -0.018831158
0000f0 f6 6f d5 3b 1c 14 6b bd 9f 57 f0 bc 6a 96 1a bd
       0.006513591 -0.057392225 -0.029338656 -0.037741102
000100 75 8d 4b 3d 66 ae 36 bc eb 93 b4 3c cc ee 8c bc
       0.04969545 -0.011149978 0.022043189 -0.017203711
000110 0b a6 a1 3b b4 c0 4a bb 6e 44 a9 3c f0 59 68 bd
       0.004933124 -0.0030937614 0.020662513 -0.056726396
000120 7a 21 fb bc 7a e7 1e bc 84 47 c7 3a 65 ae 82 bd
       -0.030655611 -0.009698743 0.0015203808 -0.06380919
000130 52 75 c0 bc 18 0a 88 3c d7 01 57 3c 89 28 25 bd
       -0.023493443 0.016606376 0.013122997 -0.04032186
000140 1a c9 cd bc 2c 9c d4 bc 5e d3 57 3b 1d f2 93 bd
       -0.025120307 -0.025953375 0.003293238 -0.07223914
000150 f3 fc ef bb 1a b3 87 3b 48 74 f2 bc ef 19 2b bd
       -0.007323855 0.0041412236 -0.029596463 -0.04177278
000160 3d 15 57 bd c3 7c 68 3b 7b d2 da bc 48 9e 2b bd
       -0.05251049 0.0035474754 -0.026711693 -0.041898996
000170 62 66 58 3d bd 04 37 bd 30 87 ab bc a6 c7 ad 3d
       0.052832015 -0.044682253 -0.020938486 0.084853455
000180 ae ae 67 bd 0a ca a8 bd d9 d8 b9 bc e0 28 3c bd
       -0.056563072 -0.08241661 -0.022686409 -0.04593742
000190 4c 34 33 bd 05 24 05 bd a4 e1 7a bd 13 03 73 bc
       -0.043751046 -0.032505054 -0.061250344 -0.014832276
0001a0 1d 65 f1 3c 75 96 15 3d bb 39 8f bd 65 15 82 bd
       0.02946716 0.03652044 -0.06993433 -0.06351737
0001b0 5a ce 19 bd e9 da fc bc 4b b4 b2 ba a0 b3 d2 bc
       -0.037550308 -0.030866103 -0.0013634054 -0.025720417
0001c0 20 f7 80 bc 9a da a9 3c 99 87 43 bd 4d 6c 4f bc
       -0.015742838 0.02073412 -0.047736738 -0.012660098
0001d0 6c 55 04 bd 1e dc 4d bd 70 35 b2 bd 87 0f f2 bc
       -0.032308027 -0.05025875 -0.08701599 -0.02954842
0001e0 36 80 07 bd 2f c1 65 3c 27 98 ef 3a ce ac a2 bc
       -0.033081256 0.014023109 0.0018279598 -0.01985779
0001f0 44 fe 68 bd c9 07 53 bd 30 88 cb bc 77 8f 86 bb
       -0.05688311 -0.051521096 -0.024845213 -0.004106458

network_body._body_endoder.seq_layers.2.weight f4 [128, 128]
000000 df c5 5c 3d 5e 82 61 3d de 2e da 3d ea 9f 01 3d
       0.053899642 0.05505597 0.106534705 0.031646647
000010 8b 78 28 be f1 d7 36 be 1b 18 88 3c 52 79 bc bd
       -0.16452233 -0.17855813 0.016613057 -0.092028275
000020 27 35 1d be 42 c2 15 bc 9b 92 1b bd 6c 58 22 be
       -0.15352307 -0.009140553 -0.03798161 -0.15854043
000030 ca 7d d6 bd 61 ae f0 bc 6d bb 08 be 85 f5 a8 3d
       -0.10473211 -0.029380025 -0.13352747 0.08249954
000040 09 10 dc b7 1f 42 7b 3b 1e b4 ea bd 7b e2 d6 3d
       -2.623351e-05 0.0038338972 -0.11460136 0.104924165
000050 9f 1d 04 3e 78 36 a9 3d 6c 84 37 3c ea 72 52 3d
       0.12901925 0.08262342 0.011201005 0.05137912
000060 71 2b c2 bd 2f dc 93 bb 55 67 0d bd a0 3b dc bb
       -0.09480942 -0.004512332 -0.034522373 -0.006720975
000070 7c 65 d8 bc e5 10 35 bd a8 a2 7d 3c 78 2a d6 3d
       -0.026415579 -0.044205565 0.015480675 0.10457319
000080 1d 78 7c 3c 7c 10 70 3e 02 b9 f9 3d f0 9c ed 3c
       0.015409497 0.23443788 0.121934906 0.029005498
000090 40 51 d3 bd 8a 4f 9f 3d 6c 24 c5 bd d6 0d c2 bd
       -0.103182316 0.07778843 -0.096260875 -0.09475295
0000a0 71 de 9f bd c8 f9 29 be f2 fe 4d bd 47 16 cd bc
       -0.07806099 -0.1659919 -0.050291963 -0.025035037
0000b0 fb f0 3d be 3a 5d 40 be c8 b0 11 3e 07 c0 20 be
       -0.18548958 -0.18785563 0.14227593 -0.15698253
0000c0 26 04 f0 3d dc 2a 3a bc eb 42 48 bd aa 55 53 bd
       0.11719541 -0.0113627575 -0.048891943 -0.051595367
0000d0 69 1e 0f 3d d0 db f5 3c 6e 54 a1 3d 17 0a de bd
       0.03494111 0.030012041 0.07877432 -0.10841768
0000e0 f0 90 02 be e9 19 93 bd f3 4a 6f 3d e4 a5 2e 3d
       -0.12750602 -0.07182676 0.058421087 0.042638674
0000f0 25 16 90 bd 44 6c 39 bc 3b 97 83 3d 3e 46 92 ba
       -0.07035474 -0.011317316 0.06425329 -0.001115985
000100 08 c6 10 bd 4c f6 1b be 1d c6 97 bd 36 9c ce bd
       -0.035345107 -0.15230674 -0.07410834 -0.100883886
000110 5d 99 88 3d 3b 50 84 bd af b3 b0 bc 6c 52 da 3d
       0.06669877 -0.06460615 -0.021570055 0.10660252
000120 1a 81 30 bd 3c 5f f2 bc c7 75 d2 bd bc 7c b7 3c
       -0.04309187 -0.029586427 -0.102763705 0.022398345
000130 e1 e9 89 be a1 39 47 bd 7a ce c3 3d ac 8f 77 3c
       -0.26936248 -0.048638944 0.09560867 0.015109938
000140 ae 21 11 3d 7f f9 ca 3c ae 9e ac bd 4a 0a 6a bc
       0.03543251 0.024777172 -0.08428703 -0.01428468
000150 7d 29 c5 3d c8 1d 65 3e 73 7d 50 be df 72 61 3e
       0.09627054 0.22374642 -0.20360355 0.22016476
000160 1c bf 43 be 6e 54 34 be 87 1d 03 bd 78 7a d9 bd
       -0.19115871 -0.17610332 -0.03201058 -0.10619062
000170 e7 d7 11 bd 83 bc 20 3d 99 f6 dc 3c 8f cd c6 bd
       -0.03560629 0.03924228 0.026973056 -0.09707176
000180 cf 8a b6 3d f9 57 00 be ce ac 34 bd 78 6d 20 be
       0.089131944 -0.12533559 -0.044110112 -0.15666759
000190 3d ef 89 3d ce 5f 45 be 8b 45 4e bc 44 6e b7 bd
       0.06735084 -0.19274828 -0.0125898225 -0.089565784
0001a0 5f 04 91 3d 90 36 e3 bd 09 33 28 3d f9 c7 58 bd
       0.07080912 -0.11094391 0.041064296 -0.052925084
0001b0 3f 64 40 be fd cd 38 be d7 84 c8 3d c3 7c e8 bc
       -0.18788241 -0.18047328 0.09790962 -0.028379804
0001c0 36 ce 85 bd 02 d7 f0 bd 5c e6 81 bd 9c 43 87 3d
       -0.06533472 -0.117597595 -0.06342766 0.06604692
0001d0 b7 76 4e 3d 0b 52 a2 bd c3 e1 5d 3d af 71 17 3d
       0.050406184 -0.07925805 0.05417038 0.03697365
0001e0 d9 bf 52 bc 8b 72 8d 3d dd e6 5f be 62 10 f6 3b
       -0.012863123 0.06906613 -0.21865411 0.007509277
0001f0 25 64 5c bd ad b1 22 3d 48 9b ca 3d 9a 5b 48 be
       -0.053806443 0.039720226 0.09892899 -0.19566193
000200 79 87 32 bd 8d 07 8f 3d da db 9c bd bd 53 03 bd
       -0.043586228 0.06983862 -0.07659121 -0.03206228
000210 bd f8 8b bd 4e f1 2a be 76 77 91 bd 34 f2 cb bb
       -0.068345524 -0.16693613 -0.071028635 -0.006223941
000220 c4 26 57 be 1f b1 bb bd cd 58 05 3e ae b3 29 be
       -0.21010882 -0.091646425 0.13022156 -0.16572449
000230 7f f4 57 be e0 c3 e8 3d c5 8f 8a 3d 64 cc d3 3d
       -0.21089362 0.11365485 0.06765703 0.10341719
000240 10 00 42 3e 38 19 27 bd f2 82 45 3d 9a cb 03 be
       0.18945336 -0.040795535 0.048220582 -0.12870637
000250 25 df 34 3e bc 63 5b bc e8 7c 85 3c 49 11 b9 3d
       0.17663248 -0.013390478 0.016294912 0.090365
000260 3e 09 21 3d 1c ae 7c 3d 10 4d 0f 3d af 3a f3 bd
       0.039315455 0.06168948 0.034985602 -0.118764274
000270 66 75 8a bc aa f2 d9 bc 6e f2 0f 3b 28 2e 54 3d
       -0.016901683 -0.026604969 0.0021964568 0.05180183
000280 58 71 97 bc db 9a 16 bd 1e 9c ba bc f6 a4 4b b8
       -0.018486664 -0.036768775 -0.02277952 -4.8552603e-05
000290 14 c0 59 be 1d bb c7 3d 77 d4 f2 3d 1c 8c c4 3c
       -0.21264678 0.09752486 0.11856931 0.02399259
0002a0 dd 3c 93 3d 0f db 09 be 30 b1 a4 bd 58 0f 21 3d
       0.07189343 -0.1346247 -0.08041608 0.039321274
0002b0 05 54 1c be 1f dc 24 be ff 20 b2 bd 22 24 89 be
       -0.15266426 -0.16099595 -0.086977 -0.2678538
0002c0 24 ac 12 39 7a 9d 19 bc af d4 5b 3d 86 63 96 bb
       0.00013987772 -0.009375924 0.053669628 -0.004589501
0002d0 70 80 29 3c b1 9c 0e 3d ac 89 0f 3e 44 d9 3a 3d
       0.010345563 0.0348174 0.14017361 0.045617357
0002e0 0a ec 83 be 90 11 0a be 53 a6 89 3d 0b 17 f4 3d
       -0.2576602 -0.13483262 0.06721177 0.119184576
0002f0 58 81 c9 3d 3b 23 31 bd c1 38 99 bd fe 78 90 bd
       0.098391235 -0.04324649 -0.07481528 -0.070543274
000300 ef b4 d2 3d 7b ef 0c 3e 69 a6 ed bd 1d 70 3f 3d
       0.102884166 0.1376323 -0.11604006 0.04673778
000310 88 f6 a7 bd 77 46 a7 bd 72 c1 37 3e 8a b0 52 bd
       -0.08201319 -0.08167737 0.17944887 -0.051437892
000320 f0 cb d8 3d 1b 83 b3 bd 43 60 18 3d f2 0b c3 3d
       0.10585773 -0.08765241 0.037201177 0.09523763
000330 08 17 a1 bd 99 1a a9 3d 32 c8 0c be 0d cc 2c 3e
       -0.07865721 0.08257026 -0.13748243 0.16874714
000340 9b 65 03 3c d5 d7 04 3e 52 95 32 3e 5a 5d d0 3d
       0.00801983 0.12972958 0.17439774 0.101740554
000350 b4 ed 2c bd 99 f5 4b 3d eb d7 4b 3e 8b d6 c9 3d
       -0.04221888 0.049794767 0.19906585 0.09855374
000360 08 e5 72 bd c2 40 c7 3d 90 9e 41 bd e9 24 7b be
       -0.059300452 0.097291484 -0.047270358 -0.24525799
000370 73 19 18 3d 27 60 09 be 98 37 9f 3d 70 db 25 be
       0.037133645 -0.13415585 0.077742755 -0.1619699
000380 5b 16 ac bd 14 07 3d 3e 1f 28 57 3d 41 0d 03 be
       -0.084027015 0.18459731 0.052528497 -0.12798025
000390 b9 77 ba 3d b7 fe d5 bd e2 a8 87 3d 6f 83 22 be
       0.091048665 -0.104489736 0.06624009 -0.1587045
0003a0 f1 7c 70 bc eb e8 eb 3d 94 23 84 3d 6b a2 54 bd
       -0.014678226 0.11519035 0.064520985 -0.051912706
0003b0 7a c0 27 be e9 2e c5 3c f2 f0 ab bc 65 28 38 be
       -0.16382018 0.02407022 -0.020988915 -0.1798416
0003c0 13 43 c1 3d 4d 18 c1 bc 03 30 8c 3d ff 42 b4 bd
       0.094366215 -0.023571158 0.06845095 -0.08801841
0003d0 e6 b5 15 be 45 28 14 3d f2 43 4a 3d a8 ad a9 bd
       -0.1462017 0.036171217 0.049381204 -0.082850754
0003e0 41 ec 5a 3d f6 17 8d 3d a1 a4 b9 bd e5 b5 80 3e
       0.053447966 0.06889336 -0.090646036 0.25138775
0003f0 e1 60 05 3e 2f 7f 7c be c4 97 1f 3e 4f 45 80 be
       0.13025238 -0.24657892 0.15585238 -0.25052878
