Project/Assets/ML-Agents/Examples/SlideMan/SlideMan.onnx (onnx, 75711 bytes, 7 tensors)

action_model._continuous_distribution.log_sigma f4 [1, 2]
000000 5c a8 90 3d 9d 3d 90 3d
       0.07063362 0.07043002

action_model._continuous_distribution.mu.bias f4 [2]
000000 c5 05 26 3c ef 9a 0d 3c
       0.0101332115 0.008642896

action_model._continuous_distribution.mu.weight f4 [2, 128]
000000 f4 f4 a2 3b 4e 59 46 3c 0b 15 36 3a 8e d1 e6 3c
       0.0049730483 0.012106253 0.00069458847 0.028176095
000010 5a aa 35 3b 14 4c c6 bb 54 d8 0a 3c 4a 8c ae bc
       0.0027719946 -0.0060515497 0.008474428 -0.02130713
000020 60 05 96 3b 37 b7 98 3c 0d da 32 3c 45 38 90 bc
       0.0045782775 0.018642051 0.010916245 -0.017604956
000030 0f 72 ff bc 77 01 24 bb 60 dc d2 3c 06 61 5a 3c
       -0.031182317 -0.0025025287 0.025739849 0.013328796
000040 42 8b 11 3c ef 72 39 bc 52 39 15 bc 7e 44 3a 3c
       0.008883299 -0.011318906 -0.0091079045 0.011368869
000050 90 4a e1 bb 58 f9 1b bb 90 c4 d3 3b c2 8d 2a 3d
       -0.0068753436 -0.0023799744 0.006462641 0.041639097
000060 65 5b 0c bc 2c 5b 98 3c 65 ef e2 bb ff ee a8 3c
       -0.008566712 0.018598162 -0.0069255107 0.020621775
000070 c5 a0 5f bb d8 84 be 3b dc 73 89 3b fc 67 8e b9
       -0.0034122926 0.005814176 0.0041947197 -0.00027161825
000080 ff ca 01 3d 5f 62 a0 bb 81 0a 23 3c ea 5b 1e bb
       0.031687733 -0.0048945392 0.009951235 -0.0024163672
000090 1b b0 bf bc 17 93 65 3c 0d b8 8e 3a ad f7 de bc
       -0.023399403 0.01401212 0.0010888592 -0.02721771
0000a0 ba a2 25 3c 01 4a 92 bc a8 46 3e 3c 47 c1 13 bc
       0.010109598 -0.017857553 0.011613525 -0.009018249
0000b0 89 25 2a bc 5a 00 df 3c 15 df 73 3a d1 54 d8 bb
       -0.010384926 0.027221847 0.0009302956 -0.006601908
0000c0 6b 23 1a 3c 92 6d 88 3b 30 ca 83 3c 1e 01 e2 3b
       0.009407858 0.0041634524 0.016087621 0.006897106
0000d0 d1 ee 5a bc 27 1a 40 3c 44 33 83 3c 27 38 22 3d
       -0.013362602 0.011724985 0.016015656 0.039604332
0000e0 47 45 8e 3c e9 16 b1 3b f3 1d d7 3c dc c2 61 bb
       0.017367018 0.0054043424 0.026259398 -0.003444842
0000f0 31 a2 28 3b 5b 9d f7 3c c0 9c e2 bb 27 7d 8f bc
       0.002573144 0.0302264 -0.0069156587 -0.017515732
000100 6a cf 25 bb de ed 88 3b d4 aa 1b bb 0c 30 1f bb
       -0.002530063 0.0041787466 -0.0023752945 -0.0024290113
000110 91 6b b7 3c 5f 61 8b 3a 60 ee 94 bc 64 25 1a 3c
       0.022390159 0.0010633877 -0.018180072 0.009408329
000120 1e 16 9c ba 82 cb 9b 3c 2f 01 8b 3b 3d b9 1c 3b
       -0.0011908447 0.019017939 0.0042420845 0.0023914122
000130 2b 89 9d 39 c1 10 51 3b f7 b2 ac b9 c7 54 8a 3c
       0.00030047572 0.0031900855 -0.00032939736 0.016886128
000140 5f 03 fc 3b 77 67 2f 3c 74 21 41 b8 5a 4b bb 3b
       0.0076908316 0.01070582 -4.604594e-05 0.0057157697
000150 a8 bd e2 bc 1c 48 d7 3a c9 77 3d bc 26 87 87 3b
       -0.027678326 0.0016424689 -0.011564204 0.004135984
000160 65 99 aa 3b 2c 21 1c 3c a2 30 17 bb f1 94 29 3c
       0.0052062743 0.009529393 -0.002306976 0.010350452
000170 ff d4 67 bd 97 59 e3 ba b0 ac 58 3b af 05 f6 bb
       -0.056599613 -0.0017345425 0.0033061914 -0.0075080018
000180 5c 7d f4 3b f8 4d 4c bb ba 70 ee bb 02 74 0b 3b
       0.007461233 -0.0031174403 -0.0072766216 0.0021278863
000190 db 42 c2 3c 8a 09 d6 3b 04 52 c5 bc 0d 45 c7 3a
       0.02371352 0.006531899 -0.02408696 0.0015203074
0001a0 39 07 d5 3c 45 53 e8 bc c7 9f d0 bb 9c e6 47 3c
       0.02600442 -0.028360019 -0.006366703 0.012200978
0001b0 d7 39 3b ba f7 3a cf 3b a5 0a 15 bd bb 02 81 bc
       -0.00071421027 0.006324168 -0.036387105 -0.015748372
0001c0 bb f5 a1 bb 3a 07 27 3c 6f 3e e8 b9 51 22 5f 3c
       -0.0049426234 0.010194594 -0.00044297005 0.0136190215
0001d0 d8 9d c3 3a 1c d3 25 bc 7e be 84 3c 5f 4d 8e 3c
       0.001492436 -0.010121133 0.016204115 0.017370878
0001e0 80 22 02 bd 9f 82 6c 3c a7 b5 81 bc f5 de 0b bb
       -0.031771183 0.014435439 -0.015833689 -0.002134261
0001f0 4f 2b 1d bc 9e 06 29 bb 90 0b 87 3a e9 30 38 3d
       -0.009592845 -0.0025791298 0.0010303129 0.04496852
000200 be be 6c bc 4c ff be 3c 01 86 f4 3b a8 3c 06 3d
       -0.014449773 0.023315094 0.0074622636 0.03277269
000210 96 58 b7 3c 9b 40 11 3c 43 84 85 bb a7 7e 9b 3b
       0.022381108 0.008865501 -0.0040746047 0.0047453227
000220 b7 13 1c bb d0 a3 52 3c ca f1 10 3c 6d 03 8d bc
       -0.0023815462 0.012856439 0.0088467095 -0.017213548
000230 70 f8 b5 3b 16 af 82 3b 3b 9b b1 3c 44 06 9f 3b
       0.0055532977 0.003988157 0.021680465 0.004853042
000240 6d 4c 45 3d 9b 9e 0a bc 36 d9 25 b9 48 21 d1 3b
       0.04816859 -0.008460666 -0.00015816544 0.0063821413
000250 7b a9 5f 3a c1 44 7c ba d9 e6 2f bc 2a e7 49 3b
       0.00085320295 -0.0009623282 -0.010736191 0.003080795
000260 9d 01 a7 3c e3 0c 85 3c ac 6a 0c 3d 66 04 39 bb
       0.020386511 0.016241496 0.034281418 -0.0028231381
000270 b9 2c 8e 3c 01 80 cb 3b 12 0d 08 bc 9e d6 aa 3c
       0.01735531 0.0062103276 -0.008303897 0.02085429
000280 8b ed 2a 3c c7 7d ae 3b f1 61 da 3c 3e f2 13 3c
       0.010432611 0.0053250524 0.02665803 0.009029923
000290 6a 53 49 bc 2b fd 27 3c 87 13 b5 ba 6f 1a 8c 3c
       -0.012287954 0.010253231 -0.0013815024 0.017102448
0002a0 e0 c2 62 3c f3 34 6b 3c 0a b8 eb ba ab d8 22 bb
       0.013840407 0.014355886 -0.0017983925 -0.0024848382
0002b0 5d 0e d9 bc 87 e8 c2 3c 5b 02 cb 3b c8 ec 95 3b
       -0.026496107 0.023792518 0.006195349 0.0045753457
0002c0 2b 97 5a 3a b3 ad 81 bb 20 f3 6c 3b 42 ab 63 bc
       0.0008338566 -0.003957474 0.0036155656 -0.0138958115
0002d0 96 e9 4e 3b a5 ba c7 3c 71 d3 49 bb 6d b7 ac 3c
       0.0031572334 0.024380991 -0.0030796195 0.021083558
0002e0 1f 27 b1 3c 1f 0f 95 bc d2 7a 61 3c ea f2 0a 3c
       0.0216251 -0.018195687 0.013762193 0.008480767
0002f0 2f 82 af 39 d8 59 33 3c 2c c5 d4 bc 27 ce 51 3c
       0.00033475595 0.010946713 -0.025972925 0.012805498
000300 93 0f ee bb 79 72 94 3c e3 9c 5c bb 10 51 62 3c
       -0.00726504 0.018120991 -0.0033662848 0.013813272
000310 87 58 0c bc 92 5b 2a 3a d7 48 8f bc 9e 3a 90 bb
       -0.008566028 0.00064986304 -0.017490787 -0.004401519
000320 a7 3d ef bb 83 31 03 bd 58 78 65 3c 21 11 b3 ba
       -0.0073010507 -0.03202964 0.014005743 -0.0013661721
000330 1a f0 66 3b 8b 6b cd 3b fb 11 75 3a 4c 7c 15 bc
       0.0035238327 0.0062689236 0.00093486876 -0.009123873
000340 b0 27 13 bc 85 d9 b3 3c 7a 7d 2a bc e3 ae 32 3c
       -0.00898163 0.021954307 -0.0104058925 0.010905954
000350 7a 12 55 bb 1b fa 9b b9 d0 c8 ed 3b 52 2f 60 3b
       -0.0032512234 -0.00029750247 0.0072566047 0.0034207893
000360 38 6f b3 3c f2 3c 78 3c 56 16 89 3c 0f 84 0f 3c
       0.02190362 0.015151249 0.016734283 0.008759513
000370 f1 8b b9 3b bc d7 4c bc fc d2 52 3c 91 32 dd bb
       0.0056624343 -0.012502607 0.012867685 -0.0067504128
000380 bc ff bb 3a 8f c9 17 3c cc 4d fa 3c 12 0d 4a 3c
       0.0014343183 0.009264364 0.030554675 0.012332218
000390 ff ad 5d bc 13 10 49 bc 2e 46 8b 3c ca 5b 41 3a
       -0.013530253 -0.012271899 0.017001238 0.00073760434
0003a0 29 c0 a7 3a db c4 26 3c 7b a8 dc 3c b7 ce cd ba
       0.0012798357 0.01017877 0.026935806 -0.0015701865
0003b0 3a cf 40 bb bb e9 2d 3b ea c0 19 bc 9b 52 46 bc
       -0.0029420392 0.002653702 -0.009384373 -0.012104656
0003c0 0e 1b 48 3a bf 92 a1 3b ab c2 05 ba 3b fd 5d bc
       0.0007633426 0.0049308236 -0.0005102555 -0.013549144
0003d0 02 36 06 bc 6b 52 20 3c 44 5d 6c 3a 14 d7 04 bc
       -0.008191587 0.009785275 0.0009016583 -0.008107919
0003e0 b6 41 c3 bc 85 34 d5 b9 91 27 4b 3c 08 a6 9a ba
       -0.023835044 -0.00040665656 0.01239957 -0.0011798749
0003f0 cd 98 62 ba 05 ae 32 bb 65 84 a8 3c ad d4 84 3c
       -0.0008643985 -0.0027264368 0.020570943 0.016214693

network_body._body_endoder.seq_layers.0.bias f4 [128]
000000 38 2f c8 bc c0 7c 2a bd 15 dd aa 3b d9 69 66 3c
       -0.024436578 -0.041622877 0.0052143433 0.014063322
000010 7d 67 95 bd e7 6c bb bb 81 62 bd 3d fc 10 e4 3c
       -0.072951294 -0.0057197693 0.09247304 0.02784013
000020 42 62 33 bc 78 81 54 3c 72 43 31 aa 8a 3b 5b bc
       -0.010948719 0.012970321 -1.5744158e-13 -0.013380894
000030 19 83 1b bd 65 46 01 bd 89 e9 4b bc 0b d8 5b b9
       -0.03796682 -0.031561274 -0.012445816 -0.0002096595
000040 d9 d5 01 bd 60 ef ac bc 10 43 61 bc 21 fa ae bc
       -0.03169808 -0.021110237 -0.013748899 -0.021359505
000050 6e 20 a4 bc f7 04 78 3c 54 67 97 bc e5 4e ac 3c
       -0.020034995 0.015137902 -0.018481888 0.021033714
000060 79 9a a2 bb 83 e1 18 bd 35 a2 81 3c 37 c8 86 3b
       -0.004962262 -0.03732444 0.015824417 0.004113223
000070 66 b1 e1 bb 6a e8 b4 3c 39 c1 41 b9 6b f9 87 bd
       -0.0068876026 0.02208348 -0.00018477895 -0.066393696
000080 ac d2 c8 3c ea 37 07 3d d2 7e 91 bc 3e 0b 77 3c
       0.024514519 0.03301231 -0.017760668 0.015078364
000090 dd bd 3d 3d 66 39 48 bb ad 26 6e bd 68 ad 01 bc
       0.046323646 -0.003055179 -0.058142353 -0.007914878
0000a0 ec 48 11 bd 45 8c 0c bd 56 a5 1c bd db 6d 26 bc
       -0.035469934 -0.03431346 -0.038243614 -0.0101580275
0000b0 1a a9 2e bc a5 f9 a7 b7 77 13 f1 3b cc ff 3b bd
       -0.010660434 -2.0024201e-05 0.0073570567 -0.045898244
0000c0 ec 77 47 bd 25 7d 7e 3b a4 22 22 3c 6b 8f fc bc
       -0.04869835 0.0038831916 0.009895954 -0.030830106
0000d0 a1 b7 0f bd 30 05 b8 bd 5a 3f 6b 3b 16 00 d1 bc
       -0.03508723 -0.089853644 0.0035895915 -0.025512736
0000e0 3c 80 05 bd f0 49 15 bd 7f 83 cf bc 8e f7 11 bc
       -0.032592997 -0.036447465 -0.025331257 -0.008909119
0000f0 8d da 76 bc b9 42 b2 bc 74 3a 9c bc 06 75 ac bc
       -0.015066755 -0.021760331 -0.019070841 -0.021051895
000100 d5 b0 2b bd 6c 5c 13 bd 03 b4 f7 3b bd 1f 19 bd
       -0.041916687 -0.035976812 0.007559301 -0.037383784
000110 62 41 9f bb 76 d6 9a bc 31 17 2f bd 5d c1 35 bd
       -0.004860089 -0.018901091 -0.042746726 -0.04437386
000120 f0 6e aa bc 79 57 4f 3c b3 ac c8 3b e0 3b cd bc
       -0.020804852 0.012655132 0.006124103 -0.025052965
000130 04 ce b4 3b 97 54 24 bb 92 89 5f bc dd d6 a6 3a
       0.005517723 -0.0025074834 -0.013643639 0.0012728829
000140 33 53 2c bc 88 f6 6c bc 3d 28 d7 bc c4 71 09 bb
       -0.010517883 -0.0144630745 -0.026264304 -0.002097235
000150 8c 83 20 bc d4 58 b6 bc 6a 82 2f bd c8 0f c1 bc
       -0.009796988 -0.022259153 -0.042848982 -0.023567095
000160 ad d5 a6 bc 04 07 aa bc 39 3d e3 bc 9c c1 a5 bc
       -0.02036556 -0.020755298 -0.027739154 -0.020233922
000170 0a 19 24 bd 46 93 99 bc cd ca ac bc 3d 40 3e bd
       -0.04006294 -0.018746983 -0.021092797 -0.04644798
000180 13 75 6f 3b bd 61 e8 bc 6b 04 9e bc 3f 2d 83 3b
       0.0036538288 -0.028366918 -0.019289216 0.0040031965
000190 a4 13 a9 ba de 25 82 ba 5a c3 22 bd 1d b6 15 3c
       -0.001289953 -0.0009929498 -0.039737083 0.0091376575
0001a0 df 49 9c 3c 7b a3 87 bb ff a5 86 bc 73 89 16 bd
       0.019078193 -0.0041393614 -0.016436575 -0.036752176
0001b0 58 b6 a3 3b f2 7d 09 bd 22 bf 34 bc 36 c3 b0 bc
       0.0049961023 -0.033567376 -0.011031898 -0.021577459
0001c0 1a 07 a1 3b 60 d1 05 3d ba 54 ee bc 81 1f 46 bd
       0.0049141767 0.03267038 -0.029093135 -0.04836989
0001d0 49 6c cd bc 0d 1c dd b7 34 b9 84 3c 18 ce 15 bd
       -0.025076048 -2.6358315e-05 0.016201593 -0.0365735
0001e0 b7 08 02 3c 4b 48 df bc b6 d8 f6 bc b2 89 b4 bc
       0.007936648 -0.027256152 -0.030132633 -0.022038314
0001f0 af 23 d6 3b c9 80 23 3c 6d 9d b1 bc 0c fa 48 3c
       0.0065350155 0.009979435 -0.021681512 0.012266647

network_body._body_endoder.seq_layers.0.weight f4 [128, 12]
000000 07 90 28 3f 04 2b 2c 3e 69 e8 32 be 83 dc da 3d
       0.6584477 0.16813284 -0.1747147 0.106865905
000010 6f 38 8d 3e 36 72 80 3d 23 0d bd be f8 c3 ba 3e
       0.27582118 0.06271784 -0.36924085 0.36477637
000020 35 57 06 be 86 9f 6d 3c 4c 0c 7f 3d 91 17 ab 3e
       -0.13119204 0.014503365 0.062267587 0.33416417
000030 12 dd fe 3c ca 3e c2 3e cc ed 07 bf 96 11 a8 3e
       0.031111274 0.3793853 -0.53097224 0.32825917
000040 0f 4b d6 be 94 34 29 3d 22 3c eb be 3a 68 9c bd
       -0.4185414 0.041309908 -0.45944315 -0.07637067
000050 32 ff 04 3f 1e 3c 15 3e 92 e4 cf bc 65 ac 46 3e
       0.519519 0.14573714 -0.025377546 0.19401701
000060 a0 28 c7 3d a5 0f 0f bf e2 3f 4e be 5b 7c df be
       0.097245455 -0.55883247 -0.20141557 -0.43649563
000070 0a 9b 67 bd e8 b6 89 be 1d ca 58 3e f9 dd b7 be
       -0.05654434 -0.2689736 0.2117085 -0.3591154
000080 49 27 9f be 59 b0 25 3f e3 d4 9b 3e 81 c4 fe 3d
       -0.3108466 0.6472221 0.30435857 0.12439824
000090 3e 1b 4a 3e dd ff da 3d 2c c9 22 3e 3e 44 76 be
       0.19736955 0.10693333 0.15897053 -0.2404947
0000a0 7d 6c c5 bd ac 8b ec 3e 3f 8d 69 be 63 30 cc 3b
       -0.09639833 0.4620031 -0.22807787 0.006231354
0000b0 ef 4e 6d bd ae cf e2 3e 4c cc b8 bd bf 85 83 bd
       -0.057936605 0.44299072 -0.090233415 -0.064219944
0000c0 ea 7a b0 3e a3 d7 bf 3e 35 92 9c bd 5c 7a 13 3e
       0.34468776 0.37469205 -0.07645074 0.14402145
0000d0 8a 72 29 be 94 bc 6f 3d 1d 96 8b 3e 70 39 7b be
       -0.165476 0.05852945 0.27262965 -0.2453363
0000e0 0e 8d 56 be d7 df 1f bf b9 bd ce be a6 ce 19 3e
       -0.20952246 -0.6245093 -0.40379122 0.15020236
0000f0 b2 c9 bb 3e 55 7e 07 bf cf 26 32 3e bb d5 48 3f
       0.3667732 -0.5292714 0.17397617 0.78451127
000100 05 45 b0 be 32 14 24 bf 3e ed eb 3d b3 e4 a0 3d
       -0.34427658 -0.64093316 0.1151986 0.07856121
000110 23 af 06 3e e8 95 c7 bd 3e c1 3d bf dd c8 b6 3e
       0.13152747 -0.09745389 -0.7412299 0.35700122
000120 16 5a 44 be 39 7a 69 3e ac 46 cd be da 12 bb bd
       -0.1917499 0.2280053 -0.4009298 -0.09134455
000130 2d 6b 37 3d 15 d7 cf 3e e8 89 8d be 29 30 f7 3d
       0.044779945 0.40593782 -0.27644277 0.12069733
000140 8a fe b3 be ab 3f 37 3d f7 9d da be fa d0 9b 3e
       -0.35155135 0.044738453 -0.42698643 0.30432874
000150 f8 3e 02 be ed b2 c3 3e 89 af 56 be a1 11 6a 3e
       -0.12719333 0.38222447 -0.20965399 0.22858287
000160 cb 7e bd bd 5a aa ce be 05 f9 94 bd 56 e0 02 3f
       -0.092526995 -0.40364343 -0.07274059 0.5112356
000170 b1 42 77 bd d9 7b 31 3e c5 2d a7 bd e6 47 69 be
       -0.060366336 0.173324 -0.08163027 -0.22781333
000180 92 98 92 3e 85 70 3d 3e 41 b8 0a 3f 21 3e 9d be
       0.28632027 0.18499954 0.541874 -0.30711463
000190 c4 7c a3 bd 6d fb 91 be 98 d4 20 3e 62 79 ca be
       -0.079827815 -0.28512135 0.15706098 -0.39545733
0001a0 73 8d ee 3d 2c 8c 5d be 60 dc a3 be dc a7 1b be
       0.11648073 -0.21635503 -0.3200407 -0.15200752
0001b0 fb 23 8d 3d 6b 60 56 3e 36 68 2c 3d 68 be 28 be
       0.06891628 0.20935218 0.04209157 -0.16478884
0001c0 d3 cb b9 3d 07 9a 67 3d cd 7b 8b 3d 45 82 84 39
       0.090720795 0.056543376 0.068107225 0.0002527406
0001d0 dc d9 72 3d 9a 8a ae bd f5 ae a6 bd 46 d1 1b bc
       0.0592898 -0.0852253 -0.08138839 -0.009510344
0001e0 16 2a 11 bf d9 b2 78 3e 4f 24 6f bf 96 70 bb be
       -0.56704843 0.24286975 -0.9341478 -0.36609334
0001f0 d0 b6 0a 3d 79 f8 07 be 12 e1 cd bd 78 30 a9 3e
       0.03386575 -0.13278379 -0.100526944 0.3304479
000200 b6 f4 ac be 36 99 8d 3e 43 fe ac bd d7 64 c1 be
       -0.3378045 0.27655953 -0.08446934 -0.37772247
000210 24 86 76 3e 1a 24 4e 3f 5d 2b 1a 3e 1f 60 1a bf
       0.24074608 0.80523837 0.15055604 -0.6030292
000220 0c eb 60 be 67 f7 a3 3d a4 c4 f8 3e e5 f8 4a be
       -0.21964663 0.080061726 0.48587525 -0.19821508
000230 50 a3 14 3b 6f f1 d2 3e 37 0f 9c 3d a1 12 87 3e
       0.002268035 0.41199824 0.076200895 0.263814
000240 40 35 36 3f 5d 6e 65 be 06 cd 12 bf 30 dc 91 3e
       0.71175003 -0.22405382 -0.5734409 0.28488302
000250 5f 95 6b bf 69 f0 11 3e e0 32 46 be 11 5c c8 be
       -0.920248 0.14251865 -0.19355345 -0.3913274
000260 32 7d 05 be c7 f9 a8 3d c0 fe 31 3c b7 f8 88 bc
       -0.1303604 0.08250766 0.01086396 -0.016720159
000270 a6 17 ae be aa 3a 74 3d 2a e1 28 be 4e 91 d5 3e
       -0.34002417 0.05962626 -0.16492143 0.4171242
000280 8a 4e 20 bb 9b 52 07 3d 87 3c 2f 3d e2 81 f3 be
       -0.0024460875 0.033037763 0.042782333 -0.4756003
000290 9a cc b9 be f3 dc 11 bf 0f 07 19 bf bf df ea 3d
       -0.3628891 -0.56977767 -0.59776396 0.114684574
0002a0 83 cc a0 be da dd b2 3e 21 a8 2c 3f 67 3b 36 bb
       -0.3140603 0.34934884 0.67444044 -0.0027806403
0002b0 ca ac 3e be 20 53 2a be 53 6e c6 3e 7b cb b3 3e
       -0.18620601 -0.16633272 0.38756046 0.3511618
0002c0 e4 c5 94 3e 0c 2b dd 3d 0b 94 d5 be 9d 5e e4 3d
       0.2905723 0.10799226 -0.4171451 0.111508586
0002d0 ed 97 61 3e 49 a1 8f 3e 12 c4 21 bd 96 2a d5 bd
       0.22030611 0.28052738 -0.039493628 -0.10408513
0002e0 bf 3a 57 3d c4 62 e6 be 27 57 8c 3d c2 78 c8 be
       0.05254626 -0.44997227 0.068525605 -0.3915463
0002f0 e1 a5 e6 3d a7 53 88 be 3b 1e 1f be 8e fe d1 be
       0.11262108 -0.26626322 -0.15538876 -0.41014522
000300 e6 8d 7b 3e 10 35 1e bf 34 ea 08 3e d5 ac 96 be
       0.24565849 -0.61799717 0.13370591 -0.29428735
000310 46 7c 1f be 07 55 55 be e5 d4 9c be 75 dc 49 be
       -0.1557475 -0.20833217 -0.30631176 -0.19713004
000320 c5 f5 77 3f c3 05 22 3e 1a f0 3b 3d 47 2a 7f be
       0.9685939 0.1582251 0.045883276 -0.24918471
000330 7f fc 5c bd 2e a8 9b 3e 15 db c0 3d 96 a9 7e be
       -0.053951737 0.30401748 0.094167866 -0.2486938
000340 61 75 0b 3d bc 5b 08 3e 28 a7 38 3c 2f 34 b0 3e
       0.034047488 0.13316244 0.011270322 0.34414813
000350 39 31 cd be dc 42 21 be 11 78 f4 3e f0 22 c4 3d
       -0.40076616 -0.15748161 0.47747853 0.09576976
000360 a1 09 df bc 3d 5d 4f be 6e 24 74 be c8 08 68 be
       -0.027226271 -0.20250411 -0.23842022 -0.226596
000370 12 11 bc bd 79 40 04 be 51 21 d1 bd d4 72 e3 bb
       -0.091829434 -0.1291522 -0.10211433 -0.006941179
000380 bd 1c 46 be 08 8a af bd 77 bb d0 3c ca 69 70 3d
       -0.193469 -0.08571249 0.025480015 0.05869464
000390 a9 e6 fa bd 80 97 89 bd e8 05 09 be 7f 02 b2 3d
       -0.12251026 -0.067183495 -0.1338116 0.08691882
0003a0 86 c4 94 be a4 7f a1 be a0 fa 8c 3e 61 06 b1 be
       -0.29056185 -0.31542695 0.27534962 -0.3457518
0003b0 de d3 10 3e 50 65 80 3e fd 81 72 be a5 cf 14 3f
       0.14143321 0.25077295 -0.23682399 0.5812934
0003c0 86 bc 08 3f 64 2c 22 be 01 4b a1 be 60 2e 90 be
       0.53412664 -0.15837246 -0.31502536 -0.2816038
0003d0 8e 5b a1 be ff c3 92 be 7b 72 0d be d6 af ba bd
       -0.31515163 -0.28665158 -0.13813202 -0.09115569
0003e0 ba c4 40 be 25 cf d2 be 9d 88 5c be ee ac 32 3f
       -0.18825045 -0.41173664 -0.21536489 0.6979512
0003f0 b6 bb 60 3e 47 af 18 bf be 6d 87 3c c1 d8 01 3e
       0.21946606 -0.5964245 0.016531821 0.12680341

network_body._body_endoder.seq_layers.2.bias f4 [128]
000000 e0 41 b5 bc f3 78 c9 bb 40 72 20 bc 6e b6 27 3c
       -0.022126138 -0.0061484515 -0.009792864 0.010236366
000010 02 6c a2 bc 94 ac dc bc d5 02 bc bc 47 f5 38 bc
       -0.019826893 -0.02693776 -0.02295057 -0.011288947
000020 58 3a a1 bc 3b 99 43 bb b3 26 89 bb dc 23 42 3c
       -0.01968114 -0.002984597 -0.0041855215 0.01184937
000030 d5 27 e8 bb e4 37 23 bc 0a 2c 27 bc d4 6a 1d bc
       -0.0070848265 -0.009962056 -0.010203371 -0.009607989
000040 62 06 13 3c 38 ff b3 bc c9 8b 93 bc 83 e0 3f bc
       0.00897369 -0.021972284 -0.01801099 -0.011711243
000050 94 03 99 bc ec 9f 08 bd b0 be 1e bc f4 1a 02 3a
       -0.018678464 -0.03335564 -0.009689018 0.0004963123
000060 de 84 6e bc 7c 8b 02 3b ac c6 9f 3b 0f 77 8d bc
       -0.014558045 0.0019919565 0.0048759785 -0.017268686
000070 a1 7c 37 3b 31 48 bd bc 78 0d dd bc 73 c0 de bc
       0.0027997869 -0.023105713 -0.026983961 -0.027191376
000080 0a d8 78 bb b6 b8 9e bc 6b 57 0a bc 7c 01 32 bd
       -0.0037970566 -0.019375186 -0.008443694 -0.043458447
000090 27 1a 45 bc 52 21 f2 bb dd 75 fe bc f1 ac a4 bc
       -0.012030161 -0.007389226 -0.031062061 -0.020101996
0000a0 a8 40 ad bb be ae 5d bc d5 54 35 bc 5e be cd bc
       -0.0052872486 -0.013530431 -0.011067589 -0.025115188
0000b0 d9 4c c2 3b 6d 36 13 3c 2f fb 2d bc 50 47 54 bc
       0.005929571 0.008985144 -0.010618969 -0.012956455
0000c0 76 b1 07 bc e6 18 4c bc 59 47 e2 3b 18 f9 e2 bb
       -0.008282056 -0.012457108 0.006905478 -0.006926667
0000d0 df 76 f9 bc 7c 68 e0 bb 5e ed 4b bc 45 f2 ae ba
       -0.03045219 -0.006848393 -0.0124467295 -0.0013347348
0000e0 f9 f7 02 bc 79 71 c5 bc 87 88 1d bc aa a9 cc bc
       -0.007993692 -0.02410196 -0.00961507 -0.024983246
0000f0 47 e2 c4 bc 27 c4 14 3c 79 24 06 bd 1d 3b 37 34
       -0.024033679 0.0090799695 -0.032749627 1.7064708e-07
000100 d8 51 97 bc 20 2e 23 bc bb 3c ec bc de 26 89 bc
       -0.018471643 -0.0099597275 -0.028837552 -0.016742166
000110 22 06 13 ba 32 6f 95 bc ec 19 6f bc 69 55 88 bc
       -0.0005608519 -0.018241499 -0.014593583 -0.01664229
000120 f2 65 7f bb 91 5d f8 bb 7f 22 64 bb 27 27 40 bd
       -0.0038970676 -0.0075795134 -0.00348106 -0.04691234
000130 7e 52 c1 bc c8 7c be bc c7 d6 5f bc ce 94 08 bc
       -0.023598906 -0.02325286 -0.013662047 -0.008336259
000140 85 f6 97 bc 3d aa 7d bb 5f 1e ef bc c0 8b 36 bc
       -0.018550167 -0.0038706206 -0.029189287 -0.011141717
000150 d0 c2 e9 38 26 89 e7 bc e4 51 62 bc 43 b7 3e bd
       0.000111465924 -0.02826364 -0.01381347 -0.04656149
000160 de cf 52 bc 90 36 29 3b a3 e3 55 ba a7 8a ea bc
       -0.012866942 0.0025819875 -0.00081592257 -0.028630568
000170 b0 a1 05 3d 82 c9 81 bc 88 38 af bc af 74 62 bc
       0.0326249 -0.015843157 -0.02138926 -0.013821765
000180 c4 48 be bc cc 91 33 bb 1e 2a 1d bc 40 45 43 bc
       -0.023228057 -0.0027400134 -0.009592561 -0.011918366
000190 9e d0 b7 bc ee 09 60 bc 73 88 2a bc 9b 6f 07 bd
       -0.022438344 -0.013674242 -0.010408509 -0.03306542
0001a0 fb 76 38 bc cf 3a dd bb f0 74 20 bc 54 7d 8a bc
       -0.011258836 -0.0067513953 -0.009793505 -0.016905464
0001b0 4a a5 13 bd c1 29 7c bc 8b 0f c9 ba 8e 6d e1 bb
       -0.036046304 -0.015390814 -0.0015339715 -0.006879515
0001c0 66 e8 17 bd ad 10 6f bb 79 84 83 bc 46 19 d9 bb
       -0.037086867 -0.0036478445 -0.016054379 -0.0066253273
0001d0 6f 36 8d bc 6e 4c a7 bc 8f bd 53 bc 0c bb 85 bc
       -0.01723787 -0.020422187 -0.012923612 -0.016324542
0001e0 8d 34 37 bc f7 62 75 bc 39 fd 7c bc ff c7 40 bc
       -0.011181963 -0.014977208 -0.015441232 -0.011766433
0001f0 9b af c8 bc 4d 4d 8f bc 08 28 8f bc a7 58 8e 3b
       -0.024497798 -0.017492915 -0.017475143 0.0043440643

network_body._body_endoder.seq_layers.2.weight f4 [128, 128]
000000 a3 a5 02 bc d1 e4 24 bd d1 42 2a 3d 0f c8 38 bd
       -0.007974061 -0.04025728 0.041567627 -0.045112666
000010 7d 4c b3 bd 32 25 c5 3c 60 6f fe bc ac 35 87 3d
       -0.08754823 0.024065588 -0.031058967 0.06602034
000020 45 1c d9 bd ed 2e 12 3c 8a 38 b7 bb 3d 23 eb bd
       -0.10601095 0.008922321 -0.005591457 -0.114813305
000030 92 80 22 3d 20 84 7f bd 73 49 ff bc d4 70 20 bd
       0.039673395 -0.062381864 -0.031162953 -0.0391701
000040 a5 e1 49 3e 11 f5 4c 3c fb c5 aa 3d 80 1a 1f be
       0.19714983 0.0125096 0.08338543 -0.15537453
000050 38 62 b5 bb d0 f3 24 bd 49 d9 e5 3d a7 1f 0c bd
       -0.00553539 -0.04027158 0.112230845 -0.034209874
000060 17 bc e8 3d 5e c2 7e bc 8d d1 ab 3d 49 34 82 bd
       0.11364 -0.01554927 0.08389578 -0.06357629
000070 0c 16 cb 3d d6 4e 88 bd 3d 42 22 3d db c9 80 3d
       0.099163145 -0.06655662 0.03961395 0.06288501
000080 2b 0e 86 3d 5f bb eb bd 54 a3 6f 3d 71 c9 87 bd
       0.06545671 -0.115103476 0.05850537 -0.06630219
000090 df fb a6 3d 77 94 eb bd 34 a9 83 3d 28 f8 05 be
       0.08153509 -0.11502927 0.06428757 -0.13082945
0000a0 a7 04 e1 bd c3 21 be b8 c6 e1 bc bd 9e 7a 26 3d
       -0.109872155 -9.0661946e-05 -0.0922275 0.04064428
0000b0 25 b8 76 3d 55 82 10 3e eb 57 b5 bd a9 7c bf bb
       0.060234208 0.14112218 -0.0885466 -0.005843718
0000c0 05 8f 8b bd 42 86 07 3d d0 3b b0 3d 89 f8 e7 bd
       -0.06814388 0.033087023 0.08605158 -0.11326701
0000d0 89 b3 0b bc dd 07 02 be bf 3b 2b bd 98 22 e5 3d
       -0.008526691 -0.12698312 -0.041805025 0.11188239
0000e0 02 97 37 bd 16 03 9a 3c a2 d7 e9 3d a0 ee 91 3b
       -0.044821747 0.0188003 0.11418082 0.004453495
0000f0 66 23 ad bd 64 41 a6 bd 9c 92 a5 bc 54 b7 3b 3d
       -0.08454017 -0.08117941 -0.02021151 0.045829132
000100 98 31 cd bd de 63 2d 3b 8d aa 1e 3e 6f 5c e3 bd
       -0.10019225 0.002645723 0.15494747 -0.11101615
000110 81 a0 60 3d 95 41 4d 3e b9 e9 b1 3d 3c d2 3c be
       0.05484057 0.20044549 0.08687157 -0.18439573
000120 56 61 3e bc eb b6 37 3e c9 cb dd 3d b7 29 bf bb
       -0.011619886 0.17940871 0.108298846 -0.00583383
000130 50 47 05 3c e4 01 e9 bd 15 b9 3f bd 26 49 3b 3e
       0.008134678 -0.11377314 -0.046807367 0.18289623
000140 3d 11 0c bd b2 e5 66 bc ee 7d 46 3d 6e 38 c3 3d
       -0.034196127 -0.01409285 0.04845994 0.095322475
000150 80 a3 ad 3c e9 15 b7 3d 97 9e ef 3d 8a 7b ee 3b
       0.021196127 0.08939726 0.117001705 0.0072779106
000160 7d d3 70 3d 37 dd 61 3c 9d d2 e4 3d ae c0 48 3d
       0.05879544 0.013785652 0.11172984 0.04901188
000170 8c 9e fa 3c 15 2a e6 3d 39 02 dd 39 b9 a0 b6 3d
       0.03059318 0.11238495 0.0004215406 0.08917374
000180 fe 41 15 bb cc ac 8b bd f7 1f 7e be 66 ed 83 3c
       -0.002277493 -0.06820068 -0.24816881 0.016104411
000190 c5 76 46 bd 36 db 12 be b6 e2 31 bc 77 5f 65 be
       -0.04845311 -0.14341435 -0.010857275 -0.22399698
0001a0 1c 48 d3 bd 21 76 ab bd 93 24 25 be de 54 8e 3c
       -0.10316488 -0.08372141 -0.16127233 0.017374452
0001b0 32 63 27 bd 7c db e7 bc 0b 2d 80 bc e7 f0 32 3d
       -0.040866084 -0.0283029 -0.015646478 0.043686774
0001c0 7a 58 03 bd 2d d6 d6 3c 85 ea a6 bd b9 2f 19 3d
       -0.0320668 0.026225174 -0.081502 0.037399027
0001d0 50 6d 02 3d 3f be 25 3e a5 d1 d2 3c 8c 13 0f be
       0.03184253 0.16185854 0.025734732 -0.139723
0001e0 84 0a 91 bd 2f a1 cd 3d 90 8d 4d 3e 55 22 fa 3d
       -0.07082084 0.10040509 0.20073533 0.122135796
0001f0 06 2e cf bd 71 a8 24 be 55 76 2e bd ab ac 1b be
       -0.101162 -0.1607988 -0.04259332 -0.15202586
000200 48 ca 2f 3d ac 02 10 bb 31 25 cb 3a 37 21 b5 3d
       0.04291752 -0.0021974249 0.0015498755 0.08844226
000210 3d f6 41 bd 9a 69 df bd 05 e7 09 be 03 02 fa 3d
       -0.04735397 -0.10908814 -0.13467033 0.12207415
000220 8c 61 c9 bd d4 c0 54 bd 62 67 b7 bc 22 53 a5 bb
       -0.09833059 -0.051941708 -0.022388164 -0.0050453106
000230 89 3f ac bc aa b1 7a 3b f9 e1 b1 3d f8 e0 b8 3b
       -0.02102639 0.0038252869 0.08685679 0.0056420527
000240 50 4e ad bd 04 35 31 bd 8c d1 10 bd 9a 59 e2 bc
       -0.084622025 -0.04326345 -0.03535609 -0.027630616
000250 b7 a6 94 3d 92 2d c6 3b 0d 6f cf bb b8 90 16 be
       0.07258361 0.006047913 -0.006330377 -0.14703643
000260 38 48 a1 3d ea b0 f4 3d a1 7c 8d bc 41 7e 82 bd
       0.07875103 0.11947806 -0.017271342 -0.06371737
000270 8a fc 43 be 9e d9 1d be c3 57 89 3b a4 81 41 bd
       -0.19139305 -0.15415046 0.00419137 -0.047242776
000280 9f 56 86 bd 63 0b 2a 3e 69 bd 1b be 8a ab e9 bd
       -0.065594904 0.16605906 -0.15208973 -0.114096716
000290 03 00 14 3d 42 6f 9a 3d 59 09 51 3d 1c 2f eb 3d
       0.036132824 0.07540752 0.051034305 0.11483595
0002a0 4f c7 88 bd 1f 2c 45 bd 40 4d c3 bb 6d 0e 2e be
       -0.0667864 -0.04813778 -0.0059601367 -0.1699769
0002b0 87 ad 29 3e cf 5e a4 3d 5b d8 17 be 48 af e8 3d
       0.16570102 0.08025896 -0.14828627 0.11361557
0002c0 ba 2e 01 3d c1 f4 5f bd 67 4c e5 bd 79 1b e5 ba
       0.031538703 -0.054676775 -0.11196213 -0.0017479501
0002d0 ac 1e 39 3d 34 3d 8a bd 30 e5 e9 bb b3 f3 de bd
       0.045195267 -0.06749955 -0.007137917 -0.10886326
0002e0 fb 34 aa bd 6e 40 80 bd 37 c7 cf 3d 4c 7a d6 3d
       -0.083108865 -0.06262289 0.10145419 0.10472545
0002f0 e9 5e 4b be f8 e6 9a 3d 6a ba c0 3b 4c c1 29 bd
       -0.19860424 0.07563585 0.0058815973 -0.041444108
000300 2f 28 88 3c 2d 83 0e 3e 46 bd 07 3e e0 b4 65 3c
       0.016620724 0.13917227 0.13255796 0.014020175
000310 4e ce a9 3c d1 f6 1d 3d 96 46 cb 3d cb 61 27 3e
       0.020728257 0.03856546 0.099255726 0.16345899
000320 85 8b 2b 3c a2 11 12 3e 08 57 0a be d6 f8 ea bd
       0.010470276 0.14264539 -0.13509762 -0.11473243
000330 cc 57 ce 3d df 61 52 bd 0e 82 89 be a3 fa 01 be
       0.1007534 -0.05136287 -0.26857036 -0.12693267
000340 e9 ad a5 bd a1 39 f1 3c 64 c2 e6 3a 43 09 e2 bd
       -0.08089811 0.029446425 0.001760554 -0.11036923
000350 29 a2 78 38 f3 17 18 bd ab d8 c4 bd 0e e6 8b 3d
       5.927883e-05 -0.037132215 -0.09611639 0.06830989
000360 7e 33 d8 3d 8d 27 cb 3c 6a ef f6 bd af 7b bd bd
       0.10556696 0.024799133 -0.12057383 -0.092521064
000370 80 55 12 bd ab 70 05 3e 85 aa 0a 3d 3d 33 54 be
       -0.03572607 0.1303126 0.033854026 -0.20722671
000380 fa dd 8e 3d 16 24 76 3d 57 10 82 be d0 a0 b7 bd
       0.069759324 0.060093008 -0.2540309 -0.089662194
000390 c8 34 e8 3c 91 f5 cc 3d ca f8 eb 3d bc 92 2a bd
       0.02834548 0.100077756 0.11522062 -0.041643843
0003a0 ba e5 87 bb eb 00 f6 3b 69 76 6e 3d 65 18 a3 bc
       -0.0041472586 0.0075074336 0.058218393 -0.019909093
0003b0 d8 f5 b9 bd de 18 f7 bc 8b 99 bf 3b 26 4b 8a bc
       -0.09080094 -0.030163225 0.005847161 -0.016881537
0003c0 1d 81 57 3d 17 e8 c5 3d 7e 7a 45 bd bd dd f3 bc
       0.052613366 0.09663408 -0.04821252 -0.029768819
0003d0 05 37 1d 3c 5a 74 dc 3d 3b 43 ba 3d 67 43 cf 3d
       0.009595637 0.1076438 0.090948544 0.10120278
0003e0 17 ad b3 bd fd f3 8d 3d 4f 22 8a 3c f4 dd 06 bd
       -0.08773249 0.06931303 0.016862063 -0.032926515
0003f0 c2 02 58 3d 1a 8e c0 bd e8 e9 b2 bd 98 c8 08 bc
       0.052737005 -0.09402104 -0.0873602 -0.0083486065
