Project/Assets/ML-Agents/Examples/SlideMan/SlideMan.onnx (onnx, 77790 bytes, 9 tensors)

action_model._discrete_distribution.branches.0.bias f4 [2]
00000000: 9157 75be 9457 753e
-0.23959185 0.2395919

action_model._discrete_distribution.branches.0.weight f4 [2, 128]
00000000: 0dae e43c dda2 e6bc d1a5 f63d f9fc ba3d
00000010: b242 913d 584d 283c 6858 383c a953 1abe
00000020: eca1 c4bc a9c8 303e 52b7 6e3e dc02 62bd
00000030: de7c 543e 54ad d4bd 601d 4e3d f9b1 503d
00000040: 97fa c03d 9722 b23c 3d8f 083e e258 af3d
00000050: a7f5 013d 3c80 f73d 3f74 933c 213c 753e
00000060: 0ac6 813d 1fc2 933b c04d 943d ebc3 c33d
00000070: 508b f93d 7835 d5bd 80cb 6fbc 5d4f 31bd
00000080: 771c d53d 6137 3a3d b655 c53d e55f c93d
00000090: 8bf3 c3bd b125 803e 5b68 1b3e c5cd d63d
000000a0: 3fe8 c9bc 54aa 253e eeb5 ba3d 1e77 813e
000000b0: 9ecc 493e 79f2 b43c 2117 c63d 4d2f 153e
000000c0: d349 213d 5b2e 97bc b86c 9b3c 57e6 23bc
000000d0: 30be 8e3d 86f8 873b 4d97 ad3c eac9 a73e
000000e0: 59a9 0d3e cf27 a43c ee74 dcbd 1e21 813d
000000f0: e4d4 163e 867a c2bd 7e9d d83c 40f4 383d
00000100: 57c5 1f3e b964 803d 82f2 10bd 5a13 5f3d
00000110: 10b4 743e 9ef7 2b3e f01f a03e bbb6 d43d
00000120: c99f 67bd a03c 183e a19d f03d 9690 7c3d
00000130: 81a6 cb3d 892d 5bbd 400f 703e 4bbc d63d
00000140: a67b b93c 1798 0a3e a531 11bc 3d25 3abc
00000150: ef24 363e eeb1 713e 3630 743d cf90 24bd
00000160: 5c76 83bc f74e 083a 623d 01be d2d6 bd3d
00000170: c9f8 383e 0e06 d4bd 33c3 323e 7f7c 4f3e
00000180: 032b f23d 8bd7 c13d 0220 643d 4a23 7bbd
00000190: 8435 243d 640b 883c d32d 0e3e 9586 b9bd
000001a0: 17f5 cbbc ccb9 4d3d d964 223d 7ad7 48bd
000001b0: 1c0e 433d c96f c4bd c3ff 2cbe 7c99 633d
000001c0: 8b7d 863d 4fea eb3d 2135 763d 16a9 d8bc
000001d0: a6cf 363d f986 03bc 451e a73d 1197 833d
000001e0: 8f5b 4d3e 7251 c6bc 757c f33d 5933 663e
000001f0: 62d4 0abd bd83 f03d 84f8 073e f62d 1a3c
00000200: 10f4 7fbc b7c0 b03c 9850 e9bd bb47 dcbd
00000210: 70c1 6fbd 425b fbbb 5aac babc 4623 1c3e
00000220: 909a 323d dc6a 4abe 618e 6ebe bebf 7b3d
00000230: d895 63be ee96 ce3d 1853 2abd 7525 9ebd
00000240: b9c2 adbd 66e3 5fbc 7e0c 06be 7ef0 aebd
00000250: e9d3 3cbd 26aa f2bd 0374 c03b a462 7bbe
00000260: 0528 8ebd 19cd e3bb 120f 6dbd 02e9 cbbd
00000270: f216 1fbe 7e56 9b3d 6b22 0c3d e312 6e3d
00000280: 97d7 b2bd d44c 20bd aebb dcbd 6a01 bcbd
00000290: 0b2c ea3d 066e 87be 8828 14be 872d edbd
000002a0: e3d6 eaba d415 2bbe 4077 c4bd d3cc 7fbe
000002b0: d83e 43be 6bcd 8fbc 132b c8bd 34c9 18be
000002c0: 3608 1ebd c0ff b03c 4686 29bd 2ff0 7f3c
000002d0: 221b aabd fab6 9fbc 3b0c 1fbc 4d9f a4be
000002e0: 59dd fcbd ba52 7fbc e000 e03d 2ed3 55bd
000002f0: a413 25be 30eb 8e3d 8fe4 97bc d46c 96bd
00000300: b89b 2dbe 9d56 73bd 9367 1b3d b10b 58bd
00000310: 8212 6ebe 3dd7 1abe ef96 a1be 6c56 babd
00000320: 92a8 473d 6921 24be 80bd fabd 9705 81bd
00000330: ec9e cfbd a142 963d 9acf 6ebe faea fbbd
00000340: 0fe8 d6bc baa6 13be b0ab 923c e40e 763b
00000350: db1f 32be feda 6abe 5b99 94bd 64a2 553d
00000360: c91f e93c 2af3 9abc ca4a ed3d db32 bebd
00000370: 900c 1dbe 8efb e13d 26fa 35be f4ad 3bbe
00000380: 3c5e edbd 1818 ddbd 5adb 26bd bb3b 6c3d
00000390: 067c 44bd eafb 71bc 4323 1cbe ad21 ae3d
000003a0: cd85 9a3b a351 4ebd 46ab 32bd 5f7d 0a3d
000003b0: a7e3 4ebd 5b14 ce3d 748f 323e 3c28 6bbd
000003c0: 7191 89bd be3a fcbd 11d9 72bd 84c7 b33c
000003d0: 7e98 79bd b36b a93b 6839 98bd b725 b7bd
000003e0: e9f0 53be d71d d83c 1e14 01be 1f62 42be
000003f0: c7e9 c33c 92d3 00be c729 01be 4648 37bc
0.027915025 -0.028153831 0.12043346 0.09130282 0.07092799 0.010272346 0.011251546 -0.15070976
-0.024002992 0.17264046 0.23312119 -0.05517851 0.20750758 -0.10384622 0.050320983 0.050950978
0.09422796 0.02174501 0.13335891 0.08561875 0.031728413 0.12085006 0.017999766 0.23948719
0.06336601 0.004509225 0.07241392 0.09558853 0.12184775 -0.10410589 -0.0146359205 -0.043288577
0.1040582 0.04546297 0.09635489 0.098327436 -0.095679365 0.25028756 0.15176527 0.10488466
-0.024646876 0.16178256 0.091167316 0.25286192 0.19706962 0.022088276 0.0967238 0.14568825
0.039377045 -0.018454721 0.01897274 -0.010003648 0.06969869 0.0041494993 0.02119031 0.32771236
0.13834132 0.020038513 -0.1076449 0.06305145 0.14729649 -0.09496026 0.026442286 0.04515481
0.15602623 0.06269211 -0.035387523 0.054461814 0.23896813 0.16793677 0.31274366 0.103864156
-0.056548867 0.14866877 0.11748815 0.061661325 0.099438675 -0.053510223 0.23443317 0.10485133
0.022641968 0.1353458 -0.008861934 -0.011361417 0.17787527 0.23603031 0.05961629 -0.040177163
-0.01604765 0.0005199755 -0.12621072 0.09269489 0.18063654 -0.10352717 0.17457275 0.20262335
0.1182461 0.0946494 0.055694588 -0.06131295 0.0400901 0.016606994 0.13884668 -0.090588726
-0.024897141 0.050226018 0.039646957 -0.04903362 0.047620878 -0.09591634 -0.1689444 0.055566296
0.06566914 0.115193 0.06010926 -0.026447814 0.044631623 -0.008027785 0.0816007 0.06425298
0.20054458 -0.024208758 0.11888973 0.22480525 -0.03389395 0.11743877 0.13278395 0.009410372
-0.015622154 0.021576269 -0.11392325 -0.10755869 -0.058534086 -0.007670791 -0.022787262 0.15247831
0.043604434 -0.19767326 -0.232965 0.061462156 -0.2222513 0.10087381 -0.04158315 -0.07721988
-0.08484406 -0.013665056 -0.13090703 -0.08541964 -0.04610053 -0.118488595 0.0058732047 -0.24549347
-0.06941227 -0.00695194 -0.0578757 -0.09956552 -0.15536097 0.075848565 0.03421251 0.05812348
-0.08732527 -0.03913577 -0.107779846 -0.09179957 0.11434182 -0.2645113 -0.14468586 -0.11580949
-0.0017916824 -0.16707546 -0.09593058 -0.24980478 -0.19066942 -0.017554006 -0.09773841 -0.14920503
-0.03858205 0.021606326 -0.04138782 0.015621229 -0.083059564 -0.01949643 -0.009707506 -0.32152787
-0.12346906 -0.015583688 0.10937667 -0.05220335 -0.16120774 0.06978452 -0.018541602 -0.07344976
-0.16953933 -0.059408773 0.037940573 -0.052745525 -0.23249248 -0.1512117 -0.31560466 -0.09098515
0.048744746 -0.1602837 -0.122431755 -0.06299894 -0.10137734 0.07336927 -0.23321381 -0.123006776
-0.026233701 -0.1441907 0.017904133 0.0037545497 -0.17394964 -0.22935101 -0.07255813 0.05215682
0.02845754 -0.018914778 0.115865305 -0.09287044 -0.15336823 0.110343084 -0.17771205 -0.18328077
-0.115902394 -0.10795611 -0.040736534 0.05767415 -0.04796984 -0.014769534 -0.15247826 0.08502517
0.0047156573 -0.050370824 -0.04362037 0.03381097 -0.050510075 0.10062476 0.17437536 -0.057411417
-0.06717194 -0.12315892 -0.059289042 0.021945722 -0.060936444 0.0051703095 -0.074328244 -0.089427404
-0.20697369 0.026381416 -0.1260533 -0.18982743 0.023915185 -0.12580708 -0.12613593 -0.011186665

action_model._discrete_distribution.branches.1.bias f4 [3]
00000000: 7bbe a13d 31aa 06be e453 503d
0.078976594 -0.1315086 0.050861254

action_model._discrete_distribution.branches.1.weight f4 [3, 128]
00000000: 418b 13bd 01c0 0ebd e701 a43c e517 553d
00000010: ab1c 1bbd 8cbd e2bc ed79 503d b0d9 b33d
00000020: 68a7 c1bd 3301 10be de90 15be 5137 9d3c
00000030: 9d16 363e f8c2 ca3d 4df0 f8bd 3523 e4bd
00000040: 0d40 f2bd d822 bcbd 4e67 10bd 11c5 6abd
00000050: 2c69 c13c 6db9 46bd 181d 54bd 9c62 60bc
00000060: d8b7 91bd 00a1 f53b d350 6fbd 1da6 daba
00000070: 207c b23d 84e3 653d fde8 123d 32c5 923c
00000080: e0f7 6abc cd5e a1ba bc85 c4bd 4df2 15bd
00000090: 4a3e b83c ec65 423d 2ede 1cbd ad8e 67bd
000000a0: fa14 cd3d d77c 903d b677 84bd 703f a43d
000000b0: 224a b33c 397c 3cbd 0e27 01bc 6733 23bd
000000c0: 129b 193d 508e 003e a0f5 6dbe 5921 bbbd
000000d0: e627 3abe 1299 82bc 9dfb 14be 4d21 893d
000000e0: 0adb b0bd caf9 93bc e9a4 d93d 35ce d3bd
000000f0: 73ab 6e3d 62c3 4bbd 05c9 943d 5c93 f4bb
00000100: f619 223d 96e4 533d c865 fd3d eff2 5a3c
00000110: fff8 973c a799 84bd b8ff 0abd 8180 3cbd
00000120: b7de 653c 3d6f 023e fc85 c3bc 6a9c 38be
00000130: 372f 563c a45c c6bd 6f79 993c 3747 d2bd
00000140: b214 b1bb c055 d83d 0bea de3c 2f47 1abd
00000150: 22ad 473d 7995 f6bd bf52 b7bd 6f0a cb3a
00000160: 5f78 aabd 6070 9abd 397a b73d f270 66bd
00000170: edc9 8fbd c1bf ebbd 2875 4cbd 459b 82bc
00000180: fbce bc3d 4eeb 3bbd 81a1 a2bd 6386 3f3c
00000190: ea76 a73d 8b97 113c ed9c fb3c 4545 86bd
000001a0: afdf 1e3d 2f61 fcbb 3a28 00be ca13 2d3d
000001b0: 311d bfbd b27a 74bd dd7d 283d 777b 3abd
000001c0: 9377 f63c e568 323d 5cbf 0a3d 7036 6d3b
000001d0: aaa3 c2bd 8bfe b43d c135 3cbc 2b6b d73d
000001e0: e4fd 31bc da3f db3c 8c4c 6abd 777e cbbc
000001f0: 4ba1 31be eaea c73a 2cba 68bc 3ba8 70bd
00000200: 5194 b23d def6 bd3d 3d21 9fbd f6bc 99bd
00000210: a151 82bc a778 0ebe 489b 9dbb 139c 923d
00000220: 89bb 203d 8a7b 473c db6a ed3d 7c05 1b3e
00000230: 7103 46be 13d1 f63d 6744 f63c faba 833d
00000240: bb30 e53c 510b 803b f265 aabb f760 a7bd
00000250: 807e d53a 6645 393d d516 07bc 2c35 633d
00000260: fafc 783d 17a2 383e c95a 753e 6e12 adbd
00000270: 754c 62bd b2ef e13c 5d82 05be 212b 463d
00000280: fb24 2abe 846c b8bd 8727 0abe 0042 d0bd
00000290: 4013 843c 5bee cf3c 1a89 c1bd 32ae 17bd
000002a0: deb1 69bd 3ad7 99bd 6b91 3d3d 8758 96bd
000002b0: e960 67bd fe3b 74bc 545d c13c 0fde 0a3e
000002c0: 450f 9abc 2582 323d b4fb 633e f32a 383e
000002d0: 5224 873d 11a2 11be 6da0 d83d 3a67 a1bd
000002e0: b106 d5bc 5e6b 753d ddfd 753d f0db 28bd
000002f0: a0c5 d8bd 553f c83d 51fc 4fbe f211 dabc
00000300: 9a33 27bd 5617 9cba 2d66 97bb 8ca5 d1bd
00000310: 6556 e9bc cf83 533c 8f31 0cbc 0d28 debd
00000320: 132f 3c3d 3baa 7abd 4d0c 653d dbb8 3dbc
00000330: 07fb 30ba 3f1f bb3c ee01 813d 3d10 ab3d
00000340: c6a8 97bc 4bac a23c 5dc5 bf3d 775b ce3d
00000350: fac8 a1bd 1bf6 0a3e f046 77bc 8616 0abd
00000360: 5650 f23d 2393 053e f842 a0bc e296 34be
00000370: f703 dbbd 594a 993d d7ce a13d 35c9 503c
00000380: 5f76 c8bc 76b0 60bd 035f 293e 4e28 653c
00000390: b160 88bc 2644 86bd 425b 89bc 8087 913d
000003a0: 3027 3dbe 26a2 fa3d c92d 133d 4b04 d1bd
000003b0: 26e0 4f3e 628c cfbc 8918 fd3c 090c da3d
000003c0: a9f1 273e bf67 09bd ac55 3abe d301 8abd
000003d0: 23cf 2f3e fbd9 983d c889 36bd 8623 4ebe
000003e0: 695e 1fbd 9607 eb3d e41f 793c 317d 08bd
000003f0: 80bb 943d c944 88bd a56c 443d 3ed3 0b3d
-0.036021475 -0.034851078 0.020020438 0.05202474 -0.037869137 -0.027678274 0.050897527 0.08781755
-0.09455758 -0.14062957 -0.14606044 0.019191416 0.17782064 0.099004686 -0.12155209 -0.11139528
-0.11828623 -0.091863334 -0.03525477 -0.057316843 0.02360972 -0.04851668 -0.05178556 -0.013695385
-0.071151435 0.0074959993 -0.05842669 -0.0016681586 0.08715081 0.05612518 0.035866726 0.017916296
-0.014341325 -0.0012311578 -0.0959582 -0.03660803 0.02249064 0.04746048 -0.038297825 -0.05653255
0.100137666 0.07055061 -0.064681455 0.08019912 0.021885935 -0.046016905 -0.0078828465 -0.039843943
0.037501402 0.12554288 -0.2323823 -0.0913722 -0.18179283 -0.01594213 -0.14549108 0.06695805
-0.086355284 -0.018063445 0.10627157 -0.10342065 0.058268975 -0.04974688 0.07264904 -0.0074638557
0.03957554 0.05173167 0.12372929 0.013363584 0.018551348 -0.06474619 -0.03393528 -0.04602099
0.01403015 0.12737747 -0.0238676 -0.18028417 0.01307278 -0.096856385 0.018734662 -0.102674894
-0.0054040784 0.105632305 0.02721121 -0.037665542 0.048749097 -0.120402284 -0.089513294 0.001549078
-0.0832374 -0.07540965 0.08958859 -0.056260057 -0.07020936 -0.115111835 -0.049916416 -0.015943179
0.09219166 -0.0458787 -0.07940961 0.011689755 0.08176978 0.008886228 0.030714476 -0.06556181
0.03878754 -0.007702015 -0.12515345 0.0422552 -0.0933174 -0.059687324 0.041135658 -0.0455279
0.030086314 0.043557066 0.0338739 0.0036195777 -0.09503873 0.08837613 -0.011487425 0.105184875
-0.010863755 0.026763845 -0.057201907 -0.024840577 -0.17346685 0.0015252505 -0.014204543 -0.058754187
0.08719695 0.09275602 -0.077700116 -0.075067446 -0.015908064 -0.13913213 -0.0048097707 0.07158675
0.039241347 0.01217545 0.11592647 0.15138811 -0.1933725 0.120515965 0.030061914 0.06432147
0.027977338 0.003907599 -0.005200141 -0.081727915 0.001628831 0.0452322 -0.00824519 0.05547063
0.060788132 0.18030582 0.23960413 -0.08450781 -0.055248696 0.027580116 -0.13038011 0.048380975
-0.1661567 -0.09005073 -0.13491641 -0.101688385 0.01612246 0.025382211 -0.09449978 -0.03703136
-0.057054393 -0.07511754 0.04628126 -0.07341104 -0.056488905 -0.014906881 0.023604073 0.13561271
-0.01880611 0.043581147 0.22263986 0.17985134 0.065987244 -0.1422198 0.10577474 -0.07881017
-0.026004167 0.059916846 0.060056556 -0.041225374 -0.10584569 0.097777046 -0.20311095 -0.026619885
-0.040820695 -0.001190881 -0.0046203346 -0.10236654 -0.028483579 0.012909844 -0.008556738 -0.10847483
0.04594333 -0.0611975 0.055919934 -0.0115797175 -0.0006751273 0.022842048 0.06299196 0.083527066
-0.018513095 0.019857546 0.09363816 0.10076039 -0.07899661 0.13570444 -0.015092596 -0.033712886
0.11831729 0.1304441 -0.019563183 -0.17635682 -0.106941156 0.07484884 0.0790078 0.012743284
-0.024470506 -0.054855786 0.1654015 0.01398666 -0.016647669 -0.06555967 -0.016767148 0.07105923
-0.1847198 0.122379586 0.035932336 -0.10205897 0.2030035 -0.025335494 0.030895488 0.10646827
0.1640078 -0.033546206 -0.18196744 -0.06738629 0.1716886 0.074634515 -0.044564992 -0.20130739
-0.038908396 0.11476056 0.015205357 -0.033322517 0.07262325 -0.06653745 0.047955174 0.034137003

discrete_action_output_shape f4 [1, 2]
00000000: 0000 0040 0000 4040
2.0 3.0

network_body._body_endoder.seq_layers.0.bias f4 [128]
00000000: ef45 39bd 8629 94bd 7298 e7bd 218b af3d
00000010: f8d1 31bc 5e47 083d 84aa 97bd f04a b53d
00000020: 8e32 903d 3012 42be 99d1 ecbd f583 22be
00000030: c252 35be fd87 6a3d 84d5 ae3c 1714 be3c
00000040: ebd8 12be b708 d1bd 8352 863d 6edd d23b
00000050: 8ce3 15be ae26 513b 8547 4fbc 3fec 03be
00000060: 522b 8ebd ff32 3cbd c9e0 24bc ec28 f0bd
00000070: a8ab 15bd 72b0 7abd 238a 27be 8be5 31be
00000080: 4edb 39be 3260 74bd 43a2 343d a971 b0bc
00000090: 8387 0dbb 8828 90bd 4648 083c af79 15bd
000000a0: 5283 a3bd eaaa 2bbe 7ec1 4cbd ff30 4dbd
000000b0: 11ee bd3c 8036 e9bd 4349 68be 5512 30bd
000000c0: 784e 99bc 5547 d73d 126c 77bc 3989 adbd
000000d0: 567e 47be e671 6bbd 0c1b 7f3d 344d b9bd
000000e0: 0acb ba3d c9d6 14bd 47cc 4cbd 6883 c1bd
000000f0: 1f4f 7bbe 462b 8ebc 70e2 88bc 437f 8f3d
00000100: 0777 b13b 71c0 babc 6f9f 24be 265c 1fbc
00000110: 1fb5 1dbe 7ca5 77bd d9c4 e6bb a5e7 a4bd
00000120: e708 a33b d922 7ebd e6c4 a1bd 0f48 0fbe
00000130: ab3a a5bd a793 e5bd 903f 36be 5b87 8d3e
00000140: 7a6b 293d cba5 9e3d 5013 0d3d 692e 2cbe
00000150: 11af 03be 8160 03bd 5496 21be c4fe ebbd
00000160: d415 eabd 9d5c 303e ae46 c3bb e585 5abd
00000170: af96 3d3c 26df 23be 316a 2d3d 7f7f cebc
00000180: df93 02be 904d b8bd e2ab 5cbd a44d 0ebd
00000190: 28b5 8cbd b6e8 80bd 3caa e6bd 83b8 a4bd
000001a0: 9fe3 3bbc 967e 26bd c47b 89bd a941 f8bd
000001b0: 5a41 16be 9c97 08bd a67f 55bc 8071 06bd
000001c0: e211 c3bd 8503 27be c24c edbd 6ab5 cabd
000001d0: 1383 983c 4372 abbd 2cfe 64bc bc8f 3bbd
000001e0: f65a acbd cb54 33bd cfdf c9bc 4958 af3d
000001f0: 686c 6c3d 7f6e 18be 1132 09be 3e34 15be
-0.04523271 -0.072344825 -0.113083735 0.085714586 -0.010853283 0.033271186 -0.0740557 0.08852184
0.070408925 -0.1895225 -0.11563415 -0.1587065 -0.17707351 0.057258595 0.021342047 0.023202939
-0.1434056 -0.1020674 0.065587066 0.006435088 -0.14637583 0.0031913924 -0.012651329 -0.1288309
-0.069418564 -0.04594707 -0.010063359 -0.11726555 -0.036540657 -0.061203428 -0.16361289 -0.1737272
-0.18150064 -0.05966205 0.044100057 -0.021538572 -0.0021595664 -0.07038981 0.008318013 -0.036493
-0.07984032 -0.16764417 -0.049989216 -0.050095554 0.023184808 -0.11387348 -0.22684197 -0.042986233
-0.018714175 0.105116524 -0.01510145 -0.08473439 -0.19481787 -0.05748167 0.062281653 -0.090479285
0.09120758 -0.036337648 -0.0499995 -0.09448892 -0.24541901 -0.017354619 -0.016709536 0.07006695
0.0054158005 -0.022796841 -0.16076444 -0.00972656 -0.15401123 -0.060460553 -0.007042509 -0.08051995
0.0049754265 -0.062044952 -0.078988835 -0.13992332 -0.08067831 -0.11209803 -0.17797685 0.2764233
0.041362263 0.07746466 0.034442246 -0.16814579 -0.12859751 -0.032074455 -0.15780002 -0.11523202
-0.11429945 0.17222829 -0.0059593534 -0.053350348 0.01157157 -0.16003093 0.0423376 -0.02520728
-0.12751721 -0.08999169 -0.053874858 -0.034742013 -0.0687049 -0.06294386 -0.112629384 -0.08043005
-0.011467843 -0.040648066 -0.067130595 -0.12121899 -0.14673367 -0.03334771 -0.013030922 -0.032823086
-0.09524895 -0.16309936 -0.11586906 -0.09897883 0.018617189 -0.08371403 -0.013976615 -0.045791373
-0.08415787 -0.043782037 -0.024642853 0.08561761 0.05772057 -0.14885901 -0.13398005 -0.1457071

network_body._body_endoder.seq_layers.0.weight f4 [128, 11]
00000000: cdfc 9d3e 359d 4c3e 1f67 373b 5ffc 1abf
00000010: bf36 03bf dc9e 87bd f728 cabe 0c38 c13e
00000020: e17d 003e 3881 3d3d 91af 04bf c67f 07be
00000030: e54c 93be 3d5f 66be b4a7 d53d 6615 3d3e
00000040: b0e9 c83e a6d8 f4be 7eba 0b3d 5128 09bf
00000050: d8b7 01bc 79a2 8ebe ebdc 9bbd 5ced 1bbe
00000060: ac66 13bc d42a 263d f69b e4be 062e 16bf
00000070: 4d86 c13e d839 d83d bdab 383e e561 4a3e
00000080: f4ea 9d3d 491f 7e3c 1634 a1be be82 87be
00000090: 9ab3 0fbf e1d3 3b3e babf 0e3f fd6c 8cbe
000000a0: 61b2 943d b807 52be 3bca dcbe 1c12 c53e
000000b0: affb febd d81a 85be 0eda bd3c 2753 09be
000000c0: 8cff 2fbe a3e0 8abd 7558 083f 9fee 01be
000000d0: 5d53 2abf 6459 333f 3306 9b3d 7e38 65be
000000e0: 6773 963e 8cc6 65bd e24e e33c 5f17 ba3d
000000f0: be3f 043d 403f 02be 2a42 923d 011b 103f
00000100: 4cea 15be 4e2f 0cbf fa7f 5bbc 3af3 d03c
00000110: 5bd7 08be d68c 883e b89d b8be bb60 623e
00000120: 8db8 933e 787e afbe d01c 84be 6a44 2bbf
00000130: 2f80 94be e4cb d73d cde8 ba3d e913 cfbe
00000140: fe13 83be d186 a5bc f5ff 8f3e e82f e2be
00000150: 719c d83d 1bd8 e03e 6350 773e 16c7 823e
00000160: 4895 a2be 06b9 093f 05f4 73bd bc12 143e
00000170: 28e5 0bbe 6681 4abd 6b85 c1be 206b ab3d
00000180: 9fdb a23e 2c1a 56be 6c1a d1be a226 893e
00000190: dfdc c5bd d3bd 2c3e c0c0 4bbd a167 e3bd
000001a0: 265b 81bd 841d dbbd c969 6cbd fb30 fcbd
000001b0: c779 95be ffb0 25be 12cf 91be d008 a1be
000001c0: b165 5e3e b904 9f3e 36e9 07bf c45b 1dbe
000001d0: 6fcf 813e 0a38 753f e01a ddbd 608d 1cbe
000001e0: 537a 353e 9eed 8b3e 472b 32be 0ff8 dd3d
000001f0: acee 61bd 3334 a7be 5084 85be ad7e 0cbf
00000200: c6d5 5dbe 9765 b8be 389a 15ba 75dd 3cbe
00000210: 10d7 6abe 7cf6 8bbe 182f ec3e 0cd6 9abd
00000220: 3e77 5dbe 20a5 8f3e a6bb 7dbe 432f 813e
00000230: a0cb 723d 9fdc be3e 986c 08be 961a d03d
00000240: a845 59be 4788 693d ccbc a6be b1a4 9b3e
00000250: 406d 9ebe 1ce9 85be e865 35be a68d a1be
00000260: ef4b 333e 4d81 0f3e f881 d43d da9c 41bc
00000270: f320 06be f92d debc ca47 ccbe f753 863c
00000280: 8447 6abe 4cde d93d 47f3 0fbe 213d 27be
00000290: 5bbd debc 5688 373e f869 29be 5030 3b3b
000002a0: c143 653e 678a c43e cde4 60be 2ced 283e
000002b0: 100f 4e3d bb20 a23c adba 1a3f ac6f f8be
000002c0: f4af 093f 220b 4cbd bdc4 563e d69d 88bd
000002d0: 8d86 24bf 3bdd c3bd 4a5b 18be 5c7e b8be
000002e0: b647 2ebf 5e88 18be 6965 6dbe b933 4a3d
000002f0: df37 bebc a283 31bf 396c 7b3e 3af3 d3bc
00000300: d13a 9c3e 2ef0 90be 77a3 693f 86f9 2abf
00000310: 3ddf b23e 28f4 1c3e 5b0a 7d3d 37fb 363e
00000320: 1dd5 36be 5a91 053e cf77 463e 253d efbd
00000330: a311 cdbd 9793 bf3e 6aab 513e 6964 833e
00000340: 14ec 413e 04a5 253d e125 e73e e6e9 17be
00000350: ab7f b5bc 7283 5d3e 8ed7 343d ef30 45bd
00000360: 4244 343e c6ba 0b3c 1ca2 7a3e dd12 0e3e
00000370: 85f3 14bf 02ff 25be 495b b5be 4dde 3bbe
00000380: c17a 44bf 8618 24be ea79 f23e 318c 9b3d
00000390: 705b 293e 6356 603d 71b3 16be 2723 303d
000003a0: 5c10 063c 1676 b13c ffd5 96be 0206 e3be
000003b0: 6342 d73d 2986 e4be 71a9 1fbe d6cc 73bf
000003c0: 322a 813e 7fff b83d f2c5 303e 9984 763a
000003d0: b883 92bc 6bd3 fbbe 4769 9ebd 269e 913e
000003e0: c7c2 083f 9c02 c03e d92f f83e 0b14 9e3d
000003f0: 11aa 813e f2b2 9d3e 553f 90bd 2952 2c3e
0.30856934 0.19981845 0.002798505 -0.6054134 -0.5125541 -0.06622097 -0.3948438 0.37738073
0.12548019 0.04626581 -0.51830393 -0.13232335 -0.28769603 -0.22497268 0.104323775 0.18465194
0.3924079 -0.4782154 0.0341134 -0.5357714 -0.007917367 -0.27858332 -0.07610496 -0.15227264
-0.008996647 0.040568188 -0.4465024 -0.58663976 0.37797776 0.10557908 0.18034263 0.19763906
0.077108294 0.015510389 -0.3148505 -0.26466936 -0.56133425 0.18342544 0.557613 -0.274269
0.072605856 -0.20510757 -0.4312304 0.3849038 -0.124503486 -0.25997043 0.023175266 -0.13410626
-0.17187327 -0.06781127 0.53259975 -0.12688683 -0.6653345 0.70058274 0.07569542 -0.22384831
0.2938492 -0.056097552 0.027747575 0.09086489 0.03228735 -0.1271944 0.07141526 0.56291205
-0.14640158 -0.5475968 -0.013397211 0.025506604 -0.13363402 0.2666995 -0.3605783 0.22107212
0.2885174 -0.34276175 -0.25803232 -0.66901267 -0.29004046 0.10536936 0.091264345 -0.40444878
-0.2560119 -0.020205887 0.28124967 -0.44177175 0.10576714 0.43914875 0.24151759 0.25542516
-0.31754518 0.5379795 -0.059558887 0.14460272 -0.13661635 -0.04943981 -0.37797102 0.08370042
0.31808183 -0.20908421 -0.4084047 0.26787287 -0.096612684 0.16869287 -0.049744368 -0.1110375
-0.06316213 -0.10698989 -0.057718072 -0.1231403 -0.2919447 -0.161808 -0.28478295 -0.31452036
0.2171848 0.3105829 -0.53090227 -0.15367037 0.25353572 0.95788634 -0.107961416 -0.15288305
0.17722444 0.27329725 -0.17399321 0.10838329 -0.055159256 -0.32657012 -0.2607751 -0.5488079
-0.2166358 -0.36015007 -0.00057068793 -0.18443854 -0.22933602 -0.2733649 0.4612968 -0.075603575
-0.21627519 0.28055668 -0.24778613 0.2523137 0.059276223 0.37277696 -0.13322675 0.10161321
-0.21217978 0.05701473 -0.32565916 0.30399087 -0.30942726 -0.2615441 -0.17714655 -0.31553382
0.17509435 0.14014168 0.10376352 -0.0118171815 -0.13098507 -0.02712153 -0.3989852 0.01639746
-0.22878844 0.10638103 -0.14057647 -0.16331913 -0.027189901 0.17923102 -0.1654433 0.0028562732
0.22389127 0.38386843 -0.2196228 0.16496724 0.050307333 0.019790998 0.60441095 -0.485227
0.5378411 -0.049815305 0.20973487 -0.0667073 -0.6426781 -0.09563681 -0.14878574 -0.36033905
-0.6807817 -0.1489577 -0.23183216 0.049365733 -0.02322 -0.6934148 0.24553002 -0.025872815
0.30513623 -0.28308243 0.9126505 -0.6678699 0.34935942 0.15327513 0.061777454 0.17869268
-0.17854734 0.13043728 0.19381641 -0.11681584 -0.100131296 0.3741729 0.20475546 0.25662544
0.18937713 0.040440574 0.45146087 -0.14835319 -0.022155603 0.21632174 0.04415088 -0.04814237
0.17604163 0.008528417 0.24475902 0.13874383 -0.5818408 -0.16210559 -0.35421208 -0.1834652
-0.7674981 -0.1602498 0.47358638 0.07595099 0.16538787 0.054769885 -0.14716889 0.043002274
0.008182611 0.021662753 -0.2946014 -0.4434052 0.10510709 -0.44633606 -0.1559198 -0.9523443
0.25227505 0.09033107 0.1726301 0.0009403914 -0.017885074 -0.49184737 -0.07734924 0.2844097
0.53422207 0.3750199 0.48474005 0.07718667 0.25325063 0.30800587 -0.070433296 0.16828217

network_body._body_endoder.seq_layers.2.bias f4 [128]
00000000: 33db 23bd cc6f 98bc 44df d43c aa53 04bd
00000010: fa3e d2bc 4bb7 69bd c867 c7bd aae9 253d
00000020: 64cb bb3b d622 4ebd f2a7 223c 98ec 223c
00000030: d78e f73b c45c 523c c5cc a83c 8042 5bbd
00000040: eb75 51bd 3ff8 17bd 4277 c0bc f9a1 19bc
00000050: 00bd cbbd 0932 b3bd 5135 3e3b 6b43 5dbd
00000060: d7b1 33bd e9a4 b9bc a34e 163c 4050 77bd
00000070: 99ae 42bd 9bb8 fd3c 6702 d3b8 2dfa acbd
00000080: a1a9 22bd 84b2 dbbc c26a cbbb 7a55 4dbc
00000090: 764d 083d ddae 12bd c0d0 963c 8740 cabd
000000a0: ebc8 273d f26e 07bc 8f55 6bbd 7dfe 40bd
000000b0: 45bf c93c 06c4 cdbd 103c 85bd 0f43 b4bd
000000c0: 20d6 9ebc f766 363d f36b 5abb 2dde 35bd
000000d0: bb73 a7bd 4400 d23b c221 69bd 6dd1 61bd
000000e0: bc29 d1bc 5dfa f6bc 50f5 253c 54af 89bd
000000f0: 336d 25bd 1f71 553c a347 45bd 662d 00bd
00000100: 95bc 52bc 4386 fdbb f191 ab3d 2bc5 71bc
00000110: 0395 b5bd dbf7 91bd 1187 87bd dcf0 8dbd
00000120: c333 83bd 5e25 c3bd bda9 14bd 1b32 3abd
00000130: 0ecc 2bbd 8e13 e0ba 8da2 3439 7b7f 1cbc
00000140: 0ee8 89bd 594e d5bb a680 34bc ab5e 68bd
00000150: d83a 86bd 586a d0bb f89b 36bd 9410 a8bc
00000160: 7b2c 02bd ba3c 0abd 7ad0 0cbd 77d8 a9bd
00000170: 85d6 a23c 0f9b b03d c7a0 efbd 2518 a4bd
00000180: c391 65bd a682 adbd e706 1a3b 987b e13d
00000190: b066 2e3c 93d7 adbd ed3d 503b 7ef6 b23a
000001a0: a8d2 fbbb d457 aebc 3066 5fbc 5ecb 82bd
000001b0: 8ab8 67bd 98a1 74bc 99cb 893d 0870 21bd
000001c0: 6d1d 4b3c e967 64bc 2a40 b3bc 3918 fa3c
000001d0: 4f53 13bd 7634 453d 860c 63bd ddb7 13bd
000001e0: 8ed8 293b 0f3d 25bc 6965 80bd b043 75bd
000001f0: f4e5 9ebc 26b0 8c3c 8e7f fbbc 0e66 2dbd
-0.040003967 -0.018607996 0.025985368 -0.03230635 -0.025664795 -0.057059567 -0.097365916 0.040506043
0.005731033 -0.05032619 0.009927737 0.009944104 0.0075548696 0.0128395 0.020605454 -0.053530216
-0.051137846 -0.03710198 -0.023494367 -0.009376996 -0.09948158 -0.08749778 0.0029023478 -0.054019373
-0.043870773 -0.022661643 0.009174022 -0.060379267 -0.04752979 0.030971816 -0.000100617115 -0.08446155
-0.039712552 -0.026818521 -0.006207795 -0.012532586 0.033276998 -0.035811294 0.018410087 -0.09875589
0.040963095 -0.0082661975 -0.057454642 -0.0471177 0.024627337 -0.10047154 -0.06505597 -0.08801853
-0.019389212 0.04453179 -0.0033328503 -0.044401336 -0.08176371 0.006408723 -0.05691696 -0.055131365
-0.025532596 -0.03014868 0.010129288 -0.06722894 -0.040387344 0.013027458 -0.04816402 -0.031293295
-0.012862344 -0.0077369525 0.083774455 -0.014756481 -0.08866312 -0.07127353 -0.06617559 -0.06930706
-0.06406357 -0.095286116 -0.036294688 -0.04545794 -0.04194265 -0.0017095672 0.00017226693 -0.009551878
-0.06733714 -0.006509584 -0.011017 -0.056730907 -0.06554192 -0.0063603334 -0.044582337 -0.020515718
-0.0317807 -0.03374932 -0.034378506 -0.082932405 0.019877682 0.08623325 -0.11700588 -0.08012418
-0.056047212 -0.08472185 0.002350265 0.11009902 0.0106446 -0.08488383 0.0031775192 0.0013653783
-0.0076850243 -0.021282114 -0.013635203 -0.063864455 -0.056572475 -0.014931105 0.06728286 -0.039413482
0.012397152 -0.01394079 -0.021881182 0.030529128 -0.03596812 0.048145734 -0.055431865 -0.036064018
0.002591643 -0.010085358 -0.062693425 -0.059879005 -0.01939676 0.017173838 -0.030700471 -0.042333655

network_body._body_endoder.seq_layers.2.weight f4 [128, 128]
00000000: a3c0 28be edd8 e63d 959e 6dbe 412e 413d
00000010: 6871 aabd 35bb df3c 8654 463d 4f4d cbbd
00000020: 9561 7b3d 8dcf b83d c526 66be ef8b b3bd
00000030: d3c3 b73d 57f8 16bc dadb dcbd 6e2d ccb8
00000040: 268d 5abe dc66 5abe e383 71be 9e5c c3bd
00000050: 1fbd 2f3d 3eee 01bd 5258 233d c6fd 31bd
00000060: a612 86bd 7e8c 16be 5d8a 6cbd e2ae a83d
00000070: 3329 e73d 5e6f f1bd b4e9 abbd f102 1bbe
00000080: 96d5 c1bd fe54 a73c 2129 1cbe 3997 cb3a
00000090: d84d 80be e6cf 6ebc a9bf 50bc 62d6 0d3e
000000a0: 5115 4dbe fdaf 14be e176 0dbe 1d6f cc3d
000000b0: cf9e c3bc f3c9 ab3d f019 873c 652a 3cbd
000000c0: 618b 49be 04be 97bd 7b53 90bb 1ae3 3cbe
000000d0: abd9 0bbe 491d 6abd 49ad 3cba 24c5 1cbe
000000e0: 2168 783c 50ef 063e de3a bc3c 4513 9cbc
000000f0: 94b4 5c3e 0d0a b8bd a340 68ba 871a 3bbe
00000100: 339c 3f3b 0820 e43d 9a66 953d 4dff c63d
00000110: e843 fcbd 4a21 57be 83f4 e9bb 14ea d0bb
00000120: 07ce 7cbd ae7f b43d 8936 2c3e 5d6e 5d3d
00000130: 01e0 22be b8d0 edbc 2dc5 0abd 0b9d 51be
00000140: 3958 063d 1133 24bd 27c4 26bd eba7 fcbd
00000150: d6d6 9cbd 3e3e 0fbe 9bf1 563e 05ad 35ba
00000160: 2eeb b73d 68cd efbd 047f 6abe 80cf bf3c
00000170: f356 563d 1dbd 0ebe f1d3 fabb d19d b0bc
00000180: 1a1d dd3d 1fd1 143e 2eae c33c 99af be3d
00000190: 21c3 1fbd 8612 863c 03ad 6f3e 4dfb 833d
000001a0: 6e67 493e 159f 80bd 79c4 0eba 7689 1bbe
000001b0: a279 5e3d c866 433d 80d2 78bd 3959 1abe
000001c0: c729 21be f5bb 87be a113 8fbd 65ac cb3b
000001d0: d101 10be 1c75 e6bc 8bb4 723c c57d 1d3e
000001e0: f45c ff3d 5929 49be 38a1 953c 1230 97bd
000001f0: 52b5 85bd 430d 9d3e 84d9 013d b06d fbbd
00000200: 2715 243e 957c c8bd 28a8 11bd e26f 4e3e
00000210: 8587 273e 1ea4 0bbe 6be3 44bd 7c41 26bd
00000220: 8c2c 613e b1b5 973d baca f9bd d79d f93d
00000230: f6a9 853d 5510 88bc 78e2 2b3d 3d7f 8bbe
00000240: 9f53 0a3e 8915 2ebe a318 3d3e 3622 47be
00000250: 14c3 81be 3c34 883d c054 fb3c bc76 aabc
00000260: 0dbb 8e3d 8d15 47be 52c0 fdbd c0d4 9abd
00000270: 5099 fabd cfff 91bc f823 82be 42b6 e0bd
00000280: 9188 8e3d f88f 4c3e 716e 1fbe 2f2a adbd
00000290: 69c4 12bd ef4d 213e 558e 173d fda9 45bd
000002a0: 81cd 2fbe 4819 26be c1a1 62bb a860 c0bd
000002b0: c160 973d 56c1 a9bd ae25 0abd 7a84 3ebe
000002c0: 24fb 193d cb07 c83d d08a 44bd aa11 023e
000002d0: 385b f43c 36a7 d03d 9757 9d3d 7e2c 64bd
000002e0: 0e2f 453e 37a0 883d e92a 6a3c 8620 41be
000002f0: a303 633d 6b01 0abd fcb9 fab9 c2e0 97bd
00000300: 9e1e ee3d 5882 4abc 6b0e 12be 6527 1ebe
00000310: 427b 67bc a4a4 44bd a159 83be bbe6 be3d
00000320: b824 293d faa4 193d e606 663d d7a6 223e
00000330: 53bf adbb d1cf 05bd cd14 c5bd bcf4 34bc
00000340: 6ce0 7cbe f6da 043d 4d49 e2bb b15d 6e3c
00000350: 5b6b 16be c8e9 643e c8f9 523d 239e 01be
00000360: ede8 9e3c 1fa3 283a 72e2 a03e bbae 18bd
00000370: 8ced 75be 4d4d 74be acd8 ec3d 877f 97bd
00000380: 4236 a5bc ba68 93bd 4925 18bd adb8 8cbc
00000390: 5840 5f3e a20c 23be 8a2d 263d f6de 5ebd
000003a0: 2c06 8bba 8875 013e 038b d5bc 9f51 673e
000003b0: 50b6 d73c 6399 66bd 0976 86be 1765 46be
000003c0: 6d51 e63d 2e25 15be 2c6e ad3d d41f 21bc
000003d0: da4d 26bc d98b a6bd 184e f83d ebdb 03bd
000003e0: 53cd c2bc ae15 97bc 9919 3ebd 3f52 713d
000003f0: b1c4 9e3d 976b 643d 66c1 8fbd 04b1 403d
-0.16479735 0.11271844 -0.23205025 0.04716325 -0.08322412 0.027310947 0.04842045 -0.09926855
0.06137236 0.09023962 -0.22475727 -0.087669246 0.089728974 -0.009214482 -0.10784121 -9.73594e-05
-0.21342906 -0.213283 -0.23585467 -0.0953915 0.04290497 -0.031721346 0.03987915 -0.043454908
-0.06546526 -0.14702031 -0.05774914 0.08236481 0.11287155 -0.1178882 -0.08394185 -0.15137841
-0.094645664 0.02042627 -0.15250064 0.0015532739 -0.2505939 -0.014575934 -0.012741008 0.13851312
-0.20027663 -0.14520259 -0.1381488 0.09982131 -0.023879437 0.08388128 0.01649186 -0.045938868
-0.19682075 -0.074092895 -0.004404483 -0.18446007 -0.13657252 -0.057156835 -0.00071974524 -0.15309578
0.015161545 0.13177228 0.022977289 -0.019052157 0.2155326 -0.08986292 -0.0008859729 -0.18271838
0.002923739 0.11138922 0.0729496 0.097166635 -0.123176396 -0.21008793 -0.007139744 -0.0063755605
-0.06171992 0.088134155 0.16817679 0.05406033 -0.15905763 -0.029030189 -0.033879448 -0.20470063
0.03279898 -0.040087763 -0.04071441 -0.12336715 -0.07658164 -0.13988587 0.20990603 -0.0006930384
0.08980404 -0.117091 -0.22900015 0.023414373 0.052329015 -0.13939328 -0.00765466 -0.021559628
0.10796566 0.14532898 0.023886766 0.09310836 -0.03900445 0.016366255 0.23405842 0.06444416
0.19668362 -0.062803425 -0.0005446147 -0.15189156 0.054315217 0.04770544 -0.060747623 -0.15073098
-0.15738593 -0.26510587 -0.06986166 0.0062156194 -0.14063193 -0.028132014 0.014813553 0.15380009
0.12468901 -0.19644679 0.018265352 -0.073822156 -0.06528725 0.3067418 0.03170158 -0.122767806
0.16023694 -0.09789387 -0.035560757 0.20159867 0.1636029 -0.13636824 -0.048068445 -0.040589795
0.2198965 0.07407702 -0.1219687 0.12188309 0.06526558 -0.01660935 0.041964024 -0.27245513
0.13508461 -0.17000403 0.1846643 -0.19446644 -0.25344145 0.06650588 0.03068006 -0.02080857
0.06969271 -0.19441815 -0.12390198 -0.0756011 -0.12236273 -0.017822174 -0.25418067 -0.10972263
0.06959642 0.19976795 -0.15569474 -0.084553115 -0.035831843 0.15752386 0.037000973 -0.048257817
-0.17168237 -0.16220582 -0.0034581276 -0.09393436 0.07391501 -0.08288829 -0.03372734 -0.18605223
0.037593022 0.097671114 -0.047983944 0.12702051 0.029828653 0.10188143 0.07682722 -0.055706494
0.19256231 0.066711836 0.014292457 -0.18860063 0.05542339 -0.03369276 -0.00047822285 -0.07415916
0.116269335 -0.012360178 -0.14263313 -0.15444715 -0.014128508 -0.048008576 -0.2565432 0.09321352
0.041294783 0.03751085 0.056158923 0.15883957 -0.0053023486 -0.032668892 -0.09623108 -0.011044677
-0.24694985 0.03243538 -0.006905711 0.014548705 -0.1468939 0.22354805 0.05150774 -0.1265798
0.019398177 0.00064329983 0.31422764 -0.03727601 -0.24016398 -0.23857613 0.115647644 -0.07397371
-0.020167474 -0.071977094 -0.037144933 -0.017177904 0.21801889 -0.15922788 0.040570773 -0.05441185
-0.0010606698 0.12642491 -0.026067263 0.2258973 0.02633205 -0.056298625 -0.2626193 -0.193745
0.112459995 -0.14564964 0.08468279 -0.009834249 -0.010150397 -0.081321426 0.1212427 -0.032192152
-0.023779547 -0.018442955 -0.04641113 0.058916327 0.0775236 0.05576667 -0.0701931 0.047043815
