Project/Assets/ML-Agents/Examples/SlideMan/SlideMan.onnx (onnx, 75711 bytes, 7 tensors)

action_model._continuous_distribution.log_sigma f4 [1, 2]
0.42391583 0.039743006
00000000: 7f0b d93e 90c9 223d

action_model._continuous_distribution.mu.bias f4 [2]
0.44705892 0.20358005
00000000: e8e4 e43e 4a77 503e

action_model._continuous_distribution.mu.weight f4 [2, 128]
0.15623946 -0.11114311 0.046776775 -0.08211536 -0.018820154 -0.115046784 -0.14553753 0.2058375
0.099016964 0.055062514 0.117820434 0.018845882 0.11370184 0.01733191 0.04696644 -0.12609135
-0.112283714 -0.1204903 0.09038169 -0.016222376 -0.002126673 0.001866083 -0.033658605 0.06392475
0.09953474 -0.06966319 -0.06135637 -0.10388809 0.043242894 0.08910568 0.07394935 -0.00809481
0.00024189349 0.0013231274 0.038018398 -0.18600279 0.21171173 0.034821782 -0.0027312313 0.025180181
0.083708584 0.02459783 0.22583354 0.070118174 -0.17903018 0.043768525 -0.07631731 -0.062588364
-0.17865625 0.14197463 -0.07778355 -0.039000634 -0.0437378 -0.0063881082 0.00030315798 0.025833419
-0.03797664 0.00872475 -0.008030924 -0.016590744 0.05180703 -0.110794224 -0.15096374 -0.009115867
0.12743449 -0.019192904 -0.066355094 -0.01763575 -0.020022089 -0.030444525 -0.10693668 0.028796336
0.020625936 0.018702753 0.0832806 0.08814401 0.11247168 -0.0034863378 -0.0042677247 0.04755481
0.16757986 -0.06295001 -0.013982317 -0.08494988 0.09147112 0.104086876 0.06644078 -0.009789254
0.09159682 0.12372694 0.15313217 0.05238261 0.022128755 -0.13854721 0.0817233 0.0707418
-0.12909774 0.10437964 -0.06085443 -0.02669073 0.035406645 0.032832403 0.077490404 -0.03413975
-0.09715537 0.075038426 0.22603571 -0.011820076 0.051492568 -0.018891186 0.00041846323 -0.0015239394
0.106520936 -0.020625865 0.02595621 0.13105649 -0.006978125 0.14592795 0.036217358 -0.26582593
0.03261494 -0.035141133 -0.049745947 -0.09372827 -0.04597889 -0.22302371 -0.0062259 0.04607773
0.020725844 0.13373907 0.17693289 0.014310926 0.011739971 0.09554298 -0.027356142 -0.029277526
0.11814941 0.17173947 -0.00035723214 -0.003744626 0.05967397 0.044976305 -0.027805122 0.03928902
-0.036945384 -0.11517276 0.0028761397 -0.047958475 0.026482854 0.104123995 0.07140108 -0.037311234
0.037201382 0.17288196 0.08448632 0.14885308 0.1468651 -0.097823374 0.041876223 0.14218734
0.17055789 0.020502847 -0.011261073 0.010450268 0.09218019 -0.0154676465 0.093658544 -0.011674294
-0.08591443 0.011268721 -0.09117586 0.018452981 0.07427768 -0.12437 0.15221849 0.08149218
0.022770021 -0.006780004 0.016354049 -0.14476205 0.040933017 -0.17711653 0.040650286 0.036529317
0.053370822 0.22292005 0.098532915 -0.016714055 -0.124775015 0.057180386 0.11912275 0.009694488
-0.052691236 0.09608879 -0.11065791 0.038832724 0.011629115 -0.09779291 -0.09690761 0.021911923
-0.027574632 -0.045872863 -0.023667632 -0.007839433 -0.0680131 -0.0702251 -0.07083194 0.16665627
0.026674084 0.0865944 -0.0851496 -0.09082444 -0.13143842 0.09906939 0.022266602 0.082156405
0.020364583 0.053653862 0.18276168 0.08514565 0.06894221 0.04829267 0.16838096 -0.06432424
0.23056208 0.1294228 0.03757232 0.012904632 0.1443864 0.17444809 0.11694502 0.08070793
0.040714756 -0.0055242665 -0.01418425 -0.13425693 0.033372838 0.2095448 -0.083541326 -0.10097775
0.067322455 0.020156432 -0.044078927 0.04761934 0.15922521 0.045989424 0.09137937 0.053591523
-0.0023035887 0.17566894 0.051177207 -0.07846133 0.04386109 0.10190411 0.12377694 0.13283634
00000000: 3dfd 1f3e 009f e3bd 0199 3f3d 192c a8bd
00000010: b92c 9abc a69d ebbd ca07 15be 11c7 523e
00000020: 68c9 ca3d 3b89 613d d74b f13d ae62 9a3c
00000030: 83dc e83d a6fb 8d3c e25f 403d 171e 01be
00000040: 01f5 e5bd 9ec3 f6bd 091a b93d cae4 84bc
00000050: a75f 0bbb 5b97 f43a 9bdd 09bd fbea 823d
00000060: dfd8 cb3d 93ab 8ebd d150 7bbd 47c3 d4bd
00000070: 761f 313d 0a7d b63d c272 973d 18a0 04bc
00000080: caa4 7d39 ca6c ad3a 2eb9 1b3d 8477 3ebe
00000090: f6ca 583e 49a1 0e3d 75fe 32bb ab46 ce3c
000000a0: 686f ab3d 6381 c93c e840 673e 1e9a 8f3d
000000b0: b053 37be a046 333d 404c 9cbd 542e 80bd
000000c0: aaf1 36be cc61 113e fb4c 9fbd 21bf 1fbd
000000d0: 6826 33bd 5653 d1bb 2df1 9e39 9ba0 d33c
000000e0: 658d 1bbd 41f2 0e3c 2394 03bc 50e9 87bc
000000f0: 9c33 543d 15e8 e2bd 3d96 1abe b85a 15bc
00000100: 307e 023e 703a 9dbc 2ee5 87bd d978 90bc
00000110: 5d05 a4bc cc66 f9bc 9e01 dbbd 4be6 eb3c
00000120: b9f7 a83c 8436 993c 058f aa3d d984 b43d
00000130: 8d57 e63d 0b7b 64bb 45d8 8bbb d5c8 423d
00000140: 0e9a 2b3e efeb 80bd 1716 65bc 34fa adbd
00000150: 3655 bb3d 802b d53d 1b12 883d 1b63 20bc
00000160: 1d97 bb3d 8d64 fd3d aece 1c3e 268f 563d
00000170: 5d47 b53c 52df 0dbe 8c5e a73d 14e1 903d
00000180: 3332 04be fec4 d53d 7f42 79bd 85a6 dabc
00000190: 8f06 113d 457b 063d 4ab3 9e3d 1fd6 0bbd
000001a0: 65f9 c6bd bfad 993d e875 673e fea8 41bc
000001b0: dfe9 523d b0c1 9abc 2f65 db39 ecbe c7ba
000001c0: a627 da3d 93f7 a8bc 1ea2 d43c ac33 063e
000001d0: c1a8 e4bb 236e 153e a758 143d 561a 88be
000001e0: 3e97 053d 26f0 0fbd 68c2 4bbd 9bf4 bfbd
000001f0: 5c54 3cbd 5460 64be a202 ccbb 00bc 3c3d
00000200: 3fc9 a93c e5f2 083e e52d 353e 6078 6a3c
00000210: 0259 403c 0aac c33d fd19 e0bc 6cd7 efbc
00000220: 51f8 f13d 79dc 2f3e e34a bbb9 6668 75bb
00000230: b16c 743d 1339 383d 91c7 e3bc 86ed 203d
00000240: 0b54 17bd b2df ebbd 9e7d 3c3b 1b70 44bd
00000250: 92f2 d83c f63e d53d bb3a 923d aad3 18bd
00000260: 7a60 183d f807 313e 2a07 ad3d f16c 183e
00000270: ce63 163e 9f57 c8bd 6786 2b3d 8f99 113e
00000280: baa6 2e3e 96f5 a73c 5d80 38bc 9a37 2b3c
00000290: f8c8 bc3d 036c 7dbc 0dd0 bf3d 8a45 3fbc
000002a0: e8f3 afbd 71a0 383c 69ba babd b52a 973c
000002b0: e51e 983d b3b5 febd 2adf 1b3e 5fe5 a63d
000002c0: 3288 ba3c cc2a debb edf8 853c 813c 14be
000002d0: 61a9 273d 095e 35be ea80 263d c49f 153d
000002e0: 5d9b 5a3d 2745 643e a0cb c93d eaeb 88bc
000002f0: 0b8a ffbd fb35 6a3d a1f6 f33d a1d5 1e3c
00000300: c4d2 57bd 33ca c43d 9da0 e2bd 100f 1f3d
00000310: 0b88 3e3c a647 c8bd 7f77 c6bd a280 b33c
00000320: 32e4 e1bc 2fe5 3bbd 9fe2 c1bc f770 00bc
00000330: 744a 8bbd 2dd2 8fbd 5610 91bd f1a7 2a3e
00000340: 9c83 da3c 6858 b13d ea62 aebd 2a02 babd
00000350: cb97 06be e4e4 ca3d 7368 b63c 9e41 a83d
00000360: a0d3 a63c 27c4 5b3d e125 3b3e d860 ae3d
00000370: 9331 8d3d 89ce 453d 0f6c 2c3e 6dbc 83bd
00000380: 7718 6c3e 6987 043e 6fe5 193d f36d 533c
00000390: 07da 133e 85a2 323e df80 ef3d 334a a53d
000003a0: 84c4 263d e804 b5bb 0e65 68bc a67a 09be
000003b0: f5b1 083d e992 563e b717 abbd 6ccd cebd
000003c0: 5be0 893d 1a1f a53c 1b8c 34bd 7f0c 433d
000003d0: ef0b 233e 685f 3c3d 1b25 bb3d c982 5b3d
000003e0: cef7 16bb 8fe2 333e 319f 513d 55b0 a0bd
000003f0: b0a7 333d 1ab3 d03d c47e fd3d 4006 083e

network_body._body_endoder.seq_layers.0.bias f4 [128]
-0.08116693 -0.08051108 0.09385244 -0.066626094 0.05547348 -0.02886084 -0.14942887 0.03820467
-0.20074575 0.038985983 -0.24082504 -0.07433614 -0.11322231 -0.15097888 -0.07830629 -0.2171979
-0.23499513 -0.022725955 -0.2814421 -0.13413838 -0.21376918 0.08491687 -0.1698692 -0.24512768
0.14395376 -0.1147373 -0.10117491 0.17302608 -0.35122326 -0.02179106 -0.25326622 -0.028007187
-0.28761458 -0.04678922 -0.10250364 -0.22678085 -0.19455954 -0.017596914 -0.16840073 -0.20887278
0.1500281 -0.039195996 -0.14499785 -0.07535773 -0.13095571 -0.19787806 -0.15941672 -0.080168985
-0.035370156 -0.06075657 -0.13093416 -0.12778248 -0.036382884 0.011586092 -0.14758657 0.023404686
-0.15993349 -0.09252592 0.041222703 0.06234978 -0.041684393 -0.055395138 -0.09251428 -0.19470924
-0.18400061 -0.015544 -0.08608314 -0.15855804 -0.25378254 -0.07516313 -0.09190584 -0.15732962
-0.057285786 -0.1391417 -0.18886429 -0.095003314 -0.34849077 -0.19442974 -0.039687384 -0.12753741
-0.1311907 0.014406408 -0.2561806 -0.118912086 -0.064612255 -0.032093275 -0.18634738 -0.17147489
-0.12301932 -0.17314143 -0.0027451934 -0.042085264 0.048347227 -0.42256957 -0.09779158 -0.3594788
-0.2892713 -0.1346584 -0.079527676 -0.1235295 -0.069482975 0.113411136 -0.19488353 -0.09125562
-0.14581479 0.04451052 0.11902031 -0.12748767 -0.047861714 -0.22471574 -0.32832858 -0.050273247
-0.15677503 -0.08447338 -0.030473283 -0.043446194 0.035150476 -0.13085192 -0.036332346 -0.11057099
0.04517984 -0.23888391 -0.068072125 -0.11582228 -0.12369886 -0.2656329 -0.12203018 0.047117013
00000000: d93a a6bd fee2 a4bd b535 c03d 4373 88bd
00000010: 2938 633d 916d ecbc e203 19be 807c 1c3d
00000020: 4b90 4dbe c4af 1f3d d79a 76be 8c3d 98bd
00000030: 19e1 e7bd 359a 1abe 0c5f a0bd 2069 5ebe
00000040: 90a2 70be c82b babc 2e19 90be 925b 09be
00000050: 4fe6 5abe e5e8 ad3d 31f2 2dbe c002 7bbe
00000060: 9d68 133e 64fb eabd cb34 cfbd c02d 313e
00000070: 89d3 b3be 2a83 b2bc 1cac 81be 546f e5bc
00000080: 3842 93be 0ea6 3fbd 6eed d1bd 3d39 68be
00000090: 9e3a 47be 6727 90bc 3e71 2cbe bfe2 55be
000000a0: f7a0 193e fb8b 20bd 517a 14be 2755 9abd
000000b0: 4119 06be 8ca0 4abe 233e 23be a32f a4bd
000000c0: 4ce0 10bd e2db 78bd 9b13 06be 69d9 02be
000000d0: 3806 15bd 98d3 3d3c ef20 17be 2fbb bf3c
000000e0: 9bc5 23be 3b7e bdbd 23d9 283d 7c62 7f3d
000000f0: 41bd 2abd 03e6 62bd 2078 bdbd dc61 47be
00000100: a86a 3cbe 43ac 7ebc 5b4c b0bd 0a5d 22be
00000110: c9ef 81be 21ef 99bd 2139 bcbd 041b 21be
00000120: 80a4 6abd 297b 0ebe a465 41be 1991 c2bd
00000130: 626d b2be 9718 47be 3d8f 22bd 2b99 02be
00000140: db56 06be db08 6c3c 1b2a 83be 2e88 f3bd
00000150: 6e53 84bd 3d74 03bd d9d1 3ebe 1d97 2fbe
00000160: 8ef1 fbbd fd4b 31be b4e8 33bb 9961 2cbd
00000170: be07 463d 0a5b d8be f446 c8bd 9b0d b8be
00000180: 5e1b 94be e4e3 09be 68df a2bd 09fd fcbd
00000190: 174d 8ebd 1944 e83d 8c8f 47be 3ae4 babd
000001a0: 7950 15be aa50 363d ecc0 f33d 218c 02be
000001b0: a50a 44bd e21b 66be af1a a8be 52eb 4dbd
000001c0: a289 20be 6100 adbd 1ba3 f9bc a3f4 31bd
000001d0: f2f9 0f3d 0cfe 05be 3ad1 14bd 0b73 e2bd
000001e0: 7f0e 393d fc9d 74be 6669 8bbd 3b34 edbd
000001f0: d455 fdbd 0901 88be f6ea f9bd c5fd 403d

network_body._body_endoder.seq_layers.0.weight f4 [128, 12]
0.39104673 0.4577524 0.07381562 0.22653137 0.6334754 -0.15042749 0.032964855 -0.5495104
-0.053509228 -0.30936387 -0.0711942 -0.3049775 -0.03431236 0.13700746 0.37554452 0.043782692
-0.025480898 -0.6250991 0.067779325 -0.57769674 -0.34022048 -0.60384846 -0.03296007 -0.083462864
0.09804119 0.8553781 0.26494175 -0.09399524 0.09886291 -0.30762303 0.05735277 -0.11050865
-0.13071992 0.66419137 -0.5845956 0.4415689 0.008236644 -0.44083464 0.20451817 -0.08086776
0.1457424 -0.26961204 -0.12556215 -0.29427418 0.321044 0.023845356 -0.18001804 -0.6558614
-0.22005795 0.48616123 1.0274044 -0.41132483 0.21354564 -0.5017013 -0.3190277 0.17950816
0.10098895 -0.30565235 -0.031100681 -0.12871104 0.33822343 -0.22121392 0.10482017 -0.29489622
0.22866759 0.5896452 -0.41979745 -0.11480158 0.61141557 0.07431927 -0.048945762 0.09037866
0.095560744 -0.38272074 0.087160595 -0.13833776 0.086711615 -0.12775847 0.14722168 -0.65796316
-0.18561128 -0.5655739 -0.029391246 0.06592414 0.3125766 -0.15270063 -0.3062099 0.22179328
0.09529128 0.66898656 0.05600521 0.19505787 -0.07945645 0.8046929 -0.75069773 -0.09539401
0.15325193 -0.14362596 -0.15865837 -0.16204971 -0.76468843 0.08715662 -0.06177735 -0.23741846
0.22818917 -0.6915206 -0.047676437 -0.08173641 -0.11272482 0.13827105 0.7842817 -0.10078195
0.27516362 0.046372734 0.5372678 0.09747267 0.23904918 0.62621766 -0.20291892 0.05836196
0.04424723 -0.47495452 -0.2278593 0.08312117 -0.5043663 0.6252017 -0.3569594 0.11872077
-0.29920527 0.6403303 -0.7912058 0.662251 -0.10787154 -0.44268474 0.16937283 0.09871735
0.52927387 -0.086557664 -0.08529871 0.3988078 -0.05509734 -0.13645558 0.19353887 -0.3933533
0.07139674 -0.06516337 0.08667964 0.3680222 -0.1504891 0.17630576 -0.25399414 -0.33735192
0.29060617 -0.50619525 0.2576133 -0.57582486 -0.110516354 -0.49763682 -0.3142414 -0.38800675
0.14075221 0.050808016 -0.10029285 0.45921376 0.04528527 -0.3494311 0.15367366 -0.06094228
0.14196377 -0.20527013 0.27875757 -0.24710976 -0.17747733 0.23181407 0.30897048 0.19342051
-0.1790464 0.09136751 -0.16240689 -0.02659732 -0.11041938 -0.37083718 0.031177409 -0.3067535
-0.36334774 -0.07675795 0.2821494 0.16016778 0.36808938 -0.016758664 -0.019626694 0.06990035
0.019289562 -0.6585974 -0.29032314 0.7717371 -0.46672994 -0.023597565 0.109405816 0.24228014
0.023035705 -0.14610362 -0.060295455 0.005729612 0.14427853 0.35204905 -0.27628565 -0.4699809
-0.09883498 -0.2600496 0.077208884 0.38421154 -0.24930778 0.01949191 -0.107453145 -0.14370571
-0.24083552 -0.4390242 -0.05937282 -0.17106456 0.2141175 -0.17750812 -0.049073316 0.20938095
-0.48085588 0.21427953 0.12870608 0.106871635 -0.030925365 0.013446716 0.06651193 -0.14918517
-0.19005583 -0.35502636 -0.24764155 0.5947888 0.12798068 -0.57333344 -0.16874173 -0.026408423
0.07666918 -0.40539238 -0.31272554 0.17901815 0.28264725 -0.08097989 -0.22676525 0.19068867
0.5307512 -0.6562846 0.29457012 -0.30134198 0.27250347 -0.20614359 0.41107467 0.13642722
00000000: 4737 c83e 865e ea3e a52c 973d d7f7 673e
00000010: 722b 223f aa09 1abe 2806 073d b7ac 0cbf
00000020: 7e2c 5bbd f164 9ebe 44ce 91bd 0326 9cbe
00000030: 1e8b 0cbd af4b 0c3e 5f47 c03e 7b55 333d
00000040: 51bd d0bc 7f06 20bf e3cf 8a3d efe3 13bf
00000050: 6131 aebe d095 1abf 2301 07bd 94ee aabd
00000060: d2c9 c83d 0ffa 5a3f 72a6 873e 9480 c0bd
00000070: a378 ca3d c480 9dbe bdea 6a3d 5c52 e2bd
00000080: 71db 05be 7208 2a3f 0fa8 15bf 5215 e23e
00000090: fdf2 063c 14b5 e1be 366d 513e ff9d a5bd
000000a0: 7f3d 153e 970a 8abe 5d93 00be 1bab 96be
000000b0: e15f a43e 5657 c33c a656 38be 88e6 27bf
000000c0: df56 61be 20ea f83e fd81 833f 2b99 d2be
000000d0: b5ab 5a3e 7f6f 00bf 9957 a3be fdd0 373e
000000e0: 4bd3 ce3d 777e 9cbe dbc6 febc d4cc 03be
000000f0: 9f2b ad3e e785 62be f5ab d63d a3fc 96be
00000100: d627 6a3e fdf2 163f b1ef d6be 171d ebbd
00000110: bb85 1c3f b434 983d 5a7b 48bd 7218 b93d
00000120: 5ab5 c33d f9f3 c3be 4181 b23d 6aa8 0dbe
00000130: dc95 b13d 1ed3 02be 48c1 163e 4670 28bf
00000140: e210 3ebe 73c9 10bf e9c5 f0bc 3c03 873d
00000150: 0a0a a03e 8e5d 1cbe 8bc7 9cbe c71d 633e
00000160: 1328 c33d b442 2b3f b865 653d 40bd 473e
00000170: 10ba a2bd 5b00 4e3f ba2d 40bf ef5d c3bd
00000180: 13ee 1c3e af12 13be 5777 22be 5cf0 25be
00000190: 9fc2 43bf 2c7f b23d 3f0a 7dbd d31d 73be
000001a0: 6caa 693e 7e07 31bf 5e48 43bd 6b65 a7bd
000001b0: 45dc e6bd ed96 0d3e afc6 483f c466 cebd
000001c0: 3fe2 8c3e 56f1 3d3d 628a 093f c09f c73d
000001d0: 4fc9 743e cd4f 203f fac9 4fbe f30c 6f3d
000001e0: 953c 353d 3d2d f3be f353 69be 6f3b aa3d
000001f0: 261e 01bf 380d 203f 62c3 b6be e023 f33d
00000200: 6f31 99be b0ec 233f 778c 4abf 4889 293f
00000210: c1eb dcbd 93a7 e2be 1270 2d3e 522c ca3d
00000220: 7e7e 073f 2545 b1bd 17b1 aebd 8930 cc3e
00000230: c0ad 61bd 03bb 0bbe 0e2f 463e 9b65 c9be
00000240: 7438 923d 5f74 85bd 1885 b13d 686d bc3e
00000250: d119 1abe 7f89 343e 850b 82be 64b9 acbe
00000260: 55ca 943e 0396 01bf e4e5 833e 4269 13bf
00000270: 6656 e2bd 41ca febe 40e4 a0be d2a8 c6be
00000280: 5921 103e 111c 503d 5666 cdbd 111e eb3e
00000290: 0c7d 393d a2e8 b2be a15c 1d3e 9d9e 79bd
000002a0: f35e 113e 5532 52be 50b9 8e3e 570a 7dbe
000002b0: 9ebc 35be ab60 6d3e 6131 9e3e 0710 463e
000002c0: f157 37be e41e bb3d fe4d 26be 9fe2 d9bc
000002d0: 8e23 e2bd 5fde bdbe c467 ff3c cb0e 9dbe
000002e0: b708 babe 4633 9dbd e375 903e 0603 243e
000002f0: 3676 bc3e 7749 89bc 29c8 a0bc ea27 8f3d
00000300: 2505 9e3c d799 28bf 3ca5 94be 9090 453f
00000310: 3af7 eebe ae4f c1bc 2810 e03d 4918 783e
00000320: 60b5 bc3c 309c 15be 5ef8 76bd 78bf bb3b
00000330: c0bd 133e c63f b43e 5075 8dbe 56a1 f0be
00000340: fe69 cabd 3925 85be b11f 9e3d 60b7 c43e
00000350: 8a4a 7fbe 7fad 9f3c 6510 dcbd 9727 13be
00000360: 969d 76be c8c7 e0be ea30 73bd 8c2b 2fbe
00000370: 9e41 5b3e b0c4 35be 1a01 49bd f667 563e
00000380: be32 f6be 186c 5b3e 87cb 033e 84df da3d
00000390: 3157 fdbc 9d4f 5c3c 6837 883d ffc3 18be
000003a0: ff9d 42be 04c6 b5be bf95 7dbe 1444 183f
000003b0: 5e0d 033e fbc5 12bf a2ca 2cbe 7a56 d8bc
000003c0: bb04 9d3d 978f cfbe 901d a0be 8950 373e
000003d0: 24b7 903e c9d8 a5bd 2635 68be e443 433e
000003e0: 50df 073f 4402 28bf e5d1 963e 7f49 9abe
000003f0: 9385 8b3e 4e17 53be 6178 d23e 94b3 0b3e

network_body._body_endoder.seq_layers.2.bias f4 [128]
0.31454915 -0.06551958 -0.1381198 -0.076031394 -0.14485653 -0.08017364 -0.05102208 -0.13360521
-0.076893725 -0.04590823 0.12511502 -0.12657759 -0.045025963 -0.08720355 -0.08060283 -0.096144624
-0.096509404 -0.06744302 -0.079360925 -0.11114994 -0.11439093 0.0068199 0.0637076 -0.054329593
-0.007535124 -0.025607992 -0.1047496 -0.049907926 -0.12029887 -0.075094126 -0.023993405 -0.052297845
-0.01959708 -0.11691168 -0.10267758 -0.076967254 -0.071461745 -0.12691717 -0.092158504 -0.10695011
0.057861727 -0.106131755 -0.05802987 0.20337279 -0.016092718 -0.044495318 -0.0692604 -0.10343018
-0.104259074 -0.16092475 -0.12009948 -0.07923795 -0.10030228 -0.020381073 -0.09801214 -0.0028777772
-0.10292376 0.0041602664 -0.042419344 -0.109495796 0.007916474 -0.118836574 -0.057604156 -0.080282964
-0.08612118 -0.10326507 -0.082386345 -0.087123364 -0.07604382 -0.08277335 -0.15984344 -0.0709336
-0.09268779 -0.012379514 -0.009525512 0.17596807 -0.09135426 -0.04201965 -0.16693468 -0.06646303
0.11240297 -0.08618218 -0.110250376 -0.03056136 -0.032522414 -0.075288095 -0.11223419 -0.085310645
-0.059124384 -0.104597576 -0.05914113 -0.14523353 -0.001032977 -0.050796058 -0.026248563 -0.0022221892
-0.024609886 -0.028186126 -0.16874024 -0.10435033 -0.093122 -0.12578937 -0.08854094 -0.0759785
-0.038320336 -0.052425347 0.016094588 0.014243674 -0.05211563 -0.03489118 0.031798694 -0.027212238
-0.10323231 -0.08810477 -0.16330954 0.0972802 -0.09357448 0.19305657 -0.05004624 -0.08479728
-0.08114966 -0.0646458 -0.080475666 -0.093856595 -0.03353617 -0.11951959 -0.041436244 -0.008175412
00000000: 960c a13e 212f 86bd 476f 0dbe 59b6 9bbd
00000010: 4555 14be 1432 a4bd 87fc 50bd cecf 08be
00000020: 757a 9dbd 450a 3cbd 271e 003e 8e9d 01be
00000030: 256d 38bd c697 b2bd 1913 a5bd 79e7 c4bd
00000040: b9a6 c5bd 911f 8abd fb87 a2bd 94a2 e3bd
00000050: cb45 eabd 7879 df3b 2179 823d b588 5ebd
00000060: 34e9 f6bb dac7 d1bc f586 d6bd 416c 4cbd
00000070: 415f f6bd f3ca 99bd d18d c4bc 4436 56bd
00000080: 0e8a a0bc 646f efbd a048 d2bd 02a1 9dbd
00000090: 895a 92bd 93f6 01be 99bd bcbd a908 dbbd
000000a0: 6b00 6d3d 9b5b d9bd bbb0 6dbd f540 503e
000000b0: e0d4 83bc b940 36bd 66d8 8dbd 34d3 d3bd
000000c0: c885 d5bd 75c9 24be b7f6 f5bd 8247 a2bd
000000d0: 486b cdbd 35f6 a6bc 97ba c8bd 1799 3cbb
000000e0: b1c9 d2bd d852 883b e8bf 2dbd 553f e0bd
000000f0: 19b4 013c 9760 f3bd 56f2 6bbd 656b a4bd
00000100: 4d60 b0bd a37c d3bd 2cba a8bd bc6d b2bd
00000110: ddbc 9bbd 1385 a9bd 00ae 23be a345 91bd
00000120: 19d3 bdbd 72d3 4abc e510 1cbc f930 343e
00000130: f117 bbbd cc1c 2cbd edf0 2abe c51d 88bd
00000140: 8733 e63d 4880 b0bd f3ca e1bd d15b fabc
00000150: 3936 05bd a530 9abd 0adb e5bd 59b7 aebd
00000160: 692c 72bd 4137 d6bd f83d 72bd 19b8 14be
00000170: f564 87ba 870f 50bd 3a07 d7bc 26a2 11bb
00000180: ac9a c9bc 97e6 e6bc 3eca 2cbe a0b5 d5bd
00000190: bfb6 bebd eece 00be f454 b5bd 9e9a 9bbd
000001a0: c9f5 1cbd f6bb 56bd ccd8 833c 4d5e 693c
000001b0: 3377 55bd 0eea 0ebd 593f 023d 33ec debc
000001c0: 766b d3bd 4670 b4bd 9e3a 27be d73a c73d
000001d0: faa3 bfbd 9fb0 453e 49fd 4cbd 32aa adbd
000001e0: cb31 a6bd 0465 84bd 6dd0 a4bd e337 c0bd
000001f0: 395d 09bd b0c6 f4bd 0db9 29bd 2af2 05bc

network_body._body_endoder.seq_layers.2.weight f4 [128, 128]
0.047418684 0.087802544 0.013092275 0.053203806 0.18799661 0.12710518 0.07746129 -0.35723937
-0.08346707 0.2403764 -0.052730702 -0.29493245 -0.111334175 -0.07932913 0.19865096 0.101314105
0.13244575 0.23896311 0.050435945 -0.07511709 -0.098934405 0.049871307 0.1339754 0.15567937
-0.066096775 0.03772104 0.44442162 0.07704522 0.12001258 0.066606216 -0.1644702 0.11107018
-0.18242712 0.32655144 0.006952965 -0.2070883 -0.24128386 -0.12538373 -0.3068469 -0.031022528
0.13875687 0.043275718 -0.015547013 0.12478677 0.14265986 -0.07811277 -0.23704378 -0.105303556
0.35720828 0.16201842 -0.16032836 -0.14394309 0.15170863 0.31214496 -0.24813055 0.038618855
0.024327025 0.25959262 -0.029962242 0.3635814 0.0004761917 -0.053346917 0.21131629 0.116138496
0.089604065 0.23316364 0.27282807 -0.018880328 0.11282156 -0.14189628 0.2536621 0.07447717
0.21968493 0.12855959 0.00994273 -0.09235428 0.20300111 0.13105732 -0.16275996 -0.010198742
-0.26484752 0.07156964 -0.013726069 -0.04082673 0.034012347 0.39695635 0.11661281 0.11670505
0.014475083 0.015799213 0.19805728 0.0068646134 -0.08931118 -0.12850694 0.12765352 0.052703243
0.06838341 0.22633564 -0.039227743 0.04408977 -0.12675689 -0.028000195 -0.008788652 -0.034075618
-0.0718465 -0.07622925 0.24566251 0.2316149 0.030931907 -0.2157371 0.08836555 0.117883444
-0.14034723 -0.06426967 -0.091431916 0.013655006 0.2438424 0.20238914 0.023464354 -0.023806976
0.09909129 0.22044551 0.03245105 0.019457132 -0.04820005 -0.11026886 0.20430432 -0.16368648
0.1385465 -0.04712512 0.19662412 0.034379896 -0.0984392 -0.08663011 -0.18220142 0.12371745
-0.2485312 -0.100394756 0.1257829 -0.09378577 -0.034849297 0.02650578 0.19460268 -0.028261993
0.06431528 -0.18284799 0.035093203 0.02838779 -0.16456 -0.19557671 -0.23807275 -0.20493677
0.12731569 -0.2635076 0.009693258 -0.11949318 -0.27135646 0.032579318 0.043986395 -0.25379834
-0.060448986 0.04935317 -0.108761474 0.060353424 -0.21950363 -0.06274442 0.046632685 -0.14288968
-0.029956603 0.05143978 0.028658155 -0.05183823 -0.24448997 -0.10405333 0.018647358 -0.06547936
-0.3173039 0.25459805 0.013923201 -0.22225411 0.05906537 -0.055042237 -0.2676441 0.13686346
-0.02670534 0.14083195 0.08393604 0.040371697 -0.16929339 0.054113977 -0.06995373 -0.14778417
0.23912011 0.036425985 -0.17808115 -0.010108975 -0.061674893 -0.24052821 -0.0080640325 0.15203138
-0.16917507 0.02376236 0.12108519 -0.050636757 0.03396706 0.07234903 -0.07842101 0.00318591
-0.181863 0.043838184 -0.17255786 0.12064522 0.03310848 -0.1406187 0.09787091 0.051953837
-0.14765625 -0.16646226 -0.06496043 -0.018697526 0.12132103 0.044539165 0.104759164 -0.10360866
-0.13049501 -0.030646192 -0.03976265 0.0793295 -0.08930125 -0.06560175 -0.07551053 -0.16589162
0.012018256 0.06352504 -0.35567725 -0.22376567 -0.21702377 0.17985855 0.10643633 0.131005
0.067229755 0.023410628 -0.14236134 0.07800985 -0.06946599 -0.18586071 -0.109109774 0.20321994
-0.05155553 -0.21596085 -0.103862144 -0.0438988 0.1780952 0.06389981 0.10090962 0.031592842
00000000: 183a 423d d2d1 b33d fb80 563c 3cec 593d
00000010: 2f82 403e dc27 023e 06a4 9e3d 14e8 b6be
00000020: c8f0 aabd 3b25 763e 26fc 57bd 6301 97be
00000030: 2c03 e4bd 5077 a2bd 286b 4b3e c57d cf3d
00000040: dc9f 073e bfb2 743e ec95 4e3d fdd6 99bd
00000050: 1f9e cabd db45 4c3d d930 093e 6a6a 1f3e
00000060: bf5d 87bd 6181 1a3d 3b8b e33e e2c9 9d3d
00000070: 28c9 f53d d768 883d e06a 28be c378 e33d
00000080: 2dce 3abe c031 a73e b3d5 e33b f50e 54be
00000090: 1e13 77be 9864 00be 091b 9dbe f522 febc
000000a0: 4816 0e3e e141 313d e6b8 7ebc 3590 ff3d
000000b0: 6d15 123e 97f9 9fbd 9bbb 72be 64a9 d7bd
000000c0: 01e4 b63e 28e8 253e 1e2d 24be d165 13be
000000d0: 8259 1b3e 77d1 9f3e ef15 7ebe ce2e 1e3d
000000e0: 7849 c73c 53e9 843e 6073 f5bc 5727 ba3e
000000f0: 5ea9 f939 4c82 5abd 4c63 583e 05da ed3d
00000100: 5682 b73d 73c2 6e3e 1fb0 8b3e ebaa 9abc
00000110: fd0e e73d 424d 11be 00e0 813e 7d87 983d
00000120: 16f5 603e 20a5 033e d5e6 223c 3e24 bdbd
00000130: 86df 4f3e e433 063e 8caa 26be a018 27bc
00000140: 189a 87be 1a93 923d 4ee3 60bc ee39 27bd
00000150: 8850 0b3d dd3d cb3e b2d2 ee3d 0f03 ef3d
00000160: e628 6d3c 5a6d 813c 87cf 4a3e 8df0 e03b
00000170: c8e8 b6bd 5397 03be 9bb7 023e 5bdf 573d
00000180: 9a0c 8c3d 88c4 673e 45ad 20bd 7a97 343d
00000190: 8fcc 01be aa60 e5bc 47fe 0fbc e092 0bbd
000001a0: 4224 93bd 151e 9cbd f48e 7b3e 752c 6d3e
000001b0: e964 fd3c 30ea 5cbe fff8 b43d e06c f13d
000001c0: 2fb7 0fbe d19f 83bd a840 bbbd 3fb9 5f3c
000001d0: d2b1 793e 193f 4f3e 5138 c03c d906 c3bc
000001e0: 60f0 ca3d 78bc 613e 64eb 043d 9064 9f3c
000001f0: 6a6d 45bd a4d4 e1bd 2735 513e 6e9d 27be
00000200: 22df 0d3e 4506 41bd d557 493e efd1 0c3d
00000210: 7e9a c9bd 216b b1bd 0293 3abe 935f fd3d
00000220: f77e 7ebe c49b cdbd 3ccd 003e c112 c0bd
00000230: 23be 0ebd a622 d93c ed45 473e b285 e7bc
00000240: bbb7 833d 813c 3bbe e4bd 0f3d 838d e83c
00000250: 6b82 28be 4345 48be 58c9 73be f2da 51be
00000260: 0b5f 023e 78ea 86be 79d0 1e3c d7b8 f4bd
00000270: 3cef 8abe e471 053d 142b 343d dbf1 81be
00000280: 5b99 77bd 8d26 4a3d 56be debd 2735 773d
00000290: 8fc5 60be 2580 80bd ea01 3f3d ac51 12be
000002a0: 8d67 f5bc 85b2 523d 82c4 ea3c 5354 54bd
000002b0: 945b 7abe ea19 d5bd 58c2 983c 0b1a 86bd
000002c0: a875 a2be ad5a 823e 231e 643c 9596 63be
000002d0: 88ee 713d f873 61bd a608 89be ef25 0c3e
000002e0: 28c5 dabc 4036 103e a9e6 ab3d cb5c 253d
000002f0: 3f5b 2dbe 9ea6 5d3d e743 8fbd bc54 17be
00000300: e7db 743e 6a33 153d e85a 36be 1da0 25bc
00000310: d09e 7cbd 074d 76be 011f 04bc 1dae 1b3e
00000320: 3b3c 2dbe 48a9 c23c 83fb f73d 7d68 4fbd
00000330: 0b21 0b3d ba2b 943d 329b a0bd b3ca 503b
00000340: 4b3a 3abe ab8f 333d 02b3 30be d714 f73d
00000350: c29c 073d 59fe 0fbe 8b70 c83d 8ccd 543d
00000360: 3333 17be 1575 2abe f909 85bd 8e2b 99bc
00000370: 2977 f83d b36e 363d f98b d63d c730 d4bd
00000380: 7ca0 05be b90d fbbc 29de 22bd 8177 a23d
00000390: 93e3 b6bd 365a 86bd 44a5 9abd 7edf 29be
000003a0: 38e8 443c 6b19 823d 541b b6be d422 65be
000003b0: 7b3b 5ebe d72c 383e 4afb d93d 2d26 063e
000003c0: c1af 893d a5c7 bf3c 2cc7 11be a1c3 9f3d
000003d0: 2f44 8ebd 4552 3ebe f274 dfbd e318 503e
000003e0: e42b 53bd d724 5dbe adb5 d4bd 3acf 33bd
000003f0: 975e 363e e7dd 823d b4a9 ce3d 7f67 013d
