Project/Assets/ML-Agents/Examples/SlideMan/SlideMan.onnx (onnx, 75719 bytes, 7 tensors)

action_model._continuous_distribution.log_sigma f4 [1, 3]
000000 30 0f d0 be 2a ca 48 be 64 fa 8c be
       -0.40636587 -0.1960837 -0.27534783

action_model._continuous_distribution.mu.bias f4 [3]
000000 eb 90 be bc 4a 3d 4c 3d a0 f0 94 bd
       -0.023262462 0.049863137 -0.07272458

action_model._continuous_distribution.mu.weight f4 [3, 128]
000000 f9 18 5e 3d 4a 21 d3 3c e9 62 2c 3d f9 65 42 bd
       0.054223035 0.02577271 0.042086516 -0.04746053
000010 52 f1 80 bd ba 66 a4 bc 6a f0 dd 3b ad ad ba bc
       -0.06296028 -0.020068515 0.0067730444 -0.022787893
000020 05 2e 3a bc 92 4f 04 3d 2f 75 c7 bd 41 98 8c bd
       -0.011363511 0.032302447 -0.09739148 -0.06864978
000030 12 ea 10 3d ed fe 1f 3c 78 eb f2 3d c1 f0 af 3d
       0.035379477 0.009765369 0.11861318 0.08590842
000040 c5 24 81 bd 57 bb 2b bc 08 16 80 3c 96 bc d9 3c
       -0.06305841 -0.010481677 0.015635505 0.026579183
000050 59 e4 6a 3d d5 a0 ae 3c 21 3f e1 bd ca 26 c1 3d
       0.057346676 0.021316925 -0.10998369 0.094312266
000060 45 7f 28 bc 31 db f8 bb 44 22 a2 bc 40 ba 17 3e
       -0.01028425 -0.007594489 -0.01979173 0.14817142
000070 4c 8b d7 3a 75 99 0b 3d d1 a1 02 3e 5b 35 c6 bc
       0.0016444712 0.034081895 0.1275704 -0.024195364
000080 57 cf 85 bc 15 ca ff 3c ea 9e 7a bc ce c4 8d bd
       -0.016334219 0.03122429 -0.015296677 -0.06922303
000090 e6 db d2 3c 4f 27 85 3c a6 9f a8 bd d9 ae 8a b8
       0.025739621 0.016254095 -0.082335755 -6.612921e-05
0000a0 f6 90 79 3a 44 63 ff bb c1 a2 37 bd 3e 75 54 3d
       0.0009520197 -0.007793816 -0.04483295 0.051869623
0000b0 3b 09 58 3d 7d c0 af 3b fb 74 d7 3b e7 dc fc bc
       0.052743178 0.0053635226 0.0065752245 -0.030867053
0000c0 96 f5 86 bc 38 82 38 3d 24 10 87 bb dd 5f 7e bb
       -0.016474526 0.04504606 -0.004121797 -0.0038814463
0000d0 82 a6 5c 3a a7 f5 a4 39 87 7e dd 3c 09 7e 46 3d
       0.00084171456 0.00031463543 0.027037872 0.04846004
0000e0 3c ac 64 3d c2 70 7e bc 5e ff 12 bd 40 55 7c bc
       0.055828318 -0.015529813 -0.03588807 -0.015401185
0000f0 f5 15 10 be fb c2 cd bc e4 7d 0b bd 4d 6e ad bd
       -0.14070876 -0.025117388 -0.034055606 -0.08468304
000100 b3 e9 56 bc 1b 91 a8 bd c5 d8 9c bd e8 fe b6 3a
       -0.013117242 -0.08230802 -0.07658533 0.0013961466
000110 7d 3d 9a bc c6 77 09 3d b7 01 9a 3d f3 c0 f6 3d
       -0.018828148 0.03356149 0.07519858 0.12048521
000120 d1 46 3d bd 0b 91 e0 bc 5a 9d 9a bb ee aa 16 bc
       -0.046210114 -0.027412912 -0.004718465 -0.009196026
000130 55 00 8c bd 16 52 06 be aa af be bd 2b 97 f1 bc
       -0.06836001 -0.13117251 -0.09310849 -0.029491028
000140 3e 55 49 bd e8 0a 37 3c f8 12 98 3d 36 09 26 3d
       -0.04915356 0.011172034 0.07425493 0.040536128
000150 56 f1 2e 3d bc 57 c3 bd fb 53 53 bd b4 33 51 bc
       0.042710625 -0.095382184 -0.051593762 -0.012768675
000160 6f 86 34 bd 3c 05 0b bd 1a a9 cd bb c7 cd f1 3c
       -0.04407352 -0.03394054 -0.006276262 0.029517068
000170 89 83 5d bc c5 f3 1d bd 91 55 38 bb 72 cc e3 3d
       -0.01352013 -0.038562555 -0.0028127173 0.11122979
000180 92 77 8d 3d 10 86 1a bd 15 ee 35 bd 67 72 80 3c
       0.06907572 -0.03772551 -0.044416506 0.015679551
000190 ba 00 47 3d c4 b3 ac 3d 41 17 4e 3c 2c 14 0c be
       0.048584677 0.08432725 0.012578786 -0.1367957
0001a0 18 5f f0 3d c3 05 75 3d db 47 00 3d d2 b2 61 3c
       0.11736888 0.059819948 0.031318527 0.013775544
0001b0 f7 f1 1b bd f8 10 51 3d df 71 ee bd e5 02 5d bb
       -0.038072553 0.051041573 -0.11642813 -0.003372365
0001c0 7b d8 9c bc 26 3f f2 bd ce e9 92 3d 3f 49 c7 bc
       -0.019146195 -0.11828451 0.07173501 -0.024326919
0001d0 6b a9 d7 3b 46 e7 a2 3c 72 0b 2f 3c b9 9d 64 bd
       0.0065814755 0.01988567 0.010683881 -0.05581448
0001e0 51 e8 0c bb 5d 2e 5b be 3e b7 56 bd cd 38 32 bc
       -0.0021500776 -0.21404405 -0.052420847 -0.0108778
0001f0 65 2c e7 bc 30 9f 9e bb 64 e7 61 3d 47 7c 86 bd
       -0.028219411 -0.004840754 0.055152312 -0.06566673
000200 45 8b 01 be f5 a0 90 bd db d3 92 3d 62 d3 60 3d
       -0.12650783 -0.0706195 0.071693145 0.05488909
000210 36 43 1e bd b2 91 ce 3c 37 9f 8f bc df aa 54 3d
       -0.038638316 0.025215957 -0.017531974 0.051920768
000220 ef 39 5f bd 17 7a 15 3a e2 2c 56 bd 6d 05 f8 bc
       -0.05449861 0.0005702092 -0.052288897 -0.030276025
000230 be 83 87 bd fd c7 ec bc 76 bc 4d 3c 44 03 eb bb
       -0.06616925 -0.028903956 0.01255714 -0.00717202
000240 3f e4 d8 bc 14 32 58 3c aa 69 75 3c 0c b4 82 3c
       -0.026476024 0.013195533 0.014978806 0.015954994
000250 af 3f 6e bd e0 73 0a bd 83 67 2b 3d e5 31 4f 3d
       -0.058166202 -0.033801913 0.041846763 0.050584693
000260 93 f9 48 bd d5 33 6d 3c 35 15 1b bc db 91 b3 bd
       -0.049066138 0.01447769 -0.009465505 -0.08768054
000270 5f 43 c5 3d 94 10 89 bc df 7d 01 3c a8 66 88 bd
       0.09631991 -0.016731538 0.007903545 -0.06660205
000280 d6 c5 04 3e ce b5 b8 bd b3 23 89 bd 08 77 5e bd
       0.12966093 -0.090190515 -0.06696262 -0.054312736
000290 c7 58 08 bd 4f 4f 95 bd 9d 4d b8 b9 6d 08 30 3d
       -0.03328779 -0.072905175 -0.0003515304 0.042976785
0002a0 af 25 88 3d 65 08 e1 3b 23 aa c2 3c 1b 9d 2c 3c
       0.066478126 0.006867456 0.023762768 0.010535504
0002b0 52 74 0b 3d 84 f0 48 bc 19 3a 24 ba 98 ce b3 bd
       0.03404648 -0.012264375 -0.0006264761 -0.08779639
0002c0 31 b1 93 bd a2 7d ad bd 4a 92 b3 3c 59 8a 11 bd
       -0.07211531 -0.08471228 0.021920342 -0.03553233
0002d0 cf f8 71 bd d0 62 4a 3d 6b 2e 40 bd 4e 8d b4 bd
       -0.059075173 0.04941064 -0.046919268 -0.08816014
0002e0 1e 73 c9 bc c2 80 9d bd c6 62 f2 3c c4 01 b6 3d
       -0.024591025 -0.07690574 0.029588114 0.088870555
0002f0 ae f5 bd 3d 09 71 86 bc 86 09 7b bd 8a c7 f3 bc
       0.09275375 -0.016411321 -0.06128838 -0.029758234
000300 4b c2 77 3d 9d 2a 98 bd dd 2e 2a bd 52 b1 90 bd
       0.060488027 -0.07430003 -0.0415486 -0.07065071
000310 0b 59 9c bd 23 7e a3 3d d4 54 1b be ac 54 57 bd
       -0.07634171 0.07983043 -0.15169078 -0.052570984
000320 a3 f6 68 3d 81 98 41 bd c1 6b 35 bc e3 5d 5c bc
       0.056875836 -0.04726458 -0.011073054 -0.013450119
000330 ab 55 85 3d 25 74 fb 3d ed f6 0d 3d 31 59 a8 bc
       0.065104805 0.12278012 0.034659315 -0.020550342
000340 dd 2d e4 bc 27 d3 40 3d a1 84 d4 bd 17 f8 f0 3c
       -0.0278539 0.04707637 -0.103768595 0.029415173
000350 a7 b1 85 bb 77 ec a5 3d ad 1a b6 b9 4d cb c9 bc
       -0.0040800157 0.08101743 -0.0003473362 -0.024633074
000360 97 fd cf 3c c4 8f 38 3c d1 bc ee 3c a4 72 db bc
       0.025389476 0.011264745 0.029142769 -0.026788063
000370 25 ae 6d 3d 66 21 ff bc 4b 82 b9 bd f2 b0 48 bd
       0.058027405 -0.031143855 -0.090580545 -0.048996873
000380 8c f4 2c 3c 80 2a 6d 3d 95 7b 08 bc 16 6c 7b bc
       0.010556351 0.05790186 -0.0083302455 -0.015345594
000390 1f b0 5f bd 31 48 97 bd 81 c1 87 3d 58 6c 23 3e
       -0.05461132 -0.07386816 0.06628705 0.15959299
0003a0 9f 31 c6 bd f6 65 45 be a3 a5 d3 bd 34 61 1f bd
       -0.09677433 -0.19277176 -0.10334327 -0.03891106
0003b0 a2 67 09 bd 74 76 8f 3c 01 f3 96 3d 59 ae 72 bd
       -0.033546098 0.017512538 0.07370568 -0.059248302
0003c0 57 c0 cd 3d 6e 14 3d 3d 10 ff 8e bd aa b5 53 bb
       0.100464515 0.04616206 -0.06982243 -0.0032304325
0003d0 9c bb 21 bc fb d0 b6 3c 4e b0 de 3c b5 8f 45 3d
       -0.00987139 0.022316447 0.027183678 0.048232753
0003e0 da ad 2b 39 fa 3b 22 3e b7 e6 b9 3d 2e ca f5 bc
       0.00016372596 0.15843192 0.090772085 -0.030003633
0003f0 8d 8d 9e bd 3b 69 e7 3d e1 8c b6 3d 19 ad ce 3c
       -0.077418424 0.11299368 0.08913589 0.025229024

network_body._body_endoder.seq_layers.0.bias f4 [128]
000000 3b 1b 65 bd cf 56 2b bd 5a 12 9f 3d 48 45 a8 bb
       -0.055934172 -0.041830834 0.07767172 -0.005135212
000010 16 b8 44 3c 80 66 98 bc 2a 1e 43 3c 30 a7 f7 bc
       0.01200678 -0.018603563 0.011909047 -0.030231088
000020 34 63 77 bd 8c e3 34 3d 1c 81 73 bd 6c 27 e3 bd
       -0.06039734 0.044162318 -0.0594493 -0.110915035
000030 20 4f 93 bd 51 1a 5e bd b5 d4 41 bc 70 de c2 bd
       -0.07192826 -0.054224316 -0.011830498 -0.09515083
000040 3c 74 03 be 6a 4e 16 bd 14 9c 9a bd e5 4c 9c 3c
       -0.12837309 -0.036695875 -0.07549301 0.019079635
000050 21 c2 cb bd 5d 49 40 bd 5b ad a1 bd d5 f8 56 bd
       -0.099491365 -0.046944965 -0.07894393 -0.0524834
000060 e3 9b c4 3d 73 47 8f bb 44 6a fa 3c 89 8b df bc
       0.096000455 -0.004372531 0.03056825 -0.027288215
000070 74 04 c5 3d 46 75 d0 bc 93 7e b6 bd 0a 27 10 3d
       0.0961999 -0.025446545 -0.08910861 0.03519348
000080 f7 f9 3e bc 9d ac 14 3d b9 2f 0f 3e c7 3b bf 3b
       -0.011656276 0.03629743 0.13983048 0.0058359834
000090 4b cd 80 bd d3 eb 7a bc d9 c6 81 3d 1d ef 8a bc
       -0.062891565 -0.015315014 0.06336755 -0.016959721
0000a0 70 bf 5e 3c 85 ee 10 bd 89 b7 36 be 6a c6 fe 3c
       0.013595447 -0.03538372 -0.1784345 0.03110047
0000b0 0e 58 cb 3d 93 ce 00 3d 5a 2d 21 bd a0 88 1c bd
       0.099289045 0.031447005 -0.03934989 -0.038216233
0000c0 db b8 93 3a 67 31 05 bb 71 cf 4f bd c3 40 69 bd
       0.0011270301 -0.0020323636 -0.05073494 -0.056946527
0000d0 63 ea 85 bd 84 9f 11 be d7 a2 20 3d eb 52 03 be
       -0.06538846 -0.14221007 0.039217796 -0.128246
0000e0 37 20 43 3d 26 8e 90 bd d7 d9 93 3d 1c d8 1c bd
       0.047638144 -0.07058363 0.07219284 -0.038292035
0000f0 37 eb ad bd a1 84 e1 3b 08 95 06 bd 6c fa 01 bd
       -0.08492129 0.0068822657 -0.03285697 -0.03173296
000100 1b 02 1c be 78 b3 e2 bb 25 5b 68 bd 1c 0f 8d bd
       -0.15235178 -0.006918367 -0.056727547 -0.068876475
000110 21 6a 9d bd 56 fb 32 bc 6d 15 f5 bd 0c 9b 97 bd
       -0.07686258 -0.010924181 -0.11966977 -0.0740262
000120 27 30 c7 3b 0d 17 be bd d0 36 9a bd 03 37 87 3c
       0.0060787383 -0.0928174 -0.07529986 0.016505724
000130 f8 2f 00 bd e0 fb e4 bb 3b df 0d be f1 40 c8 3b
       -0.031295747 -0.0069880337 -0.13854687 0.0061112572
000140 b6 2d ab 3c de cc 94 bd ec ba 17 3d 22 80 80 bb
       0.02089582 -0.07265638 0.037043497 -0.0039215246
000150 a0 5b 13 bd 98 e1 cf bc 7b 5c 93 bd f1 48 0b bd
       -0.035976052 -0.025376126 -0.071953736 -0.03400511
000160 66 77 c7 3d 3e 91 1b 3d f6 06 f5 3d 30 5e 06 bd
       0.0973957 0.03798031 0.11964218 -0.032804668
000170 c2 e9 03 bd e8 50 e8 bd ca b3 96 bd 53 68 91 ba
       -0.03220535 -0.11343557 -0.07358511 -0.0011093713
000180 7f 04 12 3d c6 f9 14 bb b9 11 e8 3c 84 25 51 bd
       0.03564882 -0.0022731884 0.028328763 -0.05106117
000190 dc d2 e3 bd 44 46 09 bd 6e 33 54 bc 2b f7 d3 3d
       -0.111242026 -0.033514276 -0.012951715 0.10349878
0001a0 fa b4 5a bd 83 24 e6 bc ba 5c c4 bc 35 e9 7c bc
       -0.05339525 -0.028093582 -0.023969997 -0.01543646
0001b0 ad 8c ba bb 76 d9 b0 3c 87 9a af 3c a2 35 98 bd
       -0.0056930394 0.021588068 0.021435989 -0.07432105
0001c0 15 8f db 3c b9 ec a5 3d 6f bb f8 bd 37 67 8c bd
       0.026801625 0.08101792 -0.12145125 -0.06855624
0001d0 82 15 ab 3d 4f 87 9b 3c 95 69 e9 bd aa c7 69 bc
       0.08353712 0.018985419 -0.11397091 -0.014268795
0001e0 0b 0e 82 bc 3e 50 69 3d cb fb 05 be 82 7a d7 3c
       -0.015875837 0.05696129 -0.13084333 0.026303533
0001f0 ab 19 12 bd 44 c6 9b bd ee 50 a9 3c 46 12 e7 3b
       -0.03566901 -0.076061755 0.020668473 0.007051739

network_body._body_endoder.seq_layers.0.weight f4 [128, 11]
000000 94 e7 1a be 51 e0 48 be c8 b5 c1 3d 2a 76 c7 3e
       -0.15127403 -0.1961682 0.094585 0.3895734
000010 aa ea 00 bf 16 d6 b3 3e 9c c3 50 3e 19 ad 91 bd
       -0.5035807 0.35124272 0.20387119 -0.07113094
000020 a1 0a b4 3e 19 7c 6f be a0 eb 61 3d 31 a7 62 bd
       0.3516436 -0.23387183 0.05515635 -0.055335227
000030 f3 e1 80 be e6 5a 18 3e c5 da 86 bd 20 07 05 3f
       -0.25172386 0.14878425 -0.06584696 0.51963997
000040 a4 be 84 be 08 34 b3 bb a8 64 ef 3d 69 6d 04 bf
       -0.25926697 -0.005468849 0.116891205 -0.51729447
000050 bd e6 eb be 39 f3 90 3e 02 00 02 3c 2b 33 fc bd
       -0.46074477 0.28310564 0.007934572 -0.12314447
000060 a4 80 52 be 30 3a 9d be ae 2d 3a 3e 5d b5 26 3c
       -0.20556885 -0.30708456 0.18181488 0.010175076
000070 73 71 d8 3e 7c c5 f4 3e 53 ac d7 3e 15 92 97 be
       0.42274055 0.4780692 0.4212366 -0.2960364
000080 20 00 ce bd 6a c0 57 3e e3 75 4b 3f 95 2d 50 bd
       -0.100586176 0.21069494 0.79476756 -0.05082472
000090 37 4e 85 be 90 45 26 3e 7e df 4c bc fb 46 4f be
       -0.26036236 0.16237473 -0.012504457 -0.2024192
0000a0 a8 22 2e 3d b0 9c d0 3e 65 e4 38 3e 30 67 2d 3e
       0.04251352 0.40744543 0.18055876 0.16933894
0000b0 e4 f6 c1 3e 46 34 fd be 38 5d 92 3e 94 d8 54 bd
       0.37883675 -0.49453944 0.28586745 -0.051964357
0000c0 3a 54 05 3e b0 d2 7a 3e aa d1 77 3e 8a bb c3 3d
       0.13020411 0.24494433 0.24201074 0.095572546
0000d0 55 4a c4 3e f2 22 c9 bd 03 da 9c be f5 4c 56 3e
       0.3833796 -0.098211184 -0.3063508 0.20927794
0000e0 bb 29 ee be 5e b9 3b 3e f9 01 5b 3e 07 27 90 bd
       -0.46516213 0.1833243 0.21387471 -0.07038694
0000f0 e0 28 2f 3e ce cd f7 3e 55 ba e6 be 54 be 48 bf
       0.17105436 0.48399204 -0.45064035 -0.7841542
000100 3a 97 6a 3e 37 57 82 3e 8e de df bd b0 be f6 be
       0.22909251 0.25457165 -0.10931121 -0.48192358
000110 6e f1 fa 3e 0e 80 8f 3e c2 fd ac bd c4 45 a2 be
       0.4901232 0.28027385 -0.08446838 -0.31693852
000120 13 aa 3d 3f ca ca 15 be 98 74 e0 3d b5 66 fb bb
       0.7408764 -0.14628139 0.109597385 -0.0076721557
000130 0f f2 06 3e d0 23 1f be eb 59 0d bf 50 9a 46 3e
       0.13178276 -0.15541005 -0.5521533 0.19394803
000140 66 dd 85 3e 52 e8 ed 3e c5 3e b8 bd 25 cf 34 3e
       0.26145476 0.4646631 -0.08996347 0.17657144
000150 4e 50 aa be 2f f7 18 3d 1f 1d d4 3e 3f 95 c2 3d
       -0.33264393 0.037345108 0.41428468 0.09501123
000160 ab 99 21 bf 14 91 d4 3d 5a a0 7c be 55 5d b9 be
       -0.63125104 0.10379234 -0.24670544 -0.3620402
000170 6e f2 62 be a5 eb 82 3d c7 cf 2b 3f 62 29 1e be
       -0.22162792 0.06392602 0.6711392 -0.15445474
000180 9a ef 24 bd 9a 62 45 3d 66 90 eb 3e 3e f1 96 3d
       -0.040267564 0.048189737 0.46008605 0.07370232
000190 c8 af a1 3d c9 79 bb 3e 60 e0 2d be 56 34 59 be
       0.07894856 0.36616352 -0.16980124 -0.21211371
0001a0 1a 7f 5e be d8 03 3d bf a1 0f 16 3e 5f 9c 09 bd
       -0.21728173 -0.7383399 0.146544 -0.033596393
0001b0 ce f3 cc be 18 78 c0 bd 5d 8a 5b 3e 1c 5f d7 be
       -0.40029758 -0.09397906 0.214395 -0.4206475
0001c0 5d d1 9a 3d c7 31 bf be 19 e9 a8 be 6f fe ae 3d
       0.07559464 -0.37342665 -0.3299034 0.08544623
0001d0 20 01 95 3e 2e b5 14 be ba 5f 98 be 17 9d b4 bd
       0.2910242 -0.1452224 -0.29760534 -0.08819025
0001e0 63 ac d8 be 74 81 18 bd b1 59 31 be 42 33 8b be
       -0.4231902 -0.03723283 -0.17319371 -0.27187544
0001f0 b4 a4 a1 3d 76 56 8f be 56 3f fe be 47 28 f2 3e
       0.07892743 -0.27995652 -0.49657696 0.47296354
000200 82 30 0c bd 06 5a 1f be 3d 5a 4e bf a4 57 16 bf
       -0.03422595 -0.15561685 -0.8060644 -0.5872748
000210 74 5e a4 be 8c dc 1b bf 62 f2 74 be be e0 c7 be
       -0.32103312 -0.608834 -0.23920587 -0.39038652
000220 d0 16 10 bf 50 52 16 bf 8e 77 0a 3d 67 77 91 be
       -0.5628481 -0.5871935 0.033805422 -0.2841141
000230 c3 3a 15 3f 56 46 c5 3e 1d 3f 95 3e c2 0e f4 bd
       0.5829279 0.38530225 0.29149714 -0.11916877
000240 5f 5d 98 3e cb cd f5 3d d8 c3 1d 3e a2 c8 d5 be
       0.29758736 0.120021425 0.1540674 -0.41754633
000250 d7 3b 2a be af 26 47 bd 35 ee f0 bc 7d 40 82 3d
       -0.1662439 -0.048620876 -0.029410461 0.063599564
000260 b0 7e d0 be 58 4f 5f bd a0 b1 2b bf 05 29 ef 3e
       -0.40721655 -0.054519027 -0.6706791 0.46710983
000270 6a f8 c7 3e c2 d2 1e 3f de e9 d0 bd a5 3a 1e 3e
       0.39056712 0.6204034 -0.102008566 0.15452059
000280 34 ac 4c 3e 94 b0 95 be 6d 56 27 bf e0 46 9b 3e
       0.19987565 -0.2923628 -0.6536625 0.3032751
000290 aa 7c 3b 3d ed 54 07 3f 9c 7a 28 be 02 46 db 3e
       0.045773186 0.5286396 -0.16453022 0.4282685
0002a0 17 82 63 be 8b 00 d4 bd 73 87 b4 be 39 ba 86 be
       -0.22217594 -0.10351666 -0.3525959 -0.26313952
0002b0 9e 8f 06 3f 94 a4 97 bd 21 90 50 be df 50 0f 3d
       0.5256289 -0.07404438 -0.20367481 0.034989234
0002c0 27 d3 0c 3e 36 59 27 3e 34 d7 13 3f 12 cb 8d 3d
       0.13752423 0.16342625 0.5775025 0.06923498
0002d0 00 18 40 3f 4f 60 fb be a0 7f d9 be d9 5b 30 3e
       0.7503662 -0.49096915 -0.42480183 0.17222537
0002e0 b7 7f 0b be 06 78 c5 be 30 47 ac bd a5 10 95 3e
       -0.13622938 -0.38568133 -0.084120154 0.2911426
0002f0 24 23 0a 3e b9 59 0a be 58 3c c9 3e 54 16 71 3d
       0.13489968 -0.13510789 0.3930385 0.058859184
000300 fd 04 2f 3e 4c a7 20 3e ec e6 5a be 5a ef 2b 3e
       0.17091747 0.15688819 -0.21377152 0.16790524
000310 79 c9 fb bd 8c ef bb be 2c 69 87 3e af 07 e5 3d
       -0.12294287 -0.36706197 0.26447427 0.11183106
000320 f5 0f 07 3c 38 df 63 3e 5a f3 94 be 19 89 cd 3e
       0.008243551 0.2225312 -0.29091913 0.4014366
000330 4a 37 d6 3e e5 f0 7a 3e 53 c9 5b 3f b1 75 22 be
       0.41839057 0.24505956 0.8585407 -0.15865208
000340 4c fc 00 bf 75 c6 a4 3e ad 8d 43 3f 8b 11 3a 3d
       -0.50384974 0.3218266 0.76388055 0.045426887
000350 86 67 14 be 2c 04 b9 bd 34 28 ae 3e 8e 8e 0f be
       -0.14492616 -0.09033999 0.34015048 -0.14019224
000360 c6 b7 a5 3e f7 20 0c be 2f dd 36 3f 2a 22 bf 3e
       0.3236677 -0.1368445 0.7143125 0.37330753
000370 d3 7c ab be 14 13 74 3d 84 12 5e be e5 c9 ad 3e
       -0.3349367 0.059588507 -0.2168675 0.33943096
000380 6e 16 86 bd 2c af c7 bd d7 31 c0 be f5 e6 69 3c
       -0.06547247 -0.09750208 -0.37538025 0.014276256
000390 81 46 1a be 55 ae c7 bd f8 df b0 be 45 64 01 bf
       -0.15065958 -0.09750048 -0.34545875 -0.50543624
0003a0 45 bf 24 3e fa 12 f3 3e 91 76 54 3e ca b7 81 3e
       0.16088589 0.47475415 0.20748354 0.25335532
0003b0 7c 9c 85 be 58 a6 1b bd 42 58 28 be 66 69 cc 3d
       -0.2609595 -0.038000435 -0.16439918 0.09981041
0003c0 6e c5 83 3e d3 b8 a6 be a3 a0 02 3f 29 ad 91 3b
       0.25736564 -0.32562885 0.5102636 0.004445691
0003d0 0a 61 1a be d6 43 2f 3e f6 d5 6e bc 0b 8c fe 3d
       -0.1507608 0.17115721 -0.014577379 0.12429055
0003e0 68 59 c8 be fb 8e 5f 3e 91 6d e1 3e 04 f2 f2 3e
       -0.39130712 0.21831886 0.44028905 0.47450268
0003f0 dc 32 bc be c8 74 e4 be 7c 28 65 3e 81 aa c3 3c
       -0.36757553 -0.44620347 0.22378725 0.023885014

network_body._body_endoder.seq_layers.2.bias f4 [128]
000000 96 f2 f3 3c ee d0 80 bc 67 43 ee bc 61 74 d2 bc
       0.02977876 -0.015724625 -0.029084874 -0.02569026
000010 ba 5b 95 bd 01 c2 a0 bd 8e e8 1d bd 71 6f 7a 3c
       -0.07292886 -0.07849503 -0.03855186 0.015285359
000020 bb 77 39 bd ff 9d 18 bd c3 25 55 bd ea 59 a2 3b
       -0.0452802 -0.03726005 -0.052037966 0.0049545662
000030 3f 41 0f 3b 67 6c 9c bc 67 66 2d 3d e2 6f ad 3c
       0.0021858958 -0.019094659 0.042333987 0.021171514
000040 89 dc ad bc 9a fe 5e bd 64 5d 55 bd fb b7 7e bd
       -0.021223323 -0.054442026 -0.052091017 -0.062187176
000050 1c 0a b6 bc bd 9d 16 bd 1b 68 60 3c 61 47 db bb
       -0.022221617 -0.036771525 0.013696696 -0.0066918586
000060 25 62 83 bc c0 4c 06 bd bc 7d 63 bd 0e 4d d1 bc
       -0.01603801 -0.03278804 -0.05553983 -0.025549438
000070 43 65 87 3c b1 4c 82 bd e3 42 9f 3d 2b 5c fb bc
       0.016527778 -0.06362284 0.077764295 -0.030683598
000080 8b 50 7b bd 6b 15 48 bc 58 d2 4d bd ec c7 7f bd
       -0.06135611 -0.012212138 -0.050249428 -0.06244652
000090 6e 2e 3d bd 9b c7 0d bd 54 f1 11 bc d1 d0 86 bd
       -0.046186857 -0.034614187 -0.008907635 -0.06582797
0000a0 f9 ee 24 bb 4c ac 9a bd 75 33 30 bd d5 1b db bc
       -0.0025166853 -0.07552394 -0.043017823 -0.02674667
0000b0 b3 d0 94 bd 69 f1 47 bd 53 6e 6b bc 7b 6c 74 3b
       -0.07266369 -0.04881421 -0.014369565 0.0037296105
0000c0 e2 cb 0f bb 77 11 70 bc 87 96 32 bc b1 ee 9b bd
       -0.0021941592 -0.014652601 -0.010900146 -0.07613886
0000d0 5e 71 0a bd 72 0c 0c bd 4b 0b 72 bb ab 85 b6 bc
       -0.03379952 -0.034191556 -0.0036933 -0.022280535
0000e0 e5 24 68 bd e2 63 66 bc 3b 56 b8 3c 7a 6f 09 bd
       -0.05667581 -0.0140619 0.022502055 -0.033553578
0000f0 d4 c8 43 bb 64 b0 51 bd ce 12 31 bd 14 0a 16 bd
       -0.0029874342 -0.05119361 -0.043230824 -0.036630705
000100 a1 f4 a7 3d c9 11 54 bc 89 1e ab 3c a6 e7 b9 ba
       0.08200956 -0.012943693 0.020888584 -0.0014183416
000110 81 95 32 bc 15 4e 30 3b ed 3d 44 3b 26 af 9e bc
       -0.010899902 0.002690201 0.0029944137 -0.019370627
000120 0d 29 22 bd 97 7d 05 bd 46 df d6 bc aa 98 38 bd
       -0.03958993 -0.032590475 -0.026229512 -0.045067467
000130 40 19 2e bd c0 cc a0 3b 4c 38 9e bb 91 f8 99 bc
       -0.04250455 0.0049072206 -0.0048284885 -0.018795284
000140 a8 b1 e8 bb 1a c8 2b bd 2d 5d b2 3c d8 a0 54 bd
       -0.0071012564 -0.04193888 0.021772945 -0.051911205
000150 0a 63 fc bc 73 c3 8f 3b be 03 94 bc ae 52 1c bd
       -0.030808944 0.004387313 -0.01806819 -0.038164787
000160 c1 a9 92 bd 2a 3c ec 3b 72 92 80 bc 62 93 c2 bc
       -0.07161284 0.0072093206 -0.01569483 -0.023751918
000170 6e 1d 31 3d 20 41 6b bd b4 d9 b8 bc 13 46 43 3d
       0.043240957 -0.057435155 -0.022564746 0.04767425
000180 7f 1e 19 bd 74 68 8f bd 0c 16 d6 bc dc 69 d7 bc
       -0.0373826 -0.07002345 -0.02613356 -0.026295595
000190 9b 3d fb bc 12 ff 37 ba eb ea 01 bd 84 6f f1 bc
       -0.030669024 -0.00070189044 -0.031718176 -0.02947212
0001a0 43 48 10 3d 98 5b 40 3d 35 81 80 bd 79 97 6a bd
       0.035225164 0.04696235 -0.06274644 -0.05727336
0001b0 8a c6 7a bd d9 7f 61 bd 3f 0d 3c bc a1 c0 a0 3b
       -0.061224498 -0.055053566 -0.0114777675 0.0049057757
0001c0 8b 60 e2 bb 11 d7 f9 ba b3 5a 08 bc 14 6e d3 bc
       -0.0069084815 -0.0019061287 -0.008322406 -0.025809325
0001d0 0c 46 49 bd 39 ca 6b bd 7c 41 99 bd f7 f0 76 3c
       -0.049139068 -0.0575659 -0.07483193 0.015072099
0001e0 09 c0 57 bd 13 de 55 3c 9d 9d 5a 3c 47 43 0b bd
       -0.052673373 0.013053435 0.013343242 -0.033999708
0001f0 b9 c8 20 bd a1 f0 80 bd cd da 78 bc 2a c7 23 bd
       -0.039253924 -0.06295896 -0.015188885 -0.03998486

network_body._body_endoder.seq_layers.2.weight f4 [128, 128]
000000 a2 6f cf 3d 2d b6 da 3d aa 2e e4 3d f7 bc 3d 3d
       0.10128714 0.106792785 0.11141713 0.04632279
000010 e4 86 08 be b8 93 f2 bd 25 3f a8 3d 66 35 dc bc
       -0.13332707 -0.11844581 0.08215169 -0.026880931
000020 be 05 08 be 06 64 49 bc d4 4d 2f bd 7b b3 19 be
       -0.1328344 -0.012291914 -0.042798832 -0.15009873
000030 38 f5 a6 bd 6f d0 0c bc 5b e0 a4 bd dd a0 df 3d
       -0.081522405 -0.008594616 -0.08050605 0.10919354
000040 a5 b2 3b 3d 05 9e ef 3c ff 2b a4 bd 60 96 12 3e
       0.045824666 0.029250154 -0.08016204 0.14315176
000050 57 9c e2 3d 69 d7 03 3e 48 24 d8 3c 01 39 78 3d
       0.11064976 0.12875141 0.026384488 0.06060124
000060 d4 4c 8c bd 36 64 95 3c 20 60 d5 bc de 96 41 3d
       -0.06850591 0.01823626 -0.026046813 0.04726302
000070 fa c9 19 3d 86 46 15 bd 75 d8 4e 3d 61 4f f4 3d
       0.037546135 -0.03644421 0.0504994 0.11929203
000080 be 0c f7 3c 26 7e 89 3e b6 5c 04 3e d0 6c 2d 3d
       0.030157443 0.26854056 0.12925991 0.0423401
000090 43 4d 35 bd c6 d5 05 3e ad 0b ce bd 8f 6c ad bd
       -0.044263136 0.1306983 -0.10060821 -0.084679715
0000a0 70 87 93 bd ec 1b 0d be fa 32 0f bd 06 0a ec 3c
       -0.07203567 -0.13780183 -0.034960724 0.028813373
0000b0 a3 af 21 be bd 00 28 be f3 50 37 3e b6 96 cc bd
       -0.15789656 -0.16406532 0.17901973 -0.09989683
0000c0 8d 34 22 3e 1e 8d 44 3d f7 22 aa bc 64 81 93 ba
       0.15840359 0.047986142 -0.020768626 -0.0011253771
0000d0 6d a6 8d 3d 42 4f 1f 3d 70 8e 97 3d 4b f5 9b bd
       0.06916509 0.038893946 0.07400215 -0.07615145
0000e0 12 08 b4 bd 21 32 5a bd 9a f3 98 3d 51 0c cc 3d
       -0.08790602 -0.053270463 0.07468338 0.09963287
0000f0 67 28 9f bd 60 9b a4 bb c0 15 8d 3d e6 e4 64 3c
       -0.07771378 -0.005023405 0.06888914 0.013970589
000100 90 40 d7 bc 73 14 fd bd 9e 09 47 bd 04 62 b5 bd
       -0.026275903 -0.12357416 -0.048593156 -0.088565856
000110 7e af 7e 3d 0e 99 35 bd 16 e5 99 3c 74 79 11 3e
       0.06217908 -0.044335417 0.018785994 0.14206487
000120 25 19 cb bc 83 c4 2b bd 00 e0 6b bd be 2f 3a 3d
       -0.024792263 -0.041935455 -0.05758667 0.045455687
000130 cf 67 46 be 65 c8 cd bc 5a c4 11 3e e3 6b e0 3c
       -0.19375537 -0.02511997 0.14235058 0.027395194
000140 f4 4a 99 3d 1a 40 80 3d 75 5b 37 bd c8 14 d9 bb
       0.07484999 0.062622264 -0.044764955 -0.006624792
000150 cf 60 d1 3d 6f 2b 85 3e a4 eb 1b be 13 36 74 3e
       0.10223543 0.260097 -0.15226609 0.23848753
000160 7f 81 2d be ca d7 0d be 51 a6 84 3c 08 4f 71 bd
       -0.1694393 -0.13851848 0.016192587 -0.05891326
000170 1f 57 dc bc 9f 5c 50 3d 4b f6 e0 bb 4d 93 09 be
       -0.026897011 0.05086958 -0.006865298 -0.13435097
000180 0a 31 f7 3d 99 a3 b6 bd ff 5f d2 bc c3 89 a0 bd
       0.120699 -0.089179225 -0.02568054 -0.07838776
000190 95 db b1 3d 59 dc 77 be ca 26 49 3c 00 52 53 bd
       0.0868446 -0.2420515 0.012277314 -0.051591873
0001a0 e4 56 c2 3d 89 9d d9 bd 22 e6 38 3d 96 a7 0a bd
       0.09489229 -0.106257506 0.045141347 -0.03385123
0001b0 f2 11 06 be ae 46 b9 bd ac 8d d2 3d 03 20 c6 bc
       -0.13092783 -0.09046684 0.10280928 -0.024185186
0001c0 b3 a5 17 bd 67 b0 8e bd 83 0e db bc 47 36 bd 3d
       -0.037023257 -0.0696724 -0.026740318 0.09238868
0001d0 f3 7b b5 3d 7e f6 65 bd a0 3b c7 3d a9 8b 61 3d
       0.08861532 -0.056143276 0.097281694 0.05506483
0001e0 97 b2 03 bc 9c 26 cf 3d 34 20 69 be a4 76 a7 bc
       -0.008038185 0.10114786 -0.22766191 -0.020442314
0001f0 19 82 11 bd 14 ef 21 3d 82 35 f6 3d 1b b1 fc bd
       -0.03552446 0.039534643 0.120219246 -0.12338468
000200 3e 42 e1 bd 9c b7 5d 3d cd 9f 88 bd 91 90 14 bc
       -0.10998963 0.05413018 -0.066711046 -0.00906767
000210 f0 85 18 bd 0b 07 27 be ca 0a ef bd 14 e0 97 bd
       -0.037237108 -0.1631128 -0.1167198 -0.074157864
000220 b3 44 52 be c4 ec 0a be 4d 46 08 3e 78 e0 39 be
       -0.20534019 -0.13566881 0.13308068 -0.18152034
000230 a2 24 45 be 44 2a 81 3d 61 e3 f2 3c fa da 0c 3e
       -0.19252256 0.0630689 0.029649438 0.13755408
000240 ba ef 19 3e db 0a e7 bc c4 a0 3b 3d 96 8f b1 bd
       0.15032855 -0.028203418 0.045807615 -0.08669965
000250 a9 ed 22 3e a9 0d 76 bd f3 6d e8 3c 93 9b 8d 3d
       0.15910973 -0.06007162 0.02837274 0.06914439
000260 10 5f 3f 3d 51 54 93 3d 93 a2 0b 3d 67 18 0e be
       0.046721518 0.071938165 0.03409059 -0.13876496
000270 82 91 09 bd 4f fc 27 3c 92 cf 41 3d ed f4 91 3d
       -0.033586033 0.010253026 0.047317095 0.07126794
000280 f2 14 c8 bb 71 d6 31 bd 7d 02 d9 bc ad 8f 25 3d
       -0.0061060125 -0.043417398 -0.026490444 0.040420223
000290 1f 86 69 be 45 f7 af 3d 91 c7 09 3e 98 57 bb 3c
       -0.2280507 0.08592085 0.13455035 0.022868916
0002a0 bb 18 a3 3d d7 4d 28 be 4f be e2 bd 41 69 99 3b
       0.07963701 -0.16435944 -0.11071455 0.0046817367
0002b0 44 62 06 be 2e ed 20 be 64 d6 1c be 6d 67 76 be
       -0.13123423 -0.15715477 -0.15316159 -0.24062891
0002c0 93 2c 2a bd 93 9a d6 bc 69 25 4d 3d fa 68 df bc
       -0.041546416 -0.026196754 0.050084505 -0.027271736
0002d0 c3 58 ad 3c 18 8b 0e 3d 7a 70 c8 3d da c9 6d 3d
       0.021160489 0.03480062 0.09787078 0.05805383
0002e0 1b 89 98 be 24 8b 4b be 6f 93 dd 3c 0f a5 bf 3d
       -0.29792103 -0.19877297 0.02704784 0.09357654
0002f0 2a 58 bc 3d 7e a3 3d bd bb 19 8c bd 78 da 54 bd
       0.091965035 -0.046298496 -0.06840845 -0.05196616
000300 05 b6 d0 3d 1f 7d a7 3d 10 59 dd bd fa 0d f8 3c
       0.101909675 0.08178162 -0.10808003 0.030280102
000310 e5 90 c8 bd b3 d1 a6 bd 38 72 20 3e 3a 8a f2 bc
       -0.097932614 -0.08145466 0.15668571 -0.029606927
000320 30 a6 c9 3d f8 2d c6 bd 4c ad bf bc 0c c2 48 3d
       0.09846151 -0.096767366 -0.023398064 0.049013183
000330 0a 69 aa bd fd d8 ca 3d 0a b6 3c be 97 4f 1a 3e
       -0.08320816 0.099046685 -0.18428817 0.15069424
000340 05 3f 3e bd 10 a0 bf 3d 93 54 14 3e 10 f0 e3 3d
       -0.04644682 0.093567014 0.14485388 0.11129773
000350 5a 3a dd 3b fb aa 97 3d 3a bc 1a 3e 29 89 dc 3d
       0.006751341 0.07405659 0.15110865 0.10768349
000360 62 96 54 bd 10 cc 9a 3d 97 18 3a bd c1 b6 4d be
       -0.05190123 0.07558453 -0.045433607 -0.20089246
000370 3d a3 28 3d b1 bc e7 bd 60 a1 fc 3d 97 78 15 be
       0.0411713 -0.11315287 0.12335467 -0.14596783
000380 2c d8 05 be fb e3 29 3e ae b3 4a bc b7 9f b7 bd
       -0.13070744 0.16590874 -0.012371941 -0.0896601
000390 cc 79 52 3d 41 6c ed bd 00 67 04 3d 57 89 28 be
       0.051385686 -0.115929134 0.03232479 -0.16458641
0003a0 8b 16 4b bc f3 5c 2c 3e 1f 15 d8 3c de 58 46 bd
       -0.012395511 0.16832332 0.026377259 -0.048424594
0003b0 a3 58 46 be 3b b4 65 3b 36 53 0d 3c a5 a7 f6 bd
       -0.1936975 0.0035050053 0.008625796 -0.120436944
0003c0 89 be 6a 3d 0c 3b 29 bd 71 b7 b7 3d 0e 4d 87 bd
       0.057310615 -0.041316077 0.089705355 -0.06606494
0003d0 70 0e e6 bd f1 79 05 bc 88 8e b0 3d 00 85 d6 bd
       -0.112332225 -0.008146749 0.08620936 -0.104745865
0003e0 87 4b 7a 3d db e6 b1 3c 8a c5 96 bd 66 14 73 3e
       0.061107185 0.021716526 -0.07361896 0.2373825
0003f0 03 ed 0a 3e 2b 5d 6b be ea 15 1a 3e 01 b7 8c be
       0.13566975 -0.2298476 0.15047422 -0.2748337
